experiments/lstm_h2_l1_20241125_115433_0.5/final_model.pth (torch, 311216 bytes, 7 tensors)

embedding.weight f4 [15345, 2]
-0.5553938 0.6940326 -0.84433126 -0.19053349 0.10238798 -0.22978419 -0.052816343 -2.1128876
-0.8351555 0.84014547 -1.5392141 1.8425761 -1.4882967 1.4200692 0.11010304 0.79772174
0.3570076 0.4648546 -2.2865613 1.0278894 -2.3155818 1.2413998 -0.9224993 1.2657982
-1.5718505 1.3852845 -1.0597677 1.0437356 -1.0066178 2.017565 -1.2691705 2.0447166
3.2166028 -2.7605042 1.102612 -0.27897713 -0.7414457 -1.0588516 -1.5378027e-05 0.404954
-2.9410405 -0.21124512 0.05713942 0.9712774 -1.2459615 1.7147281 2.448388 -2.2672954
0.54117614 -1.2082677 -0.15937634 -0.37901032 -1.2932485 0.5137162 0.7664999 0.2188039
-0.42358792 0.6031118 0.19434498 1.8240191 -0.96691054 2.3252053 -2.1403189 1.1657214
-1.1124624 0.67443436 0.24272451 -2.0936265 -0.7613839 2.4752939 2.0416484 0.22310214
-1.1086239 -0.25093576 -1.2935748 0.85645866 -2.187215 0.88003075 -2.0111933 -0.19405335
-1.3224413 1.8234538 -2.507898 1.1623505 -1.5295881 1.7200289 2.5525548 -0.36897123
-0.7158587 -1.0675327 -0.5841947 1.1992595 1.8844386 -0.23495351 0.36438516 -1.2828441
0.1648481 -0.85917246 1.573517 -0.61662304 3.1479707 -1.9279823 -0.7815732 1.4394535
-1.8627014 0.01854681 -1.6086575 1.4021444 -1.81273 -1.1781417 -2.617513 -0.29786775
0.11364729 -1.159822 0.8624678 -0.061699975 -1.7773467 1.5328618 0.7323737 0.109866336
1.6063408 -1.2430594 0.5845317 -0.27421293 0.70593196 -0.22704788 -0.85323 0.84263897
-0.30371693 -1.5243284 0.70778334 0.7018622 -0.8480303 1.6348906 0.5131396 2.439828
0.48831075 -0.749831 0.9654004 -0.950101 0.9750448 -0.194653 0.17502612 0.13773556
0.5612202 -1.6946342 -0.54550946 1.1524909 1.0905615 -0.08573137 0.07505899 0.1750566
2.2134755 -1.0319229 -0.03123888 -0.6605918 -1.874157 1.6132715 1.3983157 -1.921593
0.23455076 0.19613338 1.4993225 -1.6733438 0.88452536 -2.3818092 2.254434 -0.93526655
-2.2044427 1.4279641 2.31275 0.55723464 1.5126874 0.82933265 -0.75907314 0.8414358
0.863914 -0.013991896 -1.5309374 0.7401034 2.3395228 -0.8708312 1.3717004 -0.29809782
1.6613861 -1.8200831 3.092321 0.4118016 2.8361907 -1.0933381 0.1787182 1.364051
-1.4705253 0.458851 1.3209354 0.17911533 0.8615846 -0.7898045 0.6559881 -0.96412265
-1.1762 0.029351741 0.974893 -0.5724889 -0.509449 0.2353019 -0.019573713 -0.6866492
1.9191568 -0.61855346 -0.16083734 -2.6792066 1.0503356 -0.48479882 0.82981473 -1.3146274
1.0975449 -2.1390183 1.2875111 -2.024864 -0.40137395 0.9776277 0.59145665 -0.2014966
-0.7942059 -0.5432153 0.19878073 0.15242538 -0.06612055 -0.72971594 -1.8413208 -0.45608896
1.9852254 1.0597485 0.8860352 -1.0216956 0.16315992 1.147554 1.5809789 -1.262313
1.8506954 -0.9079418 1.2237481 -0.71811485 0.5435478 1.8221989 -1.752187 0.55404776
-1.7640796 1.0186098 -1.0086335 1.0167749 -0.9848712 0.7464737 0.57167333 -0.06261971
00000000: 4a2e 0ebf 1fac 313f 1826 58bf 361b 43be
00000010: cab0 d13d 8c4c 6bbe f355 58bd 8d39 07c0
00000020: c0cc 55bf c613 573f f804 c5bf 89d9 eb3f
00000030: 8280 bebf d4c4 b53f b47d e13d 7e37 4c3f
00000040: b3c9 b63e 6c01 ee3e 0557 12c0 e191 833f
00000050: 7e32 14c0 30e6 9e3f ea28 6cbf ad05 a23f
00000060: 6632 c9bf 0151 b13f 78a6 87bf 2199 853f
00000070: dad8 80bf c91f 0140 2e74 a2bf a3dc 0240
00000080: d2dc 4d40 1aac 30c0 6422 8d3f 17d6 8ebe
00000090: 63cf 3dbf 7388 87bf 1000 81b7 2156 cf3e
000000a0: 023a 3cc0 a450 58be 060b 6a3d a3a5 783f
000000b0: ab7b 9fbf 367c db3f 64b2 1c40 5e1b 11c0
000000c0: 858a 0a3f 84a8 9abf 8d33 23be a40d c2be
000000d0: 2b89 a5bf e882 033f 5639 443f 210e 603e
000000e0: 84e0 d8be 8965 1a3f 5f02 473e 7579 e93f
000000f0: 7387 77bf 2ad0 1440 fcfa 08c0 5c36 953f
00000100: 2b65 8ebf bba7 2c3f c68c 783e fafd 05c0
00000110: 0eea 42bf 376b 1e40 5eaa 0240 e374 643e
00000120: 63e7 8dbf a77a 80be dc93 a5bf e040 5b3f
00000130: 55fb 0bc0 b249 613f 64b7 00c0 ecb5 46be
00000140: c245 a9bf ef66 e93f 6781 20c0 e7c7 943f
00000150: 8bc9 c3bf e829 dc3f 0f5d 2340 cce9 bcbe
00000160: 8442 37bf e9a4 88bf c98d 15bf 5681 993f
00000170: 4935 f13f a797 70be b190 ba3e 3c34 a4bf
00000180: f1cd 283e baf2 5bbf 0169 c93f 02db 1dbf
00000190: 5a78 4940 20c8 f6bf 2e15 48bf 0340 b83f
000001a0: 006d eebf 7bef 973c 7de8 cdbf 7879 b33f
000001b0: 8907 e8bf 59cd 96bf 5585 27c0 1f82 98be
000001c0: e9bf e83d 0c75 94bf b1ca 5c3f 1db9 7cbd
000001d0: 1980 e3bf d134 c43f d87c 3b3f 9a01 e13d
000001e0: 939c cd3f 921c 9fbf dfa3 153f a365 8cbe
000001f0: f5b7 343f 3d7f 68be 486d 5abf 30b7 573f
00000200: c980 9bbe 311d c3bf 4a31 353f 3ead 333f
00000210: 8418 59bf 1844 d13f 1e5d 033f 2426 1c40
00000220: de03 fa3e edf4 3fbf 7b24 773f d239 73bf
00000230: 899c 793f 1e53 47be 0c3a 333e 8d0a 0d3e
00000240: 21ac 0f3f c6e9 d8bf 82a6 0bbf d284 933f
00000250: 8597 8b3f ee93 afbd 87b8 993d 0a42 333e
00000260: 95a9 0d40 0d16 84bf aee8 ffbc 8b1c 29bf
00000270: 60e4 efbf ae7f ce3f 02fc b23f c2f6 f5bf
00000280: 132e 703e 30d7 483e cde9 bf3f 2130 d6bf
00000290: 4170 623f 906f 18c0 a648 1040 a16d 6fbf
000002a0: 9715 0dc0 87c7 b63f 1904 1440 eea6 0e3f
000002b0: be9f c13f 254f 543f 9e52 42bf 5668 573f
000002c0: 7829 5d3f 443e 65bc c2f5 c3bf 6b77 3d3f
000002d0: beba 1540 cbee 5ebf e193 af3f 47a0 98be
000002e0: 4da8 d43f 7cf8 e8bf 96e8 4540 a9d7 d23e
000002f0: 2684 3540 81f2 8bbf e701 373e 3999 ae3f
00000300: 2c3a bcbf 85ee ea3e 6914 a93f 026a 373e
00000310: cf90 5c3f a130 4abf d6ee 273f bed0 76bf
00000320: b98d 96bf 1073 f03c 9692 793f a28e 12bf
00000330: 406b 02bf fbf2 703e 0d59 a0bc 3ec8 2fbf
00000340: eea6 f53f 8559 1ebf 8bb2 24be 1f78 2bc0
00000350: 6671 863f 8d37 f8be bd6e 543f b645 a8bf
00000360: 5a7c 8c3f ade5 08c0 2acd a43f 5f97 01c0
00000370: e380 cdbe cf45 7a3f b469 173f 2055 4ebe
00000380: 1451 4bbf 2810 0bbf 2d8d 4b3e 6615 1c3e
00000390: 366a 87bd aace 3abf 66b0 ebbf 7e84 e9be
000003a0: de1b fe3f d7a5 873f 34d3 623f ecc6 82bf
000003b0: 6513 273e 0de3 923f 845d ca3f 7993 a1bf
000003c0: 96e3 ec3f e06e 68bf c7a3 9c3f 60d6 37bf
000003d0: f325 0b3f d03d e93f aa47 e0bf 13d6 0d3f
000003e0: 5ccd e1bf ce61 823f e71a 81bf ae25 823f
000003f0: 8520 7cbf e718 3f3f 2f59 123f c33e 80bd

lstm.weight_ih_l0 f4 [8, 2]
1.0739247 -0.44051048 1.547873 -1.5149367 1.3922199 -0.88861394 1.1602157 -1.4450517
-0.3612602 0.14486948 -0.74451005 0.80814886 1.119653 -0.547106 1.349114 -1.348219
00000000: 5d76 893f 978a e1be b420 c63f 72e9 c1bf
00000010: 4334 b23f 347c 63bf f381 943f 74f7 b8bf
00000020: 19f7 b8be aa58 143e 3698 3ebf d8e2 4e3f
00000030: ca50 8f3f 240f 0cbf c4af ac3f 7192 acbf

lstm.weight_hh_l0 f4 [8, 2]
0.36375427 0.072177775 0.18986267 1.0414798 1.5126233 1.7877743 0.14447156 0.68776965
0.764991 0.35677314 0.38736433 0.88805085 -0.94612825 -1.04083 -1.1654999 -1.5601923
00000000: 003e ba3e f1d1 933d 5c6b 423e 364f 853f
00000010: a49d c13f cad5 e43f 5af0 133e ac11 303f
00000020: 73d6 433f f8aa b63e 9e54 c63e 4d57 633f
00000030: 7635 72bf eb39 85bf 1a2f 95bf 62b4 c7bf

lstm.bias_ih_l0 f4 [8]
2.1581533 1.9942739 -0.34231457 -0.81602377 -1.8174751 -1.7743195 2.9295197 2.334612
00000000: 2f1f 0a40 5e44 ff3f db43 afbe efe6 50bf
00000010: 06a3 e8bf e71c e3bf 407d 3b40 486a 1540

lstm.bias_hh_l0 f4 [8]
2.2244067 1.511389 -0.2625394 -0.4191301 -1.6046079 -1.1956166 2.220811 2.117262
00000000: ae5c 0e40 3275 c13f 906b 86be 3898 d6be
00000010: cb63 cdbf f709 99bf c421 0e40 3881 0740

fc_out.weight f4 [15345, 2]
3.8739455 2.7193654 3.0970259 2.8175187 3.621661 2.910705 -0.91373813 -0.33553436
-3.48962 -2.5478895 -2.7412899 -2.1016371 -2.1745899 -2.8044116 -2.4717152 -2.8994055
-2.6642966 -2.2994363 -1.9088483 -2.557426 -2.5325785 -1.9775307 -2.2549071 -2.7481802
-2.5941439 -1.9536122 -1.5951629 -2.8374035 -2.2986217 -2.6566467 -2.4324646 -2.1591165
-1.6575017 -1.9971598 -2.0903158 -2.5122108 -2.1843219 -2.6379714 -1.8538828 -2.6072092
-1.7381184 -2.4286866 -2.0410264 -1.6197002 -1.7636179 -2.2689948 -2.1667063 -2.087423
-1.6259463 -1.7215735 -2.3247511 -1.7638978 -1.8270111 -1.9690691 -1.7619509 -1.8240618
-1.8693814 -1.6161507 -2.2440119 -1.3098159 -2.021005 -1.2766026 -1.10742 -1.6781399
-1.6118029 -1.9617102 -1.2146931 -1.7910727 -0.97711545 -1.9740691 -1.490543 -2.027875
-1.0824552 -1.6657676 -1.4710369 -1.6262345 -1.3148253 -1.8176141 -1.838428 -0.9296581
-1.9006577 -0.50239754 -1.248355 -1.9214697 -1.569283 -2.0457106 -0.9236828 -1.4444753
-1.7491189 -1.818124 -1.1973867 -1.2265599 -1.9233063 -1.6665986 -1.6589661 -1.5752194
-1.6381465 -1.832228 -0.9852546 -1.5181706 -1.6412585 -1.6705879 -1.4058936 -1.5981276
-1.5964601 -1.1117955 -1.5942354 -1.8539014 -1.3357309 -1.6355671 -1.2629013 -0.9528237
-0.8755432 -1.593641 -1.3276343 -1.2369965 -1.4577368 -1.6419905 -0.769 -1.9020101
-1.2853211 -1.7162266 -1.0382226 -1.453216 -0.9296929 -0.027329486 -1.5853412 -0.7301456
-1.4618688 -1.2454346 -0.72110647 -1.5853064 -1.3274227 -1.0686216 -1.3107176 -0.77822226
-1.5862073 -0.8070085 -1.4606555 -0.9443398 -0.9951232 -1.310298 -1.4686455 -1.0105658
-1.0719123 -1.5106461 -1.452119 -1.0001934 -0.89226305 -1.1406552 -1.4817979 -0.8875906
-1.4452435 -1.2403976 -1.3112354 -1.5901629 -1.6181446 -0.95980835 -1.7148328 -1.0025074
-0.53083956 -0.41803765 -1.364906 0.21827129 -1.1029086 -0.99729484 -0.575892 -1.282521
-1.3904189 -0.8313509 -0.7889177 -1.3011023 -1.6611019 -1.2037222 -0.79518455 -1.1862998
-1.0546196 -0.37474495 -1.16431 0.04880451 -1.5720079 -1.0471756 -0.6505274 -0.799382
-0.8001243 -0.6856086 -0.9367041 -0.84327847 -1.403482 -0.28779593 -1.199109 -0.84136343
-1.8508904 0.627989 -0.3773623 -0.6861825 -0.63267463 -0.7655197 -1.4853507 -0.37432215
-1.1325508 -0.88848644 -1.1987847 -0.8925078 -0.63259995 -0.8307975 -1.4762238 -0.76173633
-0.25063676 -0.8955846 -0.8027977 -0.5846731 -1.3550572 -0.82882327 -0.45626116 -0.4903518
-1.2867721 -0.733447 -0.70308816 -1.200553 -0.7562322 -0.066721275 -0.68078655 -0.7334637
-0.4321445 -0.6873825 -0.7973948 0.39682615 -1.3233496 -0.5225081 -0.8049702 0.13408774
-0.99738467 -0.15117568 -0.7466577 -0.40991348 -0.68990093 -0.89653075 -0.6944443 -0.86279815
-0.8172108 -0.0051759435 -1.2738168 -0.26981306 -0.91450834 -0.85328865 -0.20502058 -0.10459787
-0.5633181 -1.675867 -1.0857129 -0.83068764 -0.82082486 -0.744456 -0.62736714 -0.6679896
00000000: b9ee 7740 150a 2e40 ac35 4640 3a52 3440
00000010: 4bc9 6740 fe48 3a40 beea 69bf 29cb abbe
00000020: ef55 5fc0 9f10 23c0 4b71 2fc0 3981 06c0
00000030: 7b2c 0bc0 7b7b 33c0 9530 1ec0 dc8f 39c0
00000040: d683 2ac0 f729 13c0 2455 f4bf deac 23c0
00000050: c415 22c0 ba1f fdbf 6650 10c0 2fe2 2fc0
00000060: 7406 26c0 f70f fabf 4c2e ccbf 0598 35c0
00000070: 9e1c 13c0 8006 2ac0 80ad 1bc0 f72e 0ac0
00000080: 0429 d4bf efa2 ffbf bcc7 05c0 10c8 20c0
00000090: eecb 0bc0 86d4 28c0 084c edbf 84dc 26c0
000000a0: aa7a debf 9a6f 1bc0 2da0 02c0 5652 cfbf
000000b0: 3bbe e1bf 3637 11c0 51ab 0ac0 5798 05c0
000000c0: 021f d0bf 855c dcbf b9c8 14c0 67c7 e1bf
000000d0: 80db e9bf 750a fcbf 9b87 e1bf db7a e9bf
000000e0: e447 efbf 07de cebf e49d 0fc0 0ca8 a7bf
000000f0: 2558 01c0 b767 a3bf f0bf 8dbf 4acd d6bf
00000100: 8f4f cebf 5219 fbbf 107b 9bbf df41 e5bf
00000110: 3d24 7abf 4cae fcbf 1dca bebf b4c8 01c0
00000120: e48d 8abf df37 d5bf f04a bcbf 7428 d0bf
00000130: 324c a8bf 94a7 e8bf 9c51 ebbf 13fe 6dbf
00000140: c048 f3bf 209d 00bf 19ca 9fbf b8f2 f5bf
00000150: 44de c8bf ecec 02c0 7a76 6cbf 91e4 b8bf
00000160: 21e3 dfbf 4ab8 e8bf f843 99bf eaff 9cbf
00000170: e72e f6bf 1a53 d5bf 0059 d4bf caa0 c9bf
00000180: c9ae d1bf 7286 eabf a539 7cbf 6a53 c2bf
00000190: c214 d2bf d3d5 d5bf 52f4 b3bf 728f ccbf
000001a0: ce58 ccbf 514f 8ebf e80f ccbf a44c edbf
000001b0: 3bf9 aabf 435a d1bf c0a6 a1bf 41ec 73bf
000001c0: 9923 60bf 6efc cbbf ecef a9bf e755 9ebf
000001d0: 1f97 babf bf2c d2bf 2fdd 44bf 1175 f3bf
000001e0: 6785 a4bf 50ad dbbf 7ae4 84bf fb02 babf
000001f0: 5b00 6ebf 16e2 dfbc 76ec cabf d2ea 3abf
00000200: 841e bbbf 676a 9fbf 6f9a 38bf 52eb cabf
00000210: fde8 a9bf 98c8 88bf 98c5 a7bf 9339 47bf
00000220: d708 cbbf 1c98 4ebf c2f6 babf 41c0 71bf
00000230: 65c0 7ebf d8b7 a7bf 93fc bbbf 385a 81bf
00000240: 6c34 89bf da5c c1bf 09df b9bf 5606 80bf
00000250: 5a6b 64bf fd00 92bf 8eab bdbf 2339 63bf
00000260: bdfd b8bf 59c5 9ebf 90d6 a7bf 758a cbbf
00000270: 5d1f cfbf 00b6 75bf a47f dbbf 2a52 80bf
00000280: 1ae5 07bf 0809 d6be 3db5 aebf 8282 5f3e
00000290: 1c2c 8dbf b74e 7fbf a86d 13bf a629 a4bf
000002a0: 3ff9 b1bf 6ad3 54bf 83f6 49bf 858a a6bf
000002b0: fd9e d4bf 9213 9abf 3791 4bbf acd8 97bf
000002c0: c6fd 86bf 92de bfbe 1c08 95bf 3de7 473d
000002d0: 8e37 c9bf da09 86bf f788 26bf 4ca4 4cbf
000002e0: f2d4 4cbf 0c84 2fbf d7cb 6fbf 19e1 57bf
000002f0: 4ca5 b3bf fd59 93be 677c 99bf 9863 57bf
00000300: fae9 ecbf e3c3 203f a235 c1be a8a9 2fbf
00000310: f7f6 21bf 19f9 43bf f91f bebf 27a7 bfbe
00000320: 6df7 90bf d973 63bf c771 99bf 647b 64bf
00000330: 12f2 21bf 25af 54bf e7f4 bcbf 2701 43bf
00000340: 7653 80be 0845 65bf 2684 4dbf 23ad 15bf
00000350: 8472 adbf c32d 54bf 109b e9be 640f fbbe
00000360: f3b4 a4bf 2fc3 3bbf 96fd 33bf b9ab 99bf
00000370: 6f98 41bf 2aa5 88bd 0748 2ebf 47c4 3bbf
00000380: 0b42 ddbe 4df8 2fbf 1122 4cbf cc2c cb3e
00000390: 8563 a9bf 17c3 05bf 8712 4ebf 4c4e 093e
000003a0: 9a54 7fbf cccd 1abe f624 3fbf 2ee0 d1be
000003b0: 599d 30bf 0a83 65bf 1ac7 31bf 57e0 5cbf
000003c0: ba34 51bf f69a a9bb 6e0c a3bf f024 8abe
000003d0: 381d 6abf 2071 5abf eaf0 51be 6837 d6bd
000003e0: 9d35 10bf cf82 d6bf a4f8 8abf f2a7 54bf
000003f0: 9421 52bf ab94 3ebf 229b 20bf 5e01 2bbf

fc_out.bias f4 [15345]
-1.7742949 -1.9889858 -2.1798449 0.8925755 2.0932229 2.4570215 2.1052585 1.6865414
1.8574936 2.245751 2.0530047 1.7078995 1.7375429 1.8437495 1.388407 1.4284803
2.1017852 1.3391649 1.2032722 1.4980826 1.652423 1.8888127 1.5093504 1.2459503
1.9312532 1.3235013 1.5661415 1.5777122 1.5748069 1.380349 1.5466062 1.9280335
1.3363076 1.6241839 1.5809594 1.1734834 1.6667765 1.3604571 1.3552117 1.3980117
1.5474421 1.1416396 0.84444326 1.6649712 0.86023283 1.6684151 0.64192593 0.8846587
0.7337396 1.3086541 0.7615084 0.9762851 1.174176 0.5949243 0.80811346 1.3699448
1.286159 0.9690403 0.80383915 1.0819876 0.82421166 1.0550991 1.8475232 1.2004595
0.95710564 1.2754332 1.1787546 1.3153111 1.09776 1.0250652 1.1505122 0.9704425
0.89122385 0.92181665 1.179156 0.90148395 0.68664706 0.4969616 0.65396243 0.57745725
1.4071826 1.3180689 1.003847 1.1841087 0.82569396 0.87671715 0.36203024 0.9425661
1.1973648 1.1111118 0.380485 1.0492601 1.1806091 0.8794798 0.840021 0.8859412
0.7232991 1.3818244 1.1334486 0.5481861 0.7058365 0.48444405 1.0050858 0.44866607
1.3306303 0.75820786 0.38221005 1.1843905 0.5933072 0.69154197 1.2346234 1.0468693
1.2058724 1.2951397 0.6268721 1.1915827 0.7682831 1.0578007 0.63861924 0.81427586
1.0813414 0.70740247 0.6542242 1.5119978 0.3064805 0.52815825 0.74525017 0.95499516
0.64220995 0.108073175 0.998533 0.38490245 0.8772511 0.6333185 0.007476643 0.5523376
0.99945027 0.3296029 0.5901268 0.8774709 -0.024712237 0.3415593 1.0632442 0.63356227
0.42974582 0.6499284 0.47996145 0.608094 1.3146334 0.50110275 0.9052167 0.3220745
0.56674767 0.48271647 0.70462936 0.7163897 0.46913603 0.9879945 0.8613845 0.99154013
0.12297391 0.8939135 0.38933083 0.6018033 0.91807014 1.0709516 0.17467687 0.37504396
0.3472823 0.2214708 0.60582554 0.5661879 1.0147676 0.57569146 0.31724727 0.42551115
0.43444893 0.7572304 1.0717826 0.40240818 0.34703133 0.7438504 1.0162901 0.9800695
0.47534955 0.8358062 0.97070795 0.28602028 0.9243329 0.25929946 0.03351031 -0.027825633
1.0294727 0.52244145 0.86150634 0.85541654 1.0435156 0.7611976 0.35474917 0.70981973
0.33914003 0.21273047 0.5095264 0.3408127 0.9740796 0.9629604 -0.019500187 0.4530038
0.75745755 0.5216744 0.4363093 0.68325377 0.7311149 0.69972795 1.2875028 0.44819033
0.9164412 0.09374574 0.59490025 0.6652029 0.4140996 0.75416666 0.0635584 0.8577841
0.5525282 0.5501315 0.6992959 1.0767511 0.59013444 0.22661948 0.54019165 0.8444111
0.7810843 0.72949505 0.72611386 0.41273612 0.36836675 0.5312607 0.21190625 0.18088867
0.7401534 0.6547758 0.8434467 0.27567536 0.62422836 0.08611974 0.21147943 0.8213095
0.31669983 0.46181563 0.9268019 0.47790948 0.6852771 0.5900726 0.76004696 0.3923361
00000000: 181c e3bf 1697 febf 9482 0bc0 d47f 643f
00000010: 5df7 0540 d73f 1d40 8ebc 0640 97e0 d73f
00000020: 5ac2 ed3f 62ba 0f40 6e64 0340 739c da3f
00000030: ce67 de3f fcff eb3f 52b7 b13f 71d8 b63f
00000040: a683 0640 c169 ab3f d304 9a3f 2cc1 bf3f
00000050: 9982 d33f 9dc4 f13f 6532 c13f 4d7b 9f3f
00000060: 4e33 f73f 7e68 a93f 5377 c83f 79f2 c93f
00000070: 4693 c93f 47af b03f 31f7 c53f cdc9 f63f
00000080: 210c ab3f 42e5 cf3f e15c ca3f b434 963f
00000090: ef58 d53f 7523 ae3f 9477 ad3f 0cf2 b23f
000000a0: 9512 c63f 3f21 923f 6f2d 583f c71d d53f
000000b0: 3838 5c3f a08e d53f 4255 243f fe78 623f
000000c0: 5cd6 3b3f fa81 a73f 37f2 423f d2ed 793f
000000d0: 664b 963f f54c 183f 86e0 4e3f 5a5a af3f
000000e0: dca0 a43f 0613 783f 67c8 4d3f 927e 8a3f
000000f0: 89ff 523f 7d0d 873f a47b ec3f a8a8 993f
00000100: e004 753f 6541 a33f 6ee1 963f 1d5c a83f
00000110: 6683 8c3f 5635 833f fc43 933f eb6e 783f
00000120: 3f27 643f 2dfc 6b3f 95ee 963f a7c7 663f
00000130: 1ac8 2f3f c071 fe3e 156a 273f 3dd4 133f
00000140: 8f1e b43f 7bb6 a83f 0f7e 803f e090 973f
00000150: ae60 533f 8970 603f 075c b93e 034c 713f
00000160: 4043 993f e938 8e3f eece c23e 284e 863f
00000170: 331e 973f 9725 613f 9e0b 573f 0bcd 623f
00000180: 212a 393f 9fdf b03f d814 913f ed55 0c3f
00000190: b3b1 343f 0d09 f83e a7a6 803f 8fb7 e53e
000001a0: 1852 aa3f e919 423f 09b1 c33e 1c9a 973f
000001b0: fbe2 173f e508 313f 2408 9e3f d0ff 853f
000001c0: 075a 9a3f 23c7 a53f b17a 203f c885 983f
000001d0: 34ae 443f 0366 873f 8d7c 233f 6274 503f
000001e0: 6569 8a3f 5418 353f 3d7b 273f 2589 c13f
000001f0: 03eb 9c3e 6135 073f b7c8 3e3f 907a 743f
00000200: df67 243f 7855 dd3d dc9f 7f3f ef11 c53e
00000210: 8793 603f 2921 223f a1fe f43b ff65 0d3f
00000220: f9db 7f3f b6c1 a83e 8d12 173f efa1 603f
00000230: 5171 cabc dce0 ae3e 6318 883f 2331 223f
00000240: a507 dc3e b561 263f 82bd f53e 0cac 1b3f
00000250: e845 a83f 4548 003f 48bc 673f f3e6 a43e
00000260: 6016 113f 9d26 f73e 9762 343f 5165 373f
00000270: 9932 f03e 35ed 7c3f b283 5c3f 93d5 7d3f
00000280: bfd9 fb3d 84d7 643f 5f56 c73e c80f 1a3f
00000290: a506 6b3f f114 893f 7ede 323e c305 c03e
000002a0: fcce b13e 3ec9 623e 6217 1b3f b1f1 103f
000002b0: e8e3 813f 8460 133f 3c6e a23e 99dc d93e
000002c0: 1770 de3e dad9 413f 2c30 893f 7208 ce3e
000002d0: 17ae b13e fb6c 3e3f cb15 823f d6e5 7a3f
000002e0: 0461 f33e 65f7 553f 5180 783f 4071 923e
000002f0: 15a1 6c3f e6c2 843e 1b42 093d 95f2 e3bc
00000300: c3c5 833f b9be 053f ae8b 5c3f 94fc 5a3f
00000310: eb91 853f d9dd 423f afa1 b53e bfb6 353f
00000320: c3a3 ad3e 04d6 593e 5270 023f 017f ae3e
00000330: 485d 793f 9384 763f dbbe 9fbc 1df0 e73e
00000340: bde8 413f 748c 053f ef63 df3e b8e9 2e3f
00000350: 592a 3b3f 5f21 333f e4cc a43f 3479 e53e
00000360: e49b 6a3f c4fd bf3d 624b 183f bd4a 2a3f
00000370: dd04 d43e 1111 413f e82a 823d bd97 5b3f
00000380: 7d72 0d3f 6bd5 0c3f 0e05 333f fbd2 893f
00000390: 0d13 173f f00e 683e 004a 0a3f 532b 583f
000003a0: 24f5 473f 30c0 3a3f 99e2 393f 2652 d33e
000003b0: 919a bc3e b400 083f f4fd 583e e13a 393e
000003c0: b17a 3d3f 639f 273f 1fec 573f 5225 8d3e
000003d0: 6ecd 1f3f 8c5f b03d 108e 583e 5741 523f
000003e0: 7b26 a23e 1973 ec3e e442 6d3f 8db0 f43e
000003f0: 526e 2f3f ff0e 173f 7092 423f 47e0 c83e
