experiments/lstm_h2_l1_20241124_170228/final_model.pth (torch, 311280 bytes, 7 tensors)

embedding.weight f4 [15345, 2]
000000 37 e1 c7 3c 4e b7 3d bf 52 de 85 3e 28 05 2e bf
       0.024399383 -0.74107826 0.2614618 -0.6797662
000010 3c c4 e7 bf 17 0a f7 3f a6 d0 12 bf e6 52 76 3f
       -1.8106761 1.9299954 -0.5734962 0.9622024
000020 80 2b 21 c0 89 fa d7 be 87 91 04 c0 d5 0d df bf
       -2.51828 -0.4218333 -2.0713823 -1.7426096
000030 1a 4d 12 c0 f0 ec b6 bf 48 0d 35 c0 cc 4f a6 3f
       -2.285956 -1.4291058 -2.8289356 1.2993102
000040 70 20 0b c0 42 bc 75 3f c5 e7 a0 be e0 e0 38 c0
       -2.1738548 0.95990384 -0.31426826 -2.8887253
000050 92 b7 69 bf 3f a0 2d c0 13 b4 20 c0 3d 2a 62 bf
       -0.9129573 -2.7129056 -2.5109909 -0.883457
000060 62 94 f9 bf a0 f8 d0 bf ca 4e 19 c0 0c 39 4a bf
       -1.9498408 -1.6325874 -2.395434 -0.78993297
000070 7e 65 87 bf 8c 50 0e c0 72 8e 1d c0 3e ab be bf
       -1.0577848 -2.2236662 -2.4618192 -1.4896009
000080 3e ac 61 3f d4 3b 55 40 3a 18 ad bf 50 f1 e8 3f
       0.88153446 3.3317766 -1.3523018 1.8198643
000090 de 29 9a bf f0 16 bc 3e b2 f1 21 c0 bf b4 30 be
       -1.2044027 0.3673625 -2.530377 -0.17256449
0000a0 81 57 86 bf e3 a4 13 c0 e1 88 ff bf bf b2 b5 be
       -1.0495454 -2.306939 -1.9963647 -0.35487935
0000b0 1a 8d 44 c0 b8 58 4e bf 81 e3 46 bf 12 b4 18 40
       -3.0711122 -0.80604124 -0.77690893 2.3859906
0000c0 29 d2 0f bf b1 20 00 40 56 d3 94 bf 98 ac 7f 3e
       -0.56180054 2.0019953 -1.1626995 0.24968183
0000d0 0a fa fe bf da c9 12 bf a1 05 8f bf 73 e0 28 bd
       -1.9920056 -0.5733925 -1.1173593 -0.041229676
0000e0 b7 55 43 c0 2a 1a 57 3e 43 44 66 c0 09 11 20 3f
       -3.0521066 0.21006075 -3.5979164 0.62525994
0000f0 ea 3a cb 3e 7d 0f 46 c0 fc e7 14 c0 47 ba d3 bf
       0.39693385 -3.0946953 -2.3266592 -1.6541222
000100 20 26 01 c0 9e b6 86 bf 5a c9 0c c0 02 54 07 40
       -2.017952 -1.052448 -2.1997895 2.1145024
000110 39 d9 46 c0 73 ef 6a bf 9e 51 9b bf 31 1d c9 3f
       -3.1070082 -0.9177162 -1.2134283 1.5712034
000120 45 41 ce be f3 64 85 bf 6a c9 06 c0 f9 06 93 bf
       -0.40284172 -1.0421432 -2.1060433 -1.1486503
000130 6e 48 3b c0 80 53 98 bf 3f a8 85 3e 88 d9 12 c0
       -2.9262958 -1.1900482 0.26104924 -2.294527
000140 5d 41 93 bf f3 15 03 c0 96 19 0d c0 bd dd 03 c0
       -1.1504322 -2.0482147 -2.2046866 -2.0604088
000150 8d e3 3f bf d8 54 1e c0 db fd 5d bf b4 bf e3 3f
       -0.7495659 -2.4739285 -0.8671548 1.7792878
000160 b4 23 18 c0 c5 c4 91 3f d2 2b 31 c0 6e 16 36 bf
       -2.3771791 1.1388174 -2.7682996 -0.71127975
000170 f2 df 3b bf ff 34 95 3f 41 28 d7 bf 74 15 f5 3f
       -0.7338859 1.1656798 -1.680916 1.9147172
000180 b4 e7 60 bf 5c bb 0c 3e 76 c6 1c 3f 61 e5 88 3f
       -0.8785355 0.13743347 0.6124033 1.0695001
000190 fd 81 2a bd 06 73 73 3f eb 6a 00 c0 22 75 96 bf
       -0.041627873 0.95097387 -2.0065258 -1.1754496
0001a0 97 4b 02 c0 72 89 7b 3e 34 8a 17 c0 5b 36 be bf
       -2.0358636 0.2456415 -2.3678102 -1.4860338
0001b0 99 b2 cd be 66 2c c2 3e 88 91 b0 bf 78 f0 ed bf
       -0.40175322 0.37924498 -1.3794413 -1.858901
0001c0 6b 16 1d c0 2a 13 c2 3f 8b d2 88 bf 44 98 07 be
       -2.4544933 1.5162098 -1.0689253 -0.13241678
0001d0 43 c4 bb bf 2a 7c 13 c0 f8 84 24 bf f1 a4 35 3e
       -1.4669269 -2.3044534 -0.64265394 0.17738701
0001e0 cb d5 ba be 9c 29 6b 3f d8 bb 50 bf 4c 32 31 bf
       -0.36491236 0.91860366 -0.81536627 -0.6921737
0001f0 02 01 84 be 20 2c 8b 3f 98 4f b3 bf eb fd a0 be
       -0.2578202 1.0872841 -1.4008665 -0.31443724
000200 5a ca 58 bf 17 56 94 3f d5 cb 82 be 0b d1 05 bf
       -0.84683764 1.1588773 -0.25546136 -0.522721
000210 d2 60 ff bf 01 98 9c bf 57 0b 7c bf 21 4d 17 bf
       -1.9951422 -1.2233888 -0.98454803 -0.59102064
000220 f0 e6 fb bd 15 31 ab 3f 9b 50 18 3f cf fb 94 3f
       -0.12299907 1.3374354 0.59497994 1.1639346
000230 88 a5 a6 be 5a 3e 09 3f 12 9e cf bf fd 8b 6c bf
       -0.32548165 0.53610766 -1.6220114 -0.92401105
000240 7f 3e 44 bf 69 2e 85 3f 01 2a c2 bf 88 54 71 bf
       -0.7665786 1.0404788 -1.5169069 -0.9426961
000250 33 02 93 bf 69 49 a9 3e fd 3b e7 be ab d7 8f 3e
       -1.1485046 0.3306382 -0.45162955 0.2809423
000260 7f 4b 31 bf 13 ab ea 3e 3c f1 8c bf 23 51 19 3f
       -0.6925582 0.45833644 -1.1011119 0.5988943
000270 c2 9c 28 3f 0a 27 4d c0 8c 39 95 be 8c 67 dc 3f
       0.65864193 -3.2055078 -0.29145467 1.72191
000280 a5 7e 2f 3f 3a 36 80 3f a7 7e e0 bf c6 6e 05 40
       0.6855262 1.0016549 -1.7538651 2.084886
000290 7c 70 5b 3f 1b 30 34 40 57 c8 d2 bd e2 8f 85 3f
       0.8571851 2.8154361 -0.10292118 1.0434535
0002a0 6f cf 98 bf b4 71 27 c0 52 eb 0a bf 0d b7 16 40
       -1.1938304 -2.616315 -0.5426532 2.3549225
0002b0 da 8c c5 3e 00 72 89 be 15 7c ab bf 04 c3 c8 bf
       0.38584024 -0.26844788 -1.3397242 -1.5684514
0002c0 d9 51 e9 bf 77 c7 02 3f 0b a9 dd bf d3 3d b2 bf
       -1.8228103 0.5108561 -1.7317213 -1.3925117
0002d0 10 05 ba bf b0 8b 12 40 79 4e 80 bf 33 e1 52 3f
       -1.4532795 2.2897758 -1.0023948 0.82374877
0002e0 b4 de 9b bf 05 ed e3 3f 6c 01 c6 be d8 20 26 3f
       -1.2177339 1.7806708 -0.3867296 0.64893866
0002f0 76 d7 90 bf a1 ec 8b 3f 44 2f 2a c0 91 11 dd be
       -1.1315753 1.0931588 -2.6591349 -0.43177465
000300 4c 89 90 bf ae 8b f2 bf 42 b9 fd be 09 7d 35 bd
       -1.12919 -1.8948877 -0.49555403 -0.044308696
000310 6c 80 07 bf e6 32 8e 3f 88 a9 ef bd af 08 ed 3f
       -0.5293033 1.1109283 -0.117022574 1.8518275
000320 dd 9a 53 bf 8d 17 8f be ce 14 d5 3e d3 2f f9 3f
       -0.8265818 -0.27947655 0.41617435 1.946772
000330 81 c9 85 bf b6 2c 35 bf 3d 86 24 3e 16 14 a7 bf
       -1.0452119 -0.7077135 0.16066833 -1.3053005
000340 8c 24 00 3f f2 dc 94 3f 47 5c 25 bf d4 3d a9 3f
       0.50055766 1.1629927 -0.6459393 1.3221993
000350 20 c2 7c bf da af 43 3d bc 83 06 3e 26 f0 96 3f
       -0.9873371 0.047775127 0.1313619 1.1792037
000360 cc 94 d7 3e 49 96 c6 3f fa ae af 3f ef 22 ce 3f
       0.4210571 1.5514613 1.3725274 1.6104411
000370 db eb 3f bf 48 f4 27 bf 43 49 df bf da 65 aa 3f
       -0.7496926 -0.6560712 -1.7444233 1.3312333
000380 36 86 d7 bd b8 d5 98 bf e1 cf 49 bf b6 bd ea 3d
       -0.105236456 -1.1940222 -0.78832823 0.11461966
000390 f8 f0 ac bf 37 af 6d 3e e0 bf d3 be 8e 6c 73 be
       -1.3511038 0.2321137 -0.41357327 -0.23771879
0003a0 da c2 fd 3e c8 23 1e be 10 f9 a9 be 09 fe 80 bd
       0.49562722 -0.15443337 -0.33197832 -0.06298453
0003b0 60 b6 0b 3f f3 a9 44 be c8 c8 bd 3e 41 b2 90 3f
       0.5457516 -0.19205455 0.37067246 1.1304399
0003c0 f3 6d 8d 3f e9 6d 41 be 97 ef 09 be d1 1b 29 3e
       1.1049179 -0.18889584 -0.13470303 0.16514517
0003d0 dd e1 be bf 97 0f ad bf 7e 2e c0 bf 40 31 a9 3e
       -1.4912678 -1.3520383 -1.5014188 0.33045387
0003e0 f6 fc af bd a3 10 35 bf 86 43 a9 bf 22 15 da bf
       -0.0859317 -0.7072851 -1.3223732 -1.7037699
0003f0 6b fb 09 3e 21 8d 0f be cf e4 e4 be 2d 15 a2 bf
       0.13474815 -0.1401868 -0.44705817 -1.2662712

lstm.weight_ih_l0 f4 [8, 2]
000000 71 23 86 bd f3 f2 b7 3f 02 57 6e 3f f1 d6 a8 3f
       -0.06549729 1.4371017 0.93101513 1.3190595
000010 f4 f9 7b 3f 7d 16 d0 3f e4 ef c7 3f b3 69 d9 3f
       0.98428273 1.6256863 1.5620084 1.6985382
000020 7d 16 ea 3e a1 2f 19 3f 7b aa d6 be 45 71 0a bf
       0.45720282 0.598383 -0.4192694 -0.54079086
000030 23 58 9a 3e 99 73 a9 3f 28 48 80 3f db ac b7 3f
       0.30145368 1.3238403 1.002202 1.4349626

lstm.weight_hh_l0 f4 [8, 2]
000000 c5 01 64 be 91 40 b3 3e ea 42 23 bf 98 a7 02 3e
       -0.222663 0.35010198 -0.6377398 0.12759244
000010 fd 59 a9 bf a6 eb a6 3e 14 31 86 bf 9f ec 91 3e
       -1.3230587 0.3260166 -1.0483727 0.2850084
000020 1d 67 77 be fd c3 3f be 2a 2a 39 3e 0d cb 49 be
       -0.24160428 -0.18727107 0.1808249 -0.19706364
000030 96 40 b5 3f 9a 0c a8 bf 30 c9 9e 3f ae 06 15 be
       1.4160335 -1.3128846 1.2405148 -0.1455333

lstm.bias_ih_l0 f4 [8]
000000 9c 43 09 40 51 69 34 40 15 b3 df be d5 b1 5e 3d
       2.1447515 2.818928 -0.43691316 0.054368813
000010 b4 5e 59 3f 26 47 cc bf 91 c8 46 40 95 a3 28 40
       0.8491013 -1.5959213 3.1059916 2.6349843

lstm.bias_hh_l0 f4 [8]
000000 88 4e 18 40 9f b2 ba 3f 9e a0 64 bf 6e f9 3d 3d
       2.3797932 1.4585761 -0.8930758 0.046380453
000010 15 42 f6 3f 7d 3b 02 c0 03 58 35 40 88 a1 f5 3f
       1.9238917 -2.0348809 2.8334968 1.918992

fc_out.weight f4 [15345, 2]
000000 d5 cd 83 c0 e2 01 4c 40 68 94 62 c0 59 ee 64 40
       -4.118876 3.187615 -3.540308 3.5770476
000010 45 eb 2b c0 30 2a 46 40 53 23 4d 3f 98 d3 2b bf
       -2.6862347 3.096325 0.80132025 -0.6711974
000020 82 d6 45 40 76 f5 4b c0 1a cb 33 40 94 a4 00 c0
       3.0912175 -3.1868567 2.8092713 -2.010045
000030 5e 42 26 40 59 e9 04 c0 44 de 3b 40 57 6e ed bf
       2.5978007 -2.0767424 2.935441 -1.8549298
000040 31 3c 21 40 08 6e 09 c0 5f 8d 14 40 48 31 3b c0
       2.5192988 -2.1473408 2.3211286 -2.924883
000050 77 80 0a 40 00 8f 0a c0 bb f0 0b 40 ad 9c fd bf
       2.1640909 -2.164978 2.186568 -1.9813439
000060 bf 13 00 40 66 a4 15 c0 10 b7 ea 3f 4d 66 f5 bf
       2.0012052 -2.338159 1.8337116 -1.9171845
000070 0d 16 25 40 40 c2 2b c0 39 dc 1d 40 76 d9 fd bf
       2.5794709 -2.683731 2.4665663 -1.9831989
000080 ea 32 bf 3f 48 e1 16 c0 77 5d 23 40 d2 15 e4 bf
       1.4937413 -2.3575 2.5525796 -1.7819159
000090 81 fe e8 3f 97 27 07 c0 ad b8 10 40 33 59 e9 bf
       1.8202668 -2.1117914 2.2612717 -1.8230346
0000a0 98 4d e2 3f 15 8c f1 bf 73 9a ca 3f 4a ef 3f c0
       1.767993 -1.8870875 1.5828384 -2.99898
0000b0 df c2 fc 3f b0 33 16 c0 14 92 20 40 d2 f1 fe bf
       1.974697 -2.3469048 2.508916 -1.9917548
0000c0 e4 c6 dc 3f bd 46 15 c0 18 16 04 40 68 0b fc bf
       1.7248197 -2.3324425 2.0638485 -1.9690981
0000d0 94 94 0c 40 fb c9 f3 bf 8c 2b 00 40 3b 89 bf bf
       2.1965685 -1.9046015 2.002658 -1.4963754
0000e0 2f 7d 14 40 c6 d1 f8 bf a9 ed b0 3f b7 c1 b2 bf
       2.3201406 -1.9439018 1.3822528 -1.3965367
0000f0 8f c5 b7 3f dc 3c c5 bf 8e 10 ea 3f 80 ab e3 bf
       1.4357165 -1.5409198 1.8286302 -1.7786713
000100 a3 45 72 3f 4e 5e 01 c0 81 f9 9f 3f 6e f6 fe bf
       0.9463751 -2.021381 1.2498018 -1.9918954
000110 57 b0 a7 3f ac 07 14 c0 3c 85 8e 3f ff da e9 bf
       1.310069 -2.3129683 1.113441 -1.8269957
000120 f7 a1 07 40 59 b5 9c bf 11 c2 af 3f 67 c5 03 c0
       2.1192605 -1.2242843 1.3731099 -2.0589235
000130 64 73 0f 40 ef 8f d9 bf 30 9c 7e 3f 66 7b 68 bf
       2.241418 -1.699705 0.99457073 -0.9081329
000140 e0 97 91 3f ce d7 c5 bf 61 34 8a 3f 81 d9 9b bf
       1.1374474 -1.5456483 1.0797235 -1.2175752
000150 e0 6d 9e 3f 5d 82 cb bf fd bb c4 3f 2f 4d d0 bf
       1.2377281 -1.5899159 1.536987 -1.6273555
000160 51 23 97 3f bf 81 a3 bf c8 6e b3 3f 4a 91 83 bf
       1.1807653 -1.277397 1.4018183 -1.0278714
000170 c3 4b d5 3f 2c c2 82 bf e4 57 85 3f dd 3e a3 bf
       1.6663746 -1.0215507 1.0417447 -1.2753559
000180 c5 01 a6 3f 1f 76 f2 bf 6c 66 bb 3f 6b 84 49 bf
       1.296929 -1.8942298 1.4640632 -0.7871768
000190 e3 9a b2 3f ba 58 03 c0 7b 97 cf 3f 5b 41 cc bf
       1.3953518 -2.0522904 1.6218103 -1.5957445
0001a0 c8 c6 46 3f 78 24 01 c0 ac 7c 56 3f 27 ab 02 c0
       0.77647066 -2.0178509 0.83783984 -2.0416963
0001b0 b6 7a b3 3f 47 b2 74 bf 60 21 46 3f df 81 52 bf
       1.4021823 -0.9558453 0.77394676 -0.8222942
0001c0 cc f5 f4 3f 92 9c 9b bf 07 23 8a 3f b5 58 f2 be
       1.9137511 -1.2157156 1.079194 -0.47333303
0001d0 0b 1b c1 3f 40 e6 96 bf c2 7a f6 3e a2 08 dd bf
       1.5086378 -1.1789017 0.48140532 -1.726826
0001e0 00 e0 e7 3f 26 e0 94 bf 7e 61 b4 3f 83 4f da be
       1.8115234 -1.1630905 1.4092252 -0.42638788
0001f0 aa 1f a3 3f 51 e4 63 bf b2 35 77 3f b0 43 e8 bf
       1.2744038 -0.8902026 0.9656631 -1.8145657
000200 63 e1 a5 3f 02 f7 ad bf 29 71 8b 3f a5 4b e3 bf
       1.2959408 -1.3591006 1.0893909 -1.775746
000210 0d be b1 3f 53 7d a3 bf d2 e1 96 3f b6 8f be bf
       1.3886124 -1.2772621 1.1787665 -1.4887607
000220 1e 38 ce 3f 63 48 e3 bf 7d 36 30 3f 63 65 96 bf
       1.6110876 -1.7756466 0.6883314 -1.1749691
000230 f3 ed ba 3f 94 19 cd bf d2 5d 91 3f 95 e0 ce bf
       1.4603866 -1.6023431 1.1356757 -1.6162287
000240 54 65 b2 3f 98 d7 91 bf 31 cf 15 3f eb 3d d0 bf
       1.3937173 -1.1393919 0.58519274 -1.6268896
000250 66 97 bd 3f 26 13 8c bf c3 86 71 3f c9 7c e5 bf
       1.4811828 -1.0943344 0.94346255 -1.7928706
000260 63 7d 9b 3f 0c 6c b3 bf 8a 32 4a 3f 0d 85 80 bf
       1.214764 -1.4017348 0.78983366 -1.0040604
000270 17 70 46 3e 8e 9a b9 bf b0 b0 63 3f 59 94 ea bf
       0.19378696 -1.4500291 0.8894148 -1.8326522
000280 fd 7c c6 3e 6b 01 8d bf 9c 38 b2 3f 5f 4c 9a bf
       0.38767233 -1.1016058 1.3923526 -1.2054557
000290 3c 2e a8 3f 3a fe b1 bf 15 a1 8b 3f 4f f7 2d bf
       1.313911 -1.3905709 1.0908533 -0.6795549
0002a0 1e 22 d6 3f d4 8e b1 bf 32 32 0d 3f 40 e7 2a bf
       1.6729162 -1.3871713 0.55154717 -0.6675911
0002b0 f0 bf 22 3f df e8 a7 bf 2c 97 03 3f 85 c5 41 bf
       0.63574123 -1.3117942 0.51402545 -0.75692016
0002c0 de 49 89 3e eb cc 60 bf 72 65 7d 3f 8e 60 d5 be
       0.2681417 -0.8781268 0.9898292 -0.41675228
0002d0 5a 3f 67 3f a2 58 51 bf 8d b0 2d 3f 07 13 8f be
       0.9033104 -0.8177587 0.6784752 -0.27944204
0002e0 5f 02 b8 3e e8 c1 76 bf 28 75 4e 3f ea f9 c8 be
       0.3593931 -0.9638963 0.80647516 -0.3925317
0002f0 bf dc 35 3f 74 09 9e be c5 06 a6 3e c0 3b a0 bf
       0.71039957 -0.30866587 0.3242704 -1.2518234
000300 44 fb 98 3f 68 49 dc bc ff 5c a7 3e 34 57 c6 bf
       1.195168 -0.026890472 0.32688138 -1.5495362
000310 b4 dd 38 3f 4c 21 27 bf cf 23 27 3f 47 ef 1a bf
       0.7221329 -0.6528518 0.65289015 -0.6052136
000320 a9 8c 4e 3f 04 91 60 bf 7c 7d c8 3e 1c 06 29 bf
       0.8068338 -0.87721276 0.39158237 -0.6602495
000330 84 57 05 3e 48 db a1 bf aa fd a9 3f 61 4e 94 bf
       0.13021666 -1.2645044 1.3280537 -1.1586419
000340 e6 5e 87 3f 46 ce 93 bf a0 01 53 3f 06 3a 8e 3d
       1.0575836 -1.1547325 0.82424355 0.06944661
000350 26 3a 75 3f e3 72 42 bf c2 da 76 3f 70 67 5b bf
       0.9579185 -0.75956553 0.9642755 -0.8570471
000360 0a 94 e7 3e 39 61 56 bf 77 1d c4 3e a1 d8 3b bf
       0.45230132 -0.837421 0.3830373 -0.73377424
000370 b7 e1 56 3f 58 fb c3 be 58 20 9d 3f 58 e2 7c bf
       0.83938164 -0.38277698 1.2275496 -0.98782873
000380 cd 76 53 3f 42 79 b9 bf 50 7a b5 3e 23 3d 97 bf
       0.8260315 -1.449013 0.3544488 -1.1815532
000390 1e 1b 5c 3f c9 58 d9 be 8a 52 01 3f dd 2c 03 bf
       0.8597888 -0.4245055 0.5051657 -0.5124033
0003a0 f8 f1 84 3f c5 b7 35 bf cb cd 7a 3f 78 f5 33 bf
       1.0386343 -0.70983535 0.97970265 -0.7029643
0003b0 52 7b 25 3f 93 82 ac bf 33 22 5b 3f 28 d2 24 bf
       0.64641297 -1.3477348 0.8559906 -0.64383173
0003c0 44 4f 54 3f 24 17 7a bf 74 cf 3d 3f 25 30 1a bf
       0.8293345 -0.9769156 0.74144673 -0.6022971
0003d0 b1 94 93 3f 19 03 91 bf 0e 7d 91 3f be fd 3e bf
       1.1529752 -1.132907 1.1366289 -0.7460593
0003e0 fb f3 8b 3f 68 4f b3 bf 1b 4b b8 3f 51 f0 55 bf
       1.0933832 -1.4008608 1.439792 -0.8356982
0003f0 68 f1 9a 3f ae dc 3b bf 67 40 f0 3e d0 3a b7 bf
       1.2104921 -0.73383605 0.46924135 -1.4314823

fc_out.bias f4 [15345]
000000 02 60 25 c0 6b 6f f3 bf d5 a1 2e c0 51 1a 6b 3f
       -2.5839849 -1.9018377 -2.7286274 0.9183703
000010 ac c8 fe 3f e9 1a 1f 40 93 5d 18 40 1f 25 08 40
       1.990499 2.4860175 2.3807113 2.1272657
000020 e7 4d 0a 40 ba 7b e1 3f 26 7d 10 40 27 6d 11 40
       2.1610048 1.7615883 2.2576385 2.2722871
000030 38 22 fe 3f 11 bf 16 40 a1 33 93 3f 13 84 d2 3f
       1.9854193 2.3554118 1.1500131 1.6446556
000040 fc df 03 40 eb 2c cb 3f 91 9e f6 3f d6 1e d9 3f
       2.060546 1.5873083 1.9267141 1.6962535
000050 7c 0a 02 40 72 7f a3 3f 80 c9 ac 3f 49 7b 9a 3f
       2.03189 1.2773268 1.3498993 1.2068874
000060 69 60 c2 3f 8b 8f be 3f aa b3 ad 3f 47 14 db 3f
       1.5185672 1.4887556 1.3570454 1.7115563
000070 d8 a2 84 3f 01 40 03 40 00 20 ef 3f cc d2 b3 3f
       1.0362196 2.0507815 1.8681641 1.4048705
000080 18 ab e5 3f 24 ca bc 3f 6c 18 93 3f 7e 97 cb 3f
       1.7942839 1.4749188 1.1491828 1.5905607
000090 e9 76 a2 3f 35 ca 97 3f 99 ec 33 3f 22 fd 08 40
       1.2692538 1.1858584 0.70282894 2.14045
0000a0 39 93 b7 3f 8c 1d e6 3f e3 a3 c0 3f 95 f2 97 3f
       1.4341804 1.7977767 1.5050014 1.1870905
0000b0 8a 0c d8 3f e6 4f cf 3f 9c 22 b4 3f c4 de d3 3f
       1.6878827 1.6196258 1.4073062 1.6552358
0000c0 c9 af 83 3f a4 56 c3 3f 20 a0 3f 3f b1 b4 67 3f
       1.028802 1.5260816 0.74853706 0.9051009
0000d0 60 d0 90 3f f9 91 89 3f 0f 07 a8 3f 67 06 e0 3f
       1.1313591 1.0747672 1.3127154 1.7501954
0000e0 4e 9f 53 3f 5f 8a dd 3f 9e b4 93 3f 4e eb c0 3f
       0.82664955 1.7307853 1.1539495 1.5071809
0000f0 11 60 60 3f e2 cf c1 3f 6f 65 94 3f 98 ab 63 3f
       0.87646586 1.5141566 1.1593455 0.88933706
000100 ec ef 83 3f bf 02 59 3f f8 8b 86 3f d6 84 7d 3f
       1.0307593 0.84769815 1.0511465 0.99030817
000110 d1 a7 da 3e bd b2 bb 3f c4 73 1e 3f e2 b3 45 3f
       0.4270616 1.4663922 0.61895394 0.77227604
000120 47 03 81 3f 58 a4 8e 3f 97 8a 66 3f a7 95 37 3f
       1.0079125 1.1143904 0.9005522 0.71712726
000130 e8 3b 4d 3f 62 b1 ae 3f 80 0e b9 3f cb 30 41 3f
       0.80169535 1.3647883 1.445755 0.7546508
000140 e4 93 9b 3f 0c 45 08 3f ab d9 3c 3f ac 88 a6 3f
       1.2154508 0.5323036 0.73769635 1.3010459
000150 ab f0 84 3e 9d eb c2 3f 4b 0d 85 3f 06 31 bc 3f
       0.25964865 1.5228153 1.0394682 1.4702461
000160 a5 5e ba 3f a2 3c 8e 3f 74 82 8d 3f b7 85 b7 3f
       1.4560133 1.1112254 1.1055436 1.4337682
000170 87 e0 b4 3f e0 fc ad 3f 26 47 b5 3f b9 6d 9f 3f
       1.413102 1.3592796 1.4162338 1.245536
000180 8b 66 89 3f 94 6a 55 3f 1a b1 91 3f 9c 39 90 3f
       1.0734419 0.8336575 1.1382172 1.1267581
000190 af 8d 83 3f 9d 19 a6 3f c6 44 9a 3f 08 9f b7 3e
       1.0277613 1.2976567 1.2052238 0.3586352
0001a0 61 4a 18 3f e7 d4 a8 3f 6f 26 4d 3f 04 87 12 3f
       0.59488493 1.3189973 0.8013677 0.5723727
0001b0 5c 52 9b 3f f0 b1 ac 3f e8 36 7f 3f 07 89 fa 3e
       1.2134509 1.3491802 0.99693155 0.4893267
0001c0 d4 74 ed 3e 3b e9 36 3f 84 4e 99 3f 2c 7c 81 3f
       0.46378195 0.7144963 1.1977086 1.0116019
0001d0 8e 96 0b 3f 1e f8 49 3f b1 9e ac 3e 8e 9e 6c 3f
       0.54526603 0.7889422 0.33714822 0.92429435
0001e0 a7 c2 04 3f 7d be 72 3f fd c3 a7 3e 8f d5 d6 3e
       0.51859516 0.9482191 0.32766715 0.41959807
0001f0 e7 0f ca 3d ed 0d a6 3e ad 47 e4 3e ca cf 26 3f
       0.098663144 0.324325 0.44585934 0.6516081
000200 03 3a 27 3f 2d e1 23 3f 97 0c 90 3f 47 ba 8e 3f
       0.65322894 0.64015466 1.1253842 1.1150597
000210 ac 97 69 3d c7 c3 f0 3e 21 f5 3d 3f 29 9b 15 3f
       0.05702941 0.47024366 0.7420216 0.5843988
000220 c5 a2 0f 3f 41 7d 13 3f 3b fd c5 3d c4 fa 85 3f
       0.5610774 0.57613 0.096674405 1.0467153
000230 f9 6f cf 3e b7 34 40 3f f2 6c d0 3e c7 48 4d 3f
       0.40515116 0.75080436 0.4070812 0.80189174
000240 df d3 a6 3e d8 ce 59 3f 65 e4 05 3f 4a 29 a4 3f
       0.3258352 0.85081244 0.5230163 1.28251
000250 ff 5b 74 3f b8 32 4d 3e af 26 0d 3f 19 2a 32 3f
       0.95452875 0.20038879 0.5513715 0.69595486
000260 da c3 ac 3f 0d a3 b4 3e bd 4d 1c 3f 92 3d 5e 3f
       1.3497269 0.35280648 0.6105612 0.868127
000270 a8 0c 00 3f 59 d1 fd 3d 2f e2 25 3f d5 7a 76 3f
       0.5001931 0.123934455 0.64798254 0.96281177
000280 d7 30 d7 3e 3b 1b 87 3f 19 d8 86 3f f7 5f 06 3f
       0.4202945 1.0555185 1.0534698 0.5249018
000290 d9 75 46 3f 95 b9 f4 3e c9 2a 82 3f 98 d3 14 3f
       0.7752357 0.47797838 1.0169307 0.58135366
0002a0 98 76 28 3f 2f ed 60 3f 56 e0 00 3f 0e 38 15 3f
       0.6580596 0.87861913 0.5034231 0.5828866
0002b0 e6 7f 71 3f af 5d ff 3e 52 30 20 3f 72 89 b8 3e
       0.9433578 0.49876162 0.6257373 0.36042362
0002c0 cb ae bd 3e 04 5c 83 3f b9 91 5e 3e a8 42 37 3f
       0.3704742 1.0262456 0.21735276 0.71586084
0002d0 a9 d5 6d 3f ca 08 6d 3e 89 e2 cd 3e 1d 3b 18 3f
       0.92904145 0.23147884 0.40211895 0.594652
0002e0 9d 2d 13 3f c6 09 86 3e 25 14 c7 3e f2 14 a3 3f
       0.57491475 0.26179332 0.38882557 1.2740767
0002f0 68 41 69 3f 69 e1 01 3e 2d 06 35 3f d9 35 97 3e
       0.91115427 0.12683643 0.7071255 0.2953327
000300 bf ec 09 3f a5 44 a4 3e 5d 79 24 3f bc e7 c6 3e
       0.5387687 0.32083622 0.64247686 0.38848674
000310 a6 f8 8d 3e a6 ad d5 3d 4b 5f 42 3f e5 41 4a 3e
       0.27728766 0.104335114 0.75926656 0.197517
000320 08 76 83 3f 0d 20 19 3f 0a 15 46 3f 5c 76 64 3f
       1.0270395 0.5981453 0.77375853 0.892431
000330 13 cc 0b 3f 9a 4f eb 3e 8d 7d 87 3e e2 e5 27 3e
       0.5460827 0.4595917 0.26462975 0.16396287
000340 4b cd 63 3f 8a 33 57 3f 16 71 1a 3f af 30 51 3f
       0.8898513 0.8406302 0.60328805 0.8171491
000350 54 d3 8c 3f 92 a3 fd 3e ef a3 0e 3f 19 c4 ba 3e
       1.1001992 0.49538857 0.5571889 0.36477736
000360 ee d1 3b 3f bb 94 77 3f 89 4b 20 3f cb 0c 4e 3f
       0.733672 0.9671132 0.6261526 0.8048827
000370 bc 11 61 3f 4d 7d f0 3e 87 17 21 3f 86 3e f1 3e
       0.87917686 0.46970597 0.62926525 0.47118014
000380 18 24 22 3f 69 24 58 3f 90 8c 1c 3f b3 2a ea 3e
       0.63336325 0.8443056 0.6115198 0.45735702
000390 e0 f8 5f 3f c7 f2 84 3e 1e c6 96 3e fe 3f e3 3e
       0.8748913 0.25966474 0.29448026 0.4438476
0003a0 b7 7a 28 3f 3d 5f f1 3e 74 0b 1b 3f bd cb 0b 3f
       0.6581225 0.47142974 0.6056435 0.54607755
0003b0 a1 77 01 3f c4 08 ba 3e fc d9 1a 3f 26 09 02 3f
       0.50573164 0.36334813 0.6048887 0.5079521
0003c0 98 47 f6 3e 50 e5 c6 3e 70 63 84 3e 22 cc 66 3e
       0.48101497 0.38846827 0.25857115 0.22538808
0003d0 7f 81 0f 3f 82 5c 63 3e e9 67 4f 3f 36 7d 18 3f
       0.5605697 0.22203258 0.8101793 0.59566057
0003e0 cb 5e ed 3e c0 04 bf 3e 22 a2 3d 3f fe 8b 01 3f
       0.46361384 0.3730831 0.7407552 0.50604236
0003f0 e9 5d aa 3e b6 bc d5 3e 2a 2f dc 3d 1a c1 60 3f
       0.33274773 0.41745538 0.10751183 0.8779465
