experiments/lstm_h2_l1_20241123_233835/final_model.pth (torch, 310839 bytes, 7 tensors)

embedding.weight f4 [15345, 2]
-0.093893886 1.2007618 -1.8310359 1.3335508 -0.7995841 0.049440246 -0.19690837 0.34266025
-2.141716 -2.1688871 -2.9988978 -1.2645487 -2.5860088 -2.2552776 -1.782982 -0.77570313
-0.9079167 -1.4355692 -3.0834594 -1.2296922 -3.0194066 -1.6815684 -2.700667 -0.76701987
-2.5481212 -2.5062954 -2.6660347 -0.38144973 -3.1513114 -0.27749228 -3.1642163 -0.6781792
1.7418101 -2.4412527 -0.30277675 -0.32193157 -1.3806854 -0.805345 -1.5954933 -1.4938697
-3.401724 0.5990555 -1.6408747 -1.5317744 2.9342413 2.5456 0.56269634 -0.512717
-0.342544 -1.1022755 -1.0912868 -0.9786786 -2.8842971 0.36193714 -0.66723955 -2.03284
-1.76312 -1.038533 -1.7856482 -0.6544721 -3.3686337 0.21407555 -2.6753259 -2.3136566
-1.8420641 -1.3251989 -0.38555005 0.06804967 -2.5336525 -2.8459501 -0.743296 0.33073288
-0.7619183 -2.4202485 -2.3192923 -1.3403286 -2.5615315 -0.99914163 -2.2009573 -1.247463
-2.1193247 -4.5540714 3.9795268 1.4900038 -2.1431243 -1.6099509 0.60040736 -1.7530642
-0.7825207 -1.0363607 -2.3210175 -0.99510396 -0.40561306 -1.3946104 -0.42999327 -0.40610743
-1.0612978 -0.7312809 -0.9109431 0.24465981 0.4521686 -1.8159152 -2.8666298 0.025556162
-2.1659675 -1.8680216 -2.9776978 -1.2510145 -0.637739 -2.3842447 -1.1984478 0.30308005
-1.0207868 -1.0412128 -0.47053587 -0.8611673 -2.7673044 -2.2866645 -0.8535433 0.8509976
-0.6077452 -0.34778085 0.20190233 -1.0880321 -0.84298414 -0.4809744 -2.4113061 -0.92723423
-0.28564423 -1.6224345 -0.44140705 -2.258247 -2.2467804 -3.0774424 -3.2452214 1.2217548
0.22649871 -1.0187718 0.8050111 -1.4083912 0.16292967 -1.4085369 -2.1607738 2.172624
0.5783629 -0.95354486 -1.1485549 -1.3218753 -0.61677027 -0.85496163 -0.8299437 -1.1224142
-1.3016707 1.1512116 -0.3892141 -2.553791 -0.99624515 -2.3933017 0.0932767 0.24307552
-0.10249349 -1.0275203 -1.0433637 -0.055547155 -0.25873947 -0.20508641 0.39657682 -0.9345658
-2.978308 -2.0254767 -0.78101885 0.90540344 -1.2188345 0.3048909 -1.0690548 -0.84376824
-1.5483787 -1.9135252 -2.0467317 -1.4636483 -0.30932397 0.4923434 -0.68330103 -0.30542752
1.0862719 -1.7443794 1.606083 -0.6939642 0.30988005 -0.8417203 -1.2285167 -0.6360706
-2.601546 -0.9924271 -1.5023662 0.44545978 0.09712088 -0.74935377 0.3627779 -0.35843113
-0.96220475 0.77990973 1.0089674 -1.3501397 0.046810348 -3.1950214 1.0898552 -1.2819544
0.7246093 -2.4364038 0.13696271 -0.7766429 -1.3926877 -0.06686951 0.24607801 -1.5388863
0.14145054 -1.8605616 -0.23571178 0.53133583 0.046270736 -2.4897735 -1.1034219 0.48204464
-1.393391 -1.0820206 -0.5130517 0.73668694 -0.9432511 -1.8433686 -3.0718875 0.8923386
0.10489162 -1.3582466 -0.85205597 -0.987442 -0.9186998 -1.9978504 0.4083944 -0.6509789
-1.2304095 -2.2529755 -0.6193522 0.42571115 -1.0408051 -1.1856089 1.780322 1.275091
-1.2805812 0.009567186 -2.0937617 -1.9692519 -0.78290105 -0.74623114 -1.0617192 0.696624
00000000: 704b c0bd 90b2 993f 625f eabf cbb1 aa3f
00000010: 8bb1 4cbf db81 4a3d 59a2 49be 2a71 af3e
00000020: e011 09c0 0ccf 0ac0 f1ed 3fc0 bbdc a1bf
00000030: 2b81 25c0 7856 10c0 c138 e4bf 7b94 46bf
00000040: 3b6d 68bf bbc0 b7bf 6657 45c0 8e66 9dbf
00000050: f53d 41c0 a23d d7bf bad7 2cc0 6a5b 44bf
00000060: 6b14 23c0 2567 20c0 50a0 2ac0 614d c3be
00000070: 16af 49c0 7813 8ebe 8582 4ac0 279d 2dbf
00000080: a2f3 de3f 7c3d 1cc0 8e05 9bbe 37d4 a4be
00000090: 4dba b0bf 172b 4ebf 2039 ccbf 1f37 bfbf
000000a0: d9b5 59c0 b45b 193f 2f08 d2bf 2f11 c4bf
000000b0: 9cca 3b40 1ceb 2240 de0c 103f 6c41 03bf
000000c0: ed61 afbe 5d17 8dbf 49af 8bbf ae8a 7abf
000000d0: 5398 38c0 d34f b93e 36d0 2abf 0d1a 02c0
000000e0: ebad e1bf a6ee 84bf 1f90 e4bf 7c8b 27bf
000000f0: b297 57c0 9f36 5b3e 8a38 2bc0 f312 14c0
00000100: c2c8 ebbf 1ea0 a9bf d166 c5be a05d 8b3d
00000110: 5d27 22c0 0c24 36c0 a648 3ebf d255 a93e
00000120: 140d 43bf 5ae5 1ac0 496f 14c0 e38f abbf
00000130: 22f0 23c0 bfc7 7fbf 7cdc 0cc0 deac 9fbf
00000140: 04a3 07c0 f4ba 91c0 91b0 7e40 72b8 be3f
00000150: f328 09c0 df12 cebf 4cb4 193f 6864 e0bf
00000160: 4753 48bf 78a7 84bf 8d8b 14c0 22bf 7ebf
00000170: 84ac cfbe 9882 b2bf 1428 dcbe 50ed cfbe
00000180: 9bd8 87bf 3a35 3bbf 9133 69bf 1a88 7a3e
00000190: a582 e73e e96f e8bf dd76 37c0 285b d13c
000001a0: 369f 0ac0 551b efbf 9a92 3ec0 3e21 a0bf
000001b0: dd42 23bf 7797 18c0 bd66 99bf 4f2d 9b3e
000001c0: 24a9 82bf 7646 85bf 14ea f0be 7675 5cbf
000001d0: 841b 31c0 b658 12c0 d081 5abf fbda 593f
000001e0: 3095 1bbf 5510 b2be 7cbf 4e3e a344 8bbf
000001f0: cfcd 57bf 4742 f6be d752 1ac0 395f 6dbf
00000200: f63f 92be efab cfbf 1b00 e2be 1e87 10c0
00000210: 40cb 0fc0 d1f4 44c0 b5b1 4fc0 7662 9c3f
00000220: 47ef 673e 1d67 82bf 3515 4e3f 2a46 b4bf
00000230: 09d7 263e f04a b4bf 1e4a 0ac0 460c 0b40
00000240: 970f 143f 841b 74bf d903 93bf 3633 a9bf
00000250: a8e4 1dbf c4de 5abf 3177 54bf 45ab 8fbf
00000260: 259d a6bf e75a 933f 1247 c7be 5071 23c0
00000270: ec09 7fbf db2b 19c0 db07 bf3d cae8 783e
00000280: 1be8 d1bd c985 83bf f18c 85bf 6a85 63bd
00000290: 8079 84be 2c02 52be 1e0c cb3e b43f 6fbf
000002a0: 999c 3ec0 69a1 01c0 daf0 47bf 85c8 673f
000002b0: c502 9cbf a91a 9c3e cad6 88bf 3201 58bf
000002c0: 4631 c6bf 65ee f4bf a7fd 02c0 d458 bbbf
000002d0: b65f 9ebe 6f14 fc3e d1ec 2ebf ff60 9cbe
000002e0: f50a 8b3f d347 dfbf 2194 cd3f a3a7 31bf
000002f0: 99a8 9e3e fb7a 57bf 0940 9dbf 86d5 22bf
00000300: bb7f 26c0 b40f 7ebf 894d c0bf 4e13 e43e
00000310: 50e7 c63d a6d5 3fbf 06be b93e 4984 b7be
00000320: 0d53 76bf 2aa8 473f d825 813f 61d1 acbf
00000330: 35bc 3f3d 3b7b 4cc0 6080 8b3f 1517 a4bf
00000340: ff7f 393f 0aee 1bc0 f43f 0c3e 12d2 46bf
00000350: 9743 b2bf e2f2 88bd e0fb 7b3e 3afa c4bf
00000360: 69d8 103e e226 eebf 6e5e 71be a005 083f
00000370: 6286 3d3d 7358 1fc0 ee3c 8dbf 8ece f63e
00000380: a35a b2bf a77f 8abf 5b57 03bf 8497 3c3f
00000390: e778 71bf 81f3 ebbf ce99 44c0 4d70 643f
000003a0: 6bd1 d63d 06db adbf 5720 5abf 00c9 7cbf
000003b0: e92f 6bbf 90b9 ffbf 1219 d13e 8ea6 26bf
000003c0: 0f7e 9dbf c030 10c0 de8d 1ebf d0f6 d93e
000003d0: 1a39 85bf 08c2 97bf 97e1 e33f 2f36 a33f
000003e0: 16ea a3bf b0bf 1c3c 3100 06c0 7210 fcbf
000003f0: 346c 48bf 0109 3fbf 6ae6 87bf f355 323f

lstm.weight_ih_l0 f4 [8, 2]
0.23979606 -0.23563 0.076369315 -0.49439672 2.3225327 0.98710144 2.1612515 0.5941979
0.88204134 0.22739393 -0.08150392 -0.28668684 -0.38770694 -0.6204428 -1.6907196 -1.6554085
00000000: 198d 753e fe48 71be 8467 9c3d 9121 fdbe
00000010: 60a4 1440 aeb2 7c3f f251 0a40 5b1d 183f
00000020: 76cd 613f f4d9 683e 87eb a6bd 9ec8 92be
00000030: 8681 c6be 57d5 1ebf 8069 d8bf 6de4 d3bf

lstm.weight_hh_l0 f4 [8, 2]
0.5457027 0.93308604 0.23877086 -0.08066593 0.073726095 0.34995973 -0.19582719 0.015610433
-0.3858483 0.32689363 0.71915364 0.68910813 1.4838439 1.3523908 0.2591324 -0.20128503
00000000: 2cb3 0b3f bade 6e3f 5980 743e 2e34 a5bd
00000010: b5fd 963d ec2d b33e ec86 48be e7c2 7f3c
00000020: e98d c5be 9a5e a73e 741a 383f 6469 303f
00000030: 99ee bd3f 241b ad3f 00ad 843e aa1d 4ebe

lstm.bias_ih_l0 f4 [8]
3.4415693 3.2226412 0.22037086 -0.67989725 1.9438641 2.263946 3.357022 2.4777136
00000000: ac42 5c40 c13f 4e40 e6a8 613e bf0d 2ebf
00000010: 8ad0 f83f 7ee4 1040 73d9 5640 dc92 1e40

lstm.bias_hh_l0 f4 [8]
2.8654716 2.7965927 0.26113003 0.5325312 0.9525147 2.1823008 2.3867488 2.199096
00000000: e363 3740 60fb 3240 d6b2 853e f753 083f
00000010: 01d8 733f d1aa 0b40 7ec0 1840 fdbd 0c40

fc_out.weight f4 [15345, 2]
-3.7551148 -4.016603 -3.1467865 -4.3271966 -3.7802644 -3.8890254 1.2201873 0.06970476
3.0975435 2.6760082 1.7358835 2.7835815 3.113615 2.5229974 2.467975 2.3331058
2.6167166 2.0207152 2.3089411 2.6789227 2.0656838 2.2622676 2.9945428 1.949777
2.352993 2.4118774 1.9218707 1.7350963 2.345087 2.279793 1.7920754 1.6894369
2.261308 2.204671 2.2968285 1.965576 2.5193846 2.3169324 2.422526 1.8554227
2.218034 1.7354138 2.4045458 1.6958 1.703509 1.9666055 2.254454 1.8299471
2.3231814 1.0724213 1.4450234 2.160891 2.5867682 1.4900638 2.4431856 1.3121083
1.8275123 1.1323936 0.7674219 1.7919905 2.4013038 1.6859121 1.6423781 1.8557184
1.6967715 1.6520382 1.2668958 1.7851024 1.4940583 1.7376541 1.6329759 1.5618392
1.3523768 1.7971216 2.080216 1.332652 2.1059597 0.99335855 1.0613495 1.6209825
1.619418 1.0642942 1.2483865 1.4541333 1.4944909 1.4944906 1.6160207 1.6416239
1.2387043 1.970538 2.1446314 0.87008226 1.623652 1.5647429 1.667979 1.5574186
1.6111387 0.97063833 0.7833788 1.2024442 1.54622 1.5970895 2.0261502 1.0709198
1.234896 1.6082197 1.3522377 1.5046259 1.2591777 1.2135104 0.88128495 1.2379534
1.8956132 0.5890238 0.77099985 1.8139292 1.3549544 1.9774498 1.4800296 1.2126439
1.2640105 1.5343963 0.8120639 1.2625736 -0.025645254 2.0759087 1.6296504 1.213188
1.3876332 1.090032 1.5384525 1.3193798 1.2995774 1.2796085 1.3955334 1.1634142
1.7271895 0.7205046 1.1943568 0.96652263 1.6831117 1.3661463 1.4573189 1.0822148
1.3840476 0.941398 1.4531653 1.1397734 1.4649031 0.780103 1.2734962 0.5853567
1.9579077 0.7459994 0.45800677 1.4199615 0.9733891 1.1496156 1.8384625 1.1282471
0.17702013 0.6297236 0.59301955 1.2111393 0.85951895 0.77250004 1.3510311 1.3053923
0.9651254 1.5214568 1.4153272 0.62285614 0.48096952 0.81654066 0.86746436 0.94645095
0.76615936 0.537189 0.45952827 0.54253423 0.8405913 1.4403952 0.554731 1.1557913
1.4263079 1.0549439 0.74033004 0.57379395 0.45585033 1.3937826 0.7092287 1.162646
0.37276745 0.95979327 0.571784 1.3786427 0.4471117 1.3979051 0.10942007 1.3575399
0.42619407 1.1161258 0.091870435 1.1023419 1.3823241 0.1113277 1.1490879 0.4175348
0.28334653 1.4090855 0.94056344 0.6336092 0.6857439 0.7920168 0.7509613 0.9016069
1.0621805 1.2372687 1.2383707 0.6175042 0.5430872 0.7592627 0.09176154 1.2880905
0.6251254 1.2212832 0.65875256 0.703368 0.41988978 0.703807 0.3571862 0.72817063
0.5085991 0.52162266 0.5310507 1.0693007 0.18137208 1.4309561 0.7633688 1.0415766
-0.009340549 1.2511258 0.68026054 0.57069665 1.131571 0.3688984 0.8240597 0.40499425
0.28916633 0.77369016 0.40078738 0.80365705 0.8690435 1.5216194 1.126802 0.65531605
00000000: cd53 70c0 0388 80c0 f364 49c0 6578 8ac0
00000010: daef 71c0 cbe5 78c0 192f 9c3f 5fc1 8e3d
00000020: 273e 4640 b843 2b40 6e31 de3f 3326 3240
00000030: 7845 4740 ca78 2140 4df3 1d40 9b51 1540
00000040: 4978 2740 6653 0140 b1c5 1340 7873 2b40
00000050: 2a34 0440 fec8 1040 97a6 3f40 4b92 f93f
00000060: 7097 1640 335c 1a40 dcff f53f a317 de3f
00000070: e815 1640 21e8 1140 ba62 e53f 783f d83f
00000080: 45b9 1040 5419 0d40 3dff 1240 ff97 fb3f
00000090: 993d 2140 9f48 1440 aa0a 1b40 7e7e ed3f
000000a0: 45f4 0d40 0a22 de3f 14e4 1940 f90f d93f
000000b0: 950c da3f bbb9 fb3f f948 1040 b53b ea3f
000000c0: 01af 1440 1a45 893f 87f6 b83f 0a4c 0a40
000000d0: 9c8d 2540 69ba be3f 275d 1c40 2af3 a73f
000000e0: eceb e93f 46f2 903f c375 443f f25f e53f
000000f0: f6ae 1940 f8cb d73f 7239 d23f 2e88 ed3f
00000100: cf2f d93f fd75 d33f a429 a23f 3c7e e43f
00000110: 4d3d bf3f 736b de3f 5b05 d13f 59ea c73f
00000120: af1a ad3f 1508 e63f 4222 0540 5794 aa3f
00000130: 0bc8 0640 bf4c 7e3f 4dda 873f 5b7c cf3f
00000140: 1749 cf3f cb3a 883f 21cb 9f3f 0a21 ba3f
00000150: 7a4b bf3f 784b bf3f c4d9 ce3f bb20 d23f
00000160: dd8d 9e3f 973a fc3f a441 0940 b6bd 5e3f
00000170: d4d3 cf3f 7f49 c83f 5680 d53f 7e59 c73f
00000180: cb39 ce3f c17b 783f 838b 483f b1e9 993f
00000190: 89ea c53f 6e6d cc3f 72ac 0140 e613 893f
000001a0: 1211 9e3f 25da cd3f 2016 ad3f 9597 c03f
000001b0: bc2c a13f 4f54 9b3f e49b 613f 4275 9e3f
000001c0: 74a3 f23f 44ca 163f 3f60 453f d52e e83f
000001d0: 256f ad3f 131d fd3f 9c71 bd3f ea37 9b3f
000001e0: 19cb a13f 1967 c43f 6be3 4f3f 039c a13f
000001f0: ff15 d2bc b0db 0440 6298 d03f bf49 9b3f
00000200: f79d b13f 2b86 8b3f 03ec c43f 70e1 a83f
00000210: 8d58 a63f 36ca a33f d7a0 b23f c2ea 943f
00000220: 8c14 dd3f fd72 383f afe0 983f 076e 773f
00000230: 3470 d73f e2dd ae3f 6d89 ba3f 0486 8a3f
00000240: 7928 b13f 76ff 703f 5201 ba3f 18e4 913f
00000250: f281 bb3f d5b4 473f ec01 a33f f0d9 153f
00000260: b89c fa3f d1f9 3e3f dd7f ea3e 4cc1 b53f
00000270: 0730 793f 9b26 933f bd52 eb3f 676a 903f
00000280: c444 353e 9135 213f 21d0 173f 9d06 9b3f
00000290: 6f09 5c3f 90c2 453f 96ee ac3f 1817 a73f
000002a0: 7512 773f 19bf c23f 7129 b53f 8073 1f3f
000002b0: a341 f63e cf08 513f 2512 5e3f 9c4a 723f
000002c0: 0523 443f 3885 093f 4a47 eb3e 86e3 0a3f
000002d0: fe30 573f df5e b83f da02 0e3f f8f0 933f
000002e0: 4291 b63f 6708 873f 4586 3d3f 29e4 123f
000002f0: 3765 e93e 7867 b23f 0390 353f 96d1 943f
00000300: 60db be3e 03b5 753f 7060 123f 5d77 b03f
00000310: d3eb e43e 8eee b23f a117 e03d dec3 ad3f
00000320: 1c36 da3e 36dd 8e3f 9126 bc3d 8a19 8d3f
00000330: ffef b03f c7ff e33d 5015 933f 1fc7 d53e
00000340: cc12 913e ea5c b43f c4c8 703f 3634 223f
00000350: ea8c 2f3f 9dc1 4a3f 003f 403f b6cf 663f
00000360: 88f5 873f d25e 9e3f ee82 9e3f c114 1e3f
00000370: c307 0b3f 0a5f 423f 79ed bb3d 26e0 a43f
00000380: 3808 203f 0253 9c3f 02a4 283f ed0f 343f
00000390: cbfb d63e b22c 343f 1ce1 b63e 6469 3a3f
000003a0: 8d33 023f 1089 053f f0f2 073f d8de 883f
000003b0: 9ab9 393e 9229 b73f 236c 433f 6252 853f
000003c0: 1a09 19bc e424 a03f 8e25 2e3f 2d19 123f
000003d0: 52d7 903f 40e0 bc3e 94f5 523f 685b cf3e
000003e0: 9c0d 943e 8f10 463f 0134 cd3e 78bc 4d3f
000003f0: a379 5e3f 6dc4 c23f 0c3b 903f cbc2 273f

fc_out.bias f4 [15345]
-1.6826726 -1.5935731 -1.4642137 0.9905611 2.2640386 2.5791738 1.5948857 2.027623
2.034581 1.7309368 2.18717 1.6513965 1.5207664 2.3207242 1.5937351 2.221666
1.429704 1.5808469 1.1511154 1.5051199 1.694181 1.551866 1.7152779 1.4344422
1.9111515 1.639251 1.3216395 1.4994501 1.8853596 2.033506 0.9590054 1.3335295
1.4047278 1.4779487 1.326676 1.3500913 1.2678537 1.1467464 1.4606442 1.4970347
1.3789248 1.395129 1.2410444 0.977801 0.92209685 1.0766841 0.9214988 0.90904516
1.3523841 1.5845934 0.8730184 0.9028595 0.95490766 0.92530394 1.1569158 1.3551369
1.2582148 0.88268894 0.49114937 0.99601245 0.8513867 1.3229716 1.0435896 0.92397314
1.1148145 0.714327 0.9930133 0.96953696 1.2029973 1.130959 0.5266924 0.9891552
1.0037545 0.8106791 1.0123502 1.3460865 0.6777039 1.0861953 1.0301472 0.39914888
1.603142 0.8499406 1.2921702 0.53368485 0.5664066 0.96261406 1.4132308 0.9657233
1.30368 1.3754897 0.5911502 0.7985108 0.5161064 1.2107879 0.7087169 0.8805468
0.8697692 0.709243 0.7731699 0.88688236 1.017994 1.0374925 1.1182005 1.0313886
0.7562416 0.68448275 0.8809672 0.6274801 0.2962281 0.7217804 0.893069 0.8528526
0.5949016 0.7118772 1.153788 0.94550335 1.0211201 0.70902526 0.5462078 0.51773864
0.81379646 1.0022094 0.7878001 0.84251237 1.0265778 1.0126492 0.18102697 0.60439795
0.973388 0.39791086 0.043556813 0.8418566 0.7683914 0.6375544 0.5074962 0.4334477
0.17902589 1.1384227 0.5119323 0.70099235 0.46467716 0.6962793 0.78215456 0.5138547
0.98954725 0.994742 0.40047392 0.91989994 0.78299356 0.577067 0.58020085 0.81823754
0.74937063 0.26645717 0.84855705 0.48042172 0.296972 0.690497 0.5932322 0.16297805
0.68839043 0.7582793 0.66507417 0.80377966 1.0485506 0.43540582 1.0726565 0.36531016
0.46627867 1.0442172 0.4855095 0.388596 0.7100825 0.8210101 1.0783528 1.0571771
0.47134793 0.9961855 0.94816387 0.44786695 0.4587082 0.60865927 0.5080192 0.517134
0.64269817 0.5352307 0.015520114 0.22291537 0.37486985 0.7181922 0.34231296 0.5905981
0.18239065 1.0695623 -0.0011998863 0.7423582 0.8128725 0.77758515 0.79937094 0.5275317
0.7947301 0.40964833 0.42571807 0.32093897 0.3628364 0.39571163 0.6824899 0.4896248
0.7464764 0.8876795 0.8746069 0.95905703 0.9072675 0.8781073 0.4038901 0.9190347
0.64232063 0.6233187 -0.033521645 0.19198099 0.82058215 0.4807647 0.65215653 0.73913354
0.69006795 0.19496423 1.0533059 0.3968739 -0.010659844 0.6012791 0.7270526 0.43677884
0.6179933 -0.087425284 0.34912708 0.26295003 -0.0022717605 0.18958561 0.3679097 0.06658501
0.72942823 0.69233936 -0.18444207 0.46951643 0.6725512 0.5834745 0.4139616 0.5787629
0.92287254 -0.07181911 0.60769445 0.38442287 0.6217835 0.65673834 0.7449437 0.13336754
00000000: d161 d7bf 34fa cbbf 5b6b bbbf 6a95 7d3f
00000010: 02e6 1040 2f11 2540 3725 cc3f 93c4 0140
00000020: 9336 0240 568f dd3f 98fa 0b40 f660 d33f
00000030: 79a8 c23f bf86 1440 83ff cb3f c72f 0e40
00000040: 8a00 b73f 3159 ca3f c057 933f c5a7 c03f
00000050: ecda d83f 8ca3 c63f 3a8e db3f cd9b b73f
00000060: 9da0 f43f fad2 d13f 7c2b a93f fbed bf3f
00000070: 7753 f13f f624 0240 6181 753f 18b1 aa3f
00000080: 1fce b33f 6c2d bd3f 85d0 a93f cbcf ac3f
00000090: 0849 a23f 96c8 923f 64f6 ba3f d59e bf3f
000000a0: 9c80 b03f 9693 b23f 8bda 9e3f 2b51 7a3f
000000b0: 8a0e 6c3f c9d0 893f 58e7 6b3f 2fb7 683f
000000c0: ec1a ad3f f5d3 ca3f 227e 5f3f cd21 673f
000000d0: d474 743f b8e0 6c3f d115 943f 2075 ad3f
000000e0: 2f0d a13f e7f7 613f ee77 fb3e acfa 7e3f
000000f0: 7bf4 593f 2257 a93f 5894 853f 8189 6c3f
00000100: 3eb2 8e3f 22de 363f 1f36 7e3f 9333 783f
00000110: d1fb 993f 44c3 903f 50d5 063f 4639 7d3f
00000120: 077b 803f aa88 4f3f b194 813f 904c ac3f
00000130: 017e 2d3f 7308 8b3f dddb 833f 3e5d cc3e
00000140: c233 cd3f b595 593f d565 a53f 929f 083f
00000150: 0600 113f e06d 763f bfe4 b43f a439 773f
00000160: fcde a63f 0c10 b03f 9f55 173f 346b 4c3f
00000170: 8d1f 043f 19fb 9a3f 796e 353f 846b 613f
00000180: 32a9 5e3f f390 353f 76ee 453f b90a 633f
00000190: a14d 823f 8ecc 843f 3221 8f3f 8b04 843f
000001a0: 0d99 413f 433a 2f3f 1187 613f 89a2 203f
000001b0: 36ab 973e 9ac6 383f 2ca0 643f 8c54 5a3f
000001c0: 794b 183f 963d 363f 53af 933f 820c 723f
000001d0: 10b4 823f ae82 353f 46d4 0b3f 858a 043f
000001e0: f754 503f 6648 803f 44ad 493f e4ae 573f
000001f0: e766 833f 7d9e 813f 225f 393e d3b9 1a3f
00000200: f52f 793f f9ba cb3e a168 323d ea83 573f
00000210: 4cb5 443f c436 233f 45eb 013f dbec dd3e
00000220: 9052 373e d6b7 913f ff0d 033f 3c74 333f
00000230: 2aea ed3e 5c3f 323f 483b 483f fb8b 033f
00000240: f852 7d3f 69a7 7e3f eb0a cd3e 907e 6b3f
00000250: 4472 483f aaba 133f 0b88 143f 0478 513f
00000260: c1d6 3f3f 136d 883e 093b 593f d6f9 f53e
00000270: b70c 983e 69c4 303f 11de 173f b8e3 263e
00000280: 5b3a 303f 981e 423f 4d42 2a3f 81c4 4d3f
00000290: e836 863f 83ed de3e cf4c 893f ef09 bb3e
000002a0: 14bc ee3e e9a8 853f b494 f83e 0ef6 c63e
000002b0: f7c7 353f b82d 523f 7707 8a3f 9451 873f
000002c0: 8454 f13e 0306 7f3f deba 723f d14e e53e
000002d0: cddb ea3e 18d1 1b3f 8c0d 023f e562 043f
000002e0: de87 243f e104 093f 1448 7e3c ed43 643e
000002f0: f1ee bf3e 72db 373f a543 af3e 7031 173f
00000300: 9dc4 3a3e 6be7 883f 8145 9dba 300b 3e3f
00000310: 6a18 503f d20f 473f 93a3 4c3f 510c 073f
00000320: 6f73 4b3f 6dbd d13e b8f7 d93e 1d52 a43e
00000330: b1c5 b93e b79a ca3e a8b7 2e3f 1ab0 fa3e
00000340: 1419 3f3f f73e 633f 3de6 5f3f c384 753f
00000350: af42 683f a4cb 603f afca ce3e dc45 6b3f
00000360: 206f 243f d091 1f3f fe4d 09bd aa96 443e
00000370: ac11 523f ca26 f63e bbf3 263f db37 3d3f
00000380: 4ba8 303f b4a4 473e bad2 863f 0e33 cb3e
00000390: a0a6 2ebc 6ded 193f 1f20 3a3f 7aa1 df3e
000003a0: cf34 1e3f 070c b3bd c9c0 b23e 63a1 863e
000003b0: d1e1 14bb bb22 423e a95e bc3e b95d 883d
000003c0: cfbb 3a3f 273d 313f 62de 3cbe 7564 f03e
000003d0: 512c 2c3f 965e 153f c6f2 d33e ce29 143f
000003e0: 6041 6c3f e615 93bd dd91 1b3f 13d3 c43e
000003f0: 342d 1f3f 0120 283f a1b4 3e3f 8091 083e
