experiments/lstm_h2_l1_20241123_224131/final_model.pth (torch, 310839 bytes, 7 tensors)

embedding.weight f4 [15345, 2]
00000000: 5894 e03e ae43 f8be 618e e2bf 964d 493f
00000010: 42db 61bf 1754 473f c514 2e3e ec3c c73f
00000020: c916 0a3f 35b7 92bf 4ec6 1740 458f 83bf
00000030: c20b dd3f 73a5 9dbf 55d7 b1bf ea1d 91bf
00000040: 2bdf bb3c 2cfc dc3d aa03 3240 6596 4dbf
00000050: 34d5 2540 445c c3bf 2e56 413f 6c57 c6bf
00000060: af5e a33f ecd6 fabf b2d4 2c3f ba96 bfbf
00000070: 3a9d 0b40 b137 0bbf 91c8 e43f df0f d4bf
00000080: 085f 8ec0 36cc 0c40 8dd3 13c0 b83d cc3e
00000090: bd9f acbe 74ae 1cbf b717 a2be 6779 f0bf
000000a0: 2176 0d3f 24a3 3ac0 e7f8 02bf 8f24 e0bf
000000b0: aa76 be3f 0902 c3bf 4385 4cc0 8dcb d13f
000000c0: 79eb 86bf e536 f03f 3eb4 1dbe 6d3b 33bf
000000d0: 05dd 813f ce19 3ebf e340 51bf 10b0 acbf
000000e0: 139b 5b3f 418e f43d cac2 73bc 89ee e3bf
000000f0: fb6f 3640 4767 3b3e 721f 483f 74ef 3bc0
00000100: 4160 ce3f 1479 953d 706b f4bf 23ad 56be
00000110: dfa9 1240 0031 38bf 37d0 12c0 8b66 d7bc
00000120: fd96 01bd 67a4 9abe 8737 3b3f 71a4 d0bf
00000130: cbfd 0440 04c4 a8bf 418c 1040 963a 823f
00000140: a689 e03f 043c bebf 4af7 0f40 39cb f2bf
00000150: f61b 2240 a652 44bf f388 0ac0 fc34 2bbe
00000160: 712b a3be db7b 15bf cfcf 733f d314 77bf
00000170: 9f97 acbf 43de a63e fed9 2dbf 0c76 ef3f
00000180: 0f56 aebd 658a cc3e df79 c2bf 1755 843e
00000190: 802c 0cc0 34f8 c93e 4c78 b53f 3457 04bf
000001a0: 7d6c 283f 3e28 bfbf 162d d63f 3b2d 83bf
000001b0: 1d48 a1bf 97e8 643f c4b1 1040 5563 123e
000001c0: 5268 cabf 4468 58bf 0be4 adbf f26c e13e
000001d0: 9300 f63f 8c03 c5bf 5c65 b4bf fa4c 41bf
000001e0: b645 ecbf 9816 773f e56e a8be 2b2a bfbd
000001f0: d65b e1bf 897c 8bbf f548 6d3f 9ae9 9cbf
00000200: 8dc0 f9bf a052 68be b761 25c0 5243 8fbf
00000210: f6c0 233f 5d71 05c0 dc89 a93f e75b 84bf
00000220: e3d4 6dbf 1e36 1140 79cd 23bf aed2 b43f
00000230: 3e6a 30be dc54 0f40 2d03 313f 2d2d 2fbf
00000240: 76fe 08c0 3f85 75bd 3dde b43f 9724 e93e
00000250: df63 c03f eda5 8f3f d178 1fbf ae10 c33d
00000260: 4bd0 b4bf 86b6 793e 2e09 20bf 71c0 d1be
00000270: d024 0140 2511 eebf 2c2f e0bf 7262 433f
00000280: 9e92 abbf 0d1e 973f 125a dbbf f8fc a03f
00000290: ed3c a1bf 59fb c13f 343c a9bf bc5c f63e
000002a0: 3583 493f 8868 6ac0 2f30 3dc0 34bd 823f
000002b0: cd96 07bf 7b24 12bf 4811 b83d a8dd 10c0
000002c0: 62ca 8dbe 42df 823f bbb5 3040 03d6 7e3f
000002d0: bc2e 4dc0 a252 a43f 9fab d13e 9587 e23f
000002e0: eaa5 8abf d027 423f 8089 93ba 5fd7 2c3f
000002f0: d82d 92bf 7160 5b3f 6261 a0be 2768 f4be
00000300: 7ef5 4e3f db94 f6bf 2aa0 efbb edaf da3c
00000310: 66d3 1dc0 2d4b 3c3f c5a0 63c0 0439 d33f
00000320: b285 d5bf 311d 50be 024a e1bf 1497 183d
00000330: 8ddf cd3e 9202 72bf f653 6cbf 6344 253f
00000340: 37ff 4dbf 0c02 4d3f f74a 1abf 76b6 d33f
00000350: cf38 803e 1385 303f c6e4 3fbf 7a10 943f
00000360: b97b e3be ae5f 8b3f 61b6 1bc0 e35a 42be
00000370: e854 3a3f f5d2 3cbe ae3e aa3c 69ed d23d
00000380: d151 263f 1ce1 8e3f 746e 86bf 4833 74bf
00000390: 0936 9e3d b94d 64bf ee54 c93f 3e0a 59be
000003a0: d511 efbe 9424 5dbf 90df 18bf c5cc 94bf
000003b0: 6214 50bf 9a96 a7bf 65ee f0bf 4c35 22bf
000003c0: 86be ffbf 3763 e93e 80af 7bbf bfd9 acbe
000003d0: ffeb fe3d 4116 16c0 5c88 03bf b15b a0bf
000003e0: 566d 2d40 6c3b 2fbd f5f4 fd3e 165e 09c0
000003f0: 75c2 7ebe 204e fa3e 3dd4 fa3e 916a b33d
0.43863177 -0.48489136 -1.76997 0.7863401 -0.88225186 0.77862686 0.1700011 1.5565467
0.5394102 -1.146216 2.3714786 -1.0278097 1.7269213 -1.2316116 -1.3893839 -1.1337254
0.022933563 0.107902855 2.7814736 -0.8030761 2.591138 -1.5262532 0.75522125 -1.5495429
1.276327 -1.9596839 0.6751205 -1.4967873 2.1814713 -0.54381853 1.7873708 -1.6567343
-4.4491005 2.199964 -2.309787 0.39890838 -0.3371562 -0.61203694 -0.31658718 -1.8787049
0.55258375 -2.9162073 -0.51161045 -1.7511157 1.4879963 -1.5234996 -3.1956336 1.6390244
-1.054061 1.8766752 -0.15400788 -0.7001255 1.0145575 -0.74258125 -0.81739634 -1.349123
0.857835 0.11941195 -0.014877984 -1.780717 2.8505847 0.18301116 0.7817298 -2.93649
1.6123124 0.072984844 -1.9095287 -0.20964484 2.291618 -0.7194977 -2.2939584 -0.026294013
-0.031638134 -0.30203554 0.73131603 -1.6300184 2.0779903 -1.3184819 2.2585604 1.0174129
1.7542007 -1.4862065 2.2494683 -1.8968269 2.5329566 -0.7668861 -2.1646087 -0.1671943
-0.3186908 -0.58392113 0.95238966 -0.9651615 -1.3483771 0.32591447 -0.67910755 1.87079
-0.08512508 0.39949337 -1.5193442 0.25846168 -2.190216 0.39447176 1.4177337 -0.5169556
0.6579054 -1.4934156 1.6732509 -1.0248178 -1.2600132 0.89417404 2.26085 0.14295705
-1.5813086 -0.84534097 -1.3585218 0.4402843 1.9218925 -1.5391707 -1.4093432 -0.7550808
-1.8458774 0.9651885 -0.32897106 -0.09334215 -1.7606151 -1.089738 0.9268945 -1.225879
-1.9511887 -0.22687769 -2.584089 -1.119242 0.6396631 -2.0850441 1.3245196 -1.0340546
-0.92902964 2.268928 -0.639854 1.4126794 -0.17228028 2.2395544 0.6914547 -0.6842831
-2.140531 -0.059941527 1.4130322 0.45535728 1.5030478 1.1222512 -0.62293726 0.09524666
-1.4126066 0.24386033 -0.6251401 -0.40967134 2.0178719 -1.8598982 -1.7514396 0.7632209
-1.3404119 1.1806046 -1.7136862 1.25772 -1.2596718 1.515483 -1.3221498 0.48117626
0.7871583 -3.66263 -2.956066 1.021399 -0.5296448 -0.57086915 0.08987671 -2.2635288
-0.27693468 1.0224383 2.761092 0.99545306 -3.2059774 1.2837718 0.4095125 1.7697626
-1.0831883 0.75842 -0.0011256188 0.6751613 -1.142024 0.8569403 -0.31324297 -0.47735712
0.8084334 -1.9264177 -0.007312794 0.026695216 -2.4660277 0.7355221 -3.5566876 1.6501775
-1.6681426 -0.20323636 -1.760071 0.037253454 0.40209618 -0.9453517 -0.92315614 0.64557475
-0.8046755 0.8008125 -0.6027064 1.6540058 0.25043342 0.68953055 -0.74958456 1.1567528
-0.4443033 1.0888574 -2.4330065 -0.18979983 0.72785807 -0.18439849 0.020781841 0.10299189
0.6496859 1.1162448 -1.0502458 -0.9539075 0.0772515 -0.89181095 1.5729043 -0.21195313
-0.46693292 -0.8638394 -0.5971613 -1.1624991 -0.812811 -1.3092835 -1.8822752 -0.63362575
-1.9980018 0.45583507 -0.98314667 -0.33759877 0.124473564 -2.3451083 -0.5137994 -1.2527982
2.7097983 -0.04278128 0.4960095 -2.1463675 -0.24878867 0.4888773 0.4899005 0.0876056

lstm.weight_ih_l0 f4 [8, 2]
00000000: 53e4 b4be 427e 883f 5cff e1bf d743 8e3f
00000010: 1dfe 5ebf dd42 ff3f 0cd2 92bf 6ea2 803f
00000020: e24d 93bd 7b7e ee3e c987 523f 98b2 e9be
00000030: abe9 d5be a2ba 5e3f bdcf f2bf db63 b23f
-0.35330448 1.0663531 -1.7656054 1.1114453 -0.87106496 1.994228 -1.1470351 1.004957
-0.07192589 0.46580872 0.8223844 -0.4564407 -0.41779837 0.8700353 -1.8969647 1.3936723

lstm.weight_hh_l0 f4 [8, 2]
00000000: 4b0b 823e 432c ae3e fd2a 65bf 76b1 873f
00000010: 9c1e 44bf 5113 7b3e ede7 45bf dea1 813f
00000020: 7145 aebe aa61 81bf 84de 28bf 307f 0f3f
00000030: b6a4 c33f 76fb 82bf 394c e73e a27e 66bf
0.2539924 0.34018144 -0.8951872 1.0601032 -0.76609206 0.24519087 -0.77307016 1.0127523
-0.34037355 -1.010793 -0.6596453 0.5605345 1.5284641 -1.023299 0.4517534 -0.90036976

lstm.bias_ih_l0 f4 [8]
00000000: cbfa 3940 5069 f43f acb2 92bf 9d00 ebbe
00000010: a8d6 e83f 0110 c6bf 2abc 2540 86b6 fc3f
2.9059322 1.9094639 -1.1460776 -0.45898905 1.8190508 -1.5473634 2.5896096 1.9743202

lstm.bias_hh_l0 f4 [8]
00000000: 68ad 1b40 58a8 1340 9961 e2be 2be5 5ebf
00000010: 3f31 e33f ff33 ddbf 6e3c 1540 02f7 d63f
2.4324589 2.30715 -0.44215086 -0.8706843 1.7749404 -1.7281493 2.3318133 1.6794131

fc_out.weight f4 [15345, 2]
00000000: ef8f 79c0 430a 5e40 8d69 43c0 ad82 5840
00000010: 50f5 7bc0 7e39 4740 62a5 e23e fe48 b4be
00000020: c4f3 1540 0ff9 4ac0 55c9 0640 62f1 38c0
00000030: a03d f63f f1cc 35c0 208b 1e40 b61b 13c0
00000040: 395a 2540 c7b8 2dc0 0714 3640 919e 2fc0
00000050: c434 0540 e6a0 28c0 e216 0040 bc5c 30c0
00000060: 50e6 2a40 69a1 11c0 c2e6 d73f 7f56 1dc0
00000070: a617 0c40 0746 25c0 ff55 1840 528f fabf
00000080: d2c8 b43f f7c3 13c0 556c 0540 aba2 1ec0
00000090: ca3e 1940 76d2 efbf 628c 1c40 3bb0 26c0
000000a0: f0a7 b83f 8235 09c0 e04e d03f ef88 fabf
000000b0: 6b68 db3f 4224 eabf 25d4 c23f aa4e 20c0
000000c0: 302b 1140 ced0 c3bf b4d1 e13f 5a00 26c0
000000d0: 16c7 0e40 6335 20c0 ef29 f83f 6ce2 b6bf
000000e0: d37e d63f b75c 0dc0 8ca9 f63f b42d c1bf
000000f0: 6786 0a40 9cee 0cc0 acf7 963f 9b71 f8bf
00000100: 9198 ee3f 9946 debf 1d97 be3f 01fa e5bf
00000110: 60ca c53f 98fe e1bf 4694 ac3f 8756 e8bf
00000120: 46c2 c53f 2c25 cbbf b04f b23f 9b4f 06c0
00000130: c5fa a73f 42ea f0bf df12 0740 3105 d7bf
00000140: ce91 763f 5ba5 acbf b088 b43f f140 e6bf
00000150: 0a79 cf3f e11e 8bbf eb50 d33f 2a9a d6bf
00000160: 9926 6a3f cf88 f1bf 2064 953f 9cb2 f2bf
00000170: 3620 693f 0ec8 cabf 3021 e33f c641 d6bf
00000180: 5730 0640 4b12 b7bf 233f b33f 45b2 aebf
00000190: 7913 ed3f 4b72 c1bf ffde c43f 8359 e6bf
000001a0: b1c7 903f 9161 cabf e04c bf3f d0e3 dcbf
000001b0: b97c b33f 475b 9fbf b6e0 953f b89c 76bf
000001c0: 0282 973f ef46 b4bf 627a af3f 5432 11bf
000001d0: d552 723f ca66 9dbf 2987 e83f 15de ebbf
000001e0: 7ab5 c33f 341d acbf 0780 ce3f 345a 54bf
000001f0: 7b66 863f 3929 313e 5d3c d83f 74f8 90bf
00000200: 832d b03f d93d f8bf f178 403f c12a b9bf
00000210: 1172 b03f cda5 c2bf bd65 a73f 3f7a a5bf
00000220: 2e2d 993f c4ce 80bf fdbe b93f 7583 7fbf
00000230: 8834 a23f 4ced bcbf 20c1 383f 5931 89bf
00000240: 9979 a63f a570 52bf 84be b63f a597 b7bf
00000250: 62ee a53f 9966 5cbf 787a d53f ad4b 8dbf
00000260: d478 9c3f 0760 9dbf cc9c 5d3f ee27 68bf
00000270: 5202 323f 0c1c d4bf 3be8 923f b40a 9ebf
00000280: c73c 0440 90bf d63e 0b59 bc3f c2b8 07bf
00000290: 49b8 623f 550e e3bf 58d9 5f3f 0fdc 75bf
000002a0: 6e55 9c3f e3f4 22bf a986 543f b744 69bf
000002b0: d015 8e3f b05c d9bf f808 a03f d0b6 8cbf
000002c0: 84c4 a03f 9752 0abf b115 eb3f 1d3e 13bd
000002d0: 1f87 973f c79b 8fbf e6e8 6f3f 99f9 b73e
000002e0: 172c 923f 266a acbf 16b0 8a3f bf21 86bf
000002f0: 7125 813f ad1f 34bf 6aad 0d3f 9ad6 f4bf
00000300: 9378 b33f 5985 8abe 3e18 a13f 306d 51bf
00000310: 16c4 b53f 134a 87bd cf69 9c3e dd9e 85bd
00000320: fe7b b23f 9dea a9bf 5755 493f ae3e 92be
00000330: ecc6 293f 268e e8bf 70e0 6a3e 841a 8abf
00000340: 04ea 953f 9f73 78bf 498b 5a3f 9735 09bf
00000350: 95be 503f e33a 75bf cee4 4b3f c2dc 37bf
00000360: 5fa6 963f 28a0 72bf 82e2 8f3f a84b 45bf
00000370: 3eff 733f bdae 1bbe a8e7 973f 738a 4ebf
00000380: ae84 933e 77f9 49bf 96cc af3f 8925 2c3d
00000390: f223 2a3f 7ce5 6dbf 4eda 803f f4fe 42bf
000003a0: 18ed 8c3e 0504 d83c 5890 3d3f 72d6 50bf
000003b0: 7a13 893f d617 1cbf 562d 6f3e 0c74 75bf
000003c0: 5049 443f 0413 edbd 38ee 013f c2a9 87bf
000003d0: bb9b 633f 3700 9abf d22f 623f 9db5 bbbe
000003e0: e089 4b3e 449c acbf ba65 0b3e 5b3b acbf
000003f0: 02ee b53f a220 aabf 1b28 153f 7828 59bf
-3.89941 3.4693763 -3.0533173 3.3829758 -3.9368477 3.112884 0.44266802 -0.3521194
2.3430033 -3.1714513 2.1060383 -2.8897328 1.9237556 -2.8406336 2.4772415 -2.2985663
2.5836318 -2.714403 2.8449724 -2.7440531 2.0813456 -2.6348205 2.0013967 -2.75566
2.6703072 -2.2754767 1.6867297 -2.4584043 2.1889434 -2.5823991 2.3802488 -1.9574988
1.4123785 -2.3088357 2.084737 -2.4786785 2.3944573 -1.8736103 2.4460683 -2.6045063
1.442625 -2.1438909 1.6274071 -1.9573039 1.7141241 -1.8292315 1.5220991 -2.5048013
2.268261 -1.5298097 1.7642121 -2.5937715 2.2309012 -2.5032585 1.9387797 -1.4287848
1.6757454 -2.2087839 1.9270492 -1.5092072 2.1644533 -2.2020636 1.1794333 -1.940967
1.864031 -1.7365295 1.4889866 -1.796692 1.5452385 -1.7655821 1.348275 -1.8151406
1.5449913 -1.5870719 1.3930569 -2.0986087 1.3123404 -1.882149 2.1105268 -1.6798459
0.9631623 -1.3487962 1.4104214 -1.7988569 1.6208813 -1.0868798 1.6509069 -1.6765797
0.91465145 -1.8869876 1.1671181 -1.8960757 0.91064775 -1.5842302 1.7744503 -1.6738822
2.0967004 -1.4302458 1.4003643 -1.3648154 1.8521568 -1.5113004 1.5380553 -1.7996067
1.1310941 -1.5811025 1.4945335 -1.7257023 1.4022437 -1.2449731 1.1709201 -0.96332884
1.183655 -1.4084147 1.3709223 -0.5671742 0.9465764 -1.2296994 1.8166248 -1.8427149
1.5289757 -1.3446412 1.6132821 -0.8295014 1.0500025 0.17300881 1.6893421 -1.1325822
1.3763889 -1.9393874 0.7518454 -1.4466172 1.378481 -1.5206848 1.3077923 -1.2927932
1.1966913 -1.00631 1.451141 -0.9980996 1.2672281 -1.4759917 0.72169685 -1.0718185
1.3005859 -0.8220313 1.4276891 -1.4343153 1.2963374 -0.8609405 1.6678 -1.103872
1.2224374 -1.229493 0.8656738 -0.9068593 0.6953479 -1.6571059 1.1477121 -1.2347016
2.0662096 0.41943026 1.4714674 -0.53016293 0.88562447 -1.7738749 0.87441015 -0.9603891
1.2213571 -0.6365492 0.83017975 -0.91120476 1.1100407 -1.6981411 1.2502737 -1.099329
1.2559972 -0.5403227 1.8365995 -0.035947908 1.1838111 -1.1219414 0.9371475 0.35932615
1.1419705 -1.3469894 1.0834987 -1.0479048 1.0089551 -0.70360833 0.55342734 -1.9127991
1.4021171 -0.2705486 1.2585523 -0.8180723 1.4200466 -0.066059254 0.30549476 -0.065244414
1.394409 -1.3274723 0.78645843 -0.28563446 0.66319156 -1.816838 0.22937179 -1.0789342
1.1712041 -0.97051424 0.8536878 -0.53597397 0.81540805 -0.9579298 0.79646003 -0.71821225
1.1769522 -0.9477563 1.1241 -0.7706857 0.95311344 -0.15203376 1.1867571 -0.80680007
0.28812164 -0.7889628 1.373431 0.042027984 0.664611 -0.9292829 1.0066621 -0.7617028
0.27524638 0.026369104 0.74048376 -0.8157722 1.0709069 -0.6097387 0.23357138 -0.958802
0.76674366 -0.115758926 0.5075412 -1.0598681 0.889095 -1.2031316 0.8835422 -0.36661997
0.19876814 -1.3485188 0.13613024 -1.3455614 1.4213259 -1.3291209 0.5826432 -0.84827375

fc_out.bias f4 [15345]
00000000: 3f26 41c0 81d0 45c0 0e9f d9bf ae92 a83f
00000010: a518 2a40 b3b8 1b40 ee14 1b40 977a 0a40
00000020: 75f3 dd3f 6129 c13f dadd 0340 87e7 fb3f
00000030: be67 c63f 966e 0740 78e0 d23f fe89 dc3f
00000040: e007 0a40 48e9 ba3f 6592 d33f 5c55 873f
00000050: 711e 0c40 db79 0140 cc61 f53f 0bf2 c93f
00000060: b17e d33f 6187 a63f 4daa 5f3f 0ad2 eb3f
00000070: 971e ab3f c37d c33f c3b0 5b3f 95d8 ea3f
00000080: 0916 ab3f ac67 c23f d0ae b23f 4842 bd3f
00000090: e7c0 b23f 4d43 993f 97b5 ae3f a7ad 3a3f
000000a0: 74b5 e03f 529f 9a3f a5f9 bf3f 9e6c 873f
000000b0: 1e64 b93f dcbd 9e3f 3e46 ce3f 2a0a 653f
000000c0: 1b1c 283f e607 963f d541 4c3f fd8d 573f
000000d0: c52d a63f a9ca 5d3f 91d9 883f 7efc c33f
000000e0: 9839 9b3f eb7b ae3f 4eb1 c73f 1e10 c83e
000000f0: 5108 743f 13a2 8a3f 4c38 ef3f e51f 7a3f
00000100: 9535 2e3f 150c b63f 5aa0 5d3f d9d8 743f
00000110: 1a4b ac3f c559 7f3f b180 693f b31b d13f
00000120: 90d0 9a3f a95e 1f3f 7fee 8b3f 57c7 223f
00000130: 98f2 643f 2181 ac3f 9a93 763f 9f5f 613f
00000140: 5dca 593f aec6 573f 1de7 473f e0a7 933f
00000150: 91ae 9d3f 356c 973f 094c 0b3f 9932 3e3f
00000160: ecd2 783f d7fc 143f 06b4 3e3f 1cd2 c63f
00000170: ce9b 1d3f e6b2 283f 7f89 673f 70d2 293f
00000180: 4246 0d3f 80a0 313f f1d6 733f b966 d83f
00000190: 3c9b 4c3e 23cb a53f addc 053f 30ce a23f
000001a0: 3f9f 263f 5db4 553f b03d 3e3f f259 573f
000001b0: 7c8c 183f afbe 393f 28af 8f3f 2219 193f
000001c0: bccd ae3f a226 223f eeaf 703f f8ae 073f
000001d0: e94f bb3f 81af 693f 90ff 163f 14c6 933f
000001e0: 10d7 903f 3a32 683f 66bf 0d3f af7c 6f3f
000001f0: 995e 633f 683f 823f b6d9 f43c d71a 6e3f
00000200: d61e 083f 8bc9 803f 3746 963e 280d 923f
00000210: 6a56 813f 0d5b 773e 985f 253f 81ba a93f
00000220: 803b 113f 579b 9b3e 420c 2f3f 9421 9c3f
00000230: d5c8 eb3d 4bfc e63e c5ea 623f 0314 a73e
00000240: 2540 6f3f 422f 4c3f 6ab1 8b3e 7cff 593f
00000250: 474d 803f 3b27 6f3f 183c 5e3f 661b 6b3f
00000260: 2d5c 263f 137f 7c3e c157 4b3f 0916 453f
00000270: 3b0a c23e 7e8a 893f c4f1 673f 2402 153f
00000280: 36d3 663f 1dc0 913f 77a4 313f d503 a03e
00000290: 4760 ab3e 9b55 743e 40e8 873d b989 193e
000002a0: 1216 353f 5405 a03e 7219 bf3e d901 d83d
000002b0: 99e6 0c3f 57c4 8f3f cbd0 3b3f d543 993f
000002c0: ca1d e73e aa91 403f 32b4 903f 8760 413f
000002d0: 5afe 683f b644 823f 99de 2a3f bfa1 943f
000002e0: 2801 ab3d cf6c 1e3f 6baf 4f3f 59e6 573f
000002f0: a6f0 3b3f 5ab4 2d3f c8f3 883f dfcf a63e
00000300: 7a9a 053f 7a67 0c3f f48c 583f 0c92 373f
00000310: 95fe 503f 2765 803f 9464 2a3d d1c0 f73e
00000320: 328b 863f 90c0 023f 7414 f63e 80f0 883f
00000330: a791 723f c3b5 b63e 958d 733f ce5f 413f
00000340: 6326 3c3f c593 b93e 1b65 5c3f 04b2 343f
00000350: 7bce 193f aad5 7e3f 5294 393f 8872 393f
00000360: deea 313f ad50 203f f328 1e3f 3a57 93bb
00000370: 65de 163f 282c 853f 3ba9 6a3f 52d4 4e3f
00000380: 7fa4 653f b9f4 8c3e 9b07 413f 4ec4 4e3f
00000390: 1bbc ec3e da23 3c3f e26b 2e3f 8a2a 353e
000003a0: 6b91 513f a878 8a3e 10c8 363f 18d8 2d3f
000003b0: 84b3 203f a70e 413f ad13 c03e 8e41 4a3f
000003c0: 3e00 683e 8a03 093f 23b5 683f 4712 1e3f
000003d0: 8d45 ed3e fd0b 193f 66be 2c3f 2890 7d3e
000003e0: c195 4c3f ea47 643f 2f1a 0b3f 1403 123e
000003f0: ccdc 123f 9853 f73e b6bf 3b3f 6119 873f
-3.0179594 -3.090851 -1.7001665 1.3169763 2.6577542 2.4331481 2.4231524 2.1637323
1.7339922 1.5090753 2.0604157 1.9680032 1.550041 2.1161246 1.6474752 1.7229612
2.1567307 1.4602442 1.6529051 1.0572925 2.189358 2.0230625 1.917047 1.5776991
1.6523038 1.3010064 0.87369233 1.8423474 1.336871 1.5272754 0.8581659 1.8347346
1.33661 1.5187888 1.3959599 1.4785852 1.3965119 1.1973664 1.3649167 0.7292122
1.7555375 1.2079871 1.499806 1.0580022 1.4483678 1.240169 1.6115186 0.89468634
0.65667886 1.172116 0.7978795 0.8420103 1.2982718 0.8663736 1.0691396 1.531143
1.2126951 1.3631567 1.5600984 0.39074796 0.9532519 1.0830711 1.8689055 0.9770492
0.6805051 1.4222437 0.865728 0.95643383 1.3460419 0.9974635 0.9121199 1.6336578
1.2094898 0.62253815 1.0932158 0.6358542 0.8943267 1.3476907 0.9631897 0.8803653
0.85074407 0.84287536 0.78087026 1.1535606 1.2318898 1.1829897 0.54412895 0.74295956
0.9719684 0.58198303 0.74493444 1.553287 0.61565864 0.6589798 0.9044418 0.6633673
0.5518533 0.6938553 0.9524985 1.6906348 0.19981092 1.2952617 0.5228985 1.2719173
0.6508674 0.8347834 0.7431288 0.8412162 0.5958936 0.72556585 1.1225328 0.59803975
1.3656535 0.633402 0.9401845 0.53001356 1.4633762 0.9128342 0.5898371 1.1544824
1.1315632 0.9070164 0.55370176 0.9354963 0.8881622 1.01756 0.029888969 0.93009704
0.5317205 1.0061506 0.29350445 1.1410265 1.0104496 0.24155827 0.6459899 1.3260041
0.56731415 0.30391952 0.6837808 1.2197747 0.11512915 0.4511436 0.8863948 0.32632455
0.9345725 0.7975961 0.27283794 0.85155463 1.0023583 0.93419236 0.86810446 0.9183868
0.649844 0.2465785 0.79430777 0.7698675 0.3789843 1.074539 0.9060328 0.5820639
0.9016603 1.1386753 0.6939158 0.31252924 0.3347189 0.23860781 0.06636095 0.14993943
0.707368 0.31254065 0.373241 0.105472274 0.55039364 1.1231793 0.7336547 1.1973826
0.45139915 0.75222266 1.1304991 0.75537914 0.9101311 1.0177219 0.6674591 1.1611861
0.0834983 0.6188478 0.8112704 0.8433586 0.73414075 0.6785332 1.0699396 0.32580468
0.5218884 0.5484539 0.8459008 0.71707225 0.8163846 1.0030869 0.041599825 0.48389295
1.0511229 0.5107508 0.4806248 1.0698395 0.947535 0.35685548 0.9513791 0.7553681
0.73496073 0.36245552 0.86091775 0.7058413 0.6008069 0.99544775 0.72491944 0.72440386
0.69499004 0.626231 0.61781234 -0.004496482 0.589331 1.04041 0.91664475 0.80792725
0.89704126 0.2753046 0.7540223 0.8076829 0.46237263 0.73492205 0.68133366 0.17692009
0.81862515 0.27045178 0.7139902 0.6790786 0.6277392 0.7541298 0.3751501 0.7900628
0.22656342 0.53521025 0.9090139 0.6174664 0.46342126 0.5978392 0.67478025 0.24762022
0.79916006 0.8917223 0.5433683 0.14258987 0.5736816 0.48305964 0.733394 1.055462
