experiments/lstm_h2_l1_20241124_104804/final_model.pth (torch, 310839 bytes, 7 tensors)

embedding.weight f4 [15345, 2]
0	0xbf86122a	-1.0474293
1	0xbea6547a	-0.32486326
2	0x3f60c3ab	0.87798566
3	0x3fd1caea	1.639005
4	0x3ee24e3d	0.44200316
5	0xbf4f4d31	-0.8097716
6	0xbedaf0a2	-0.42761713
7	0xbfb777d1	-1.433344
8	0xc025c9b6	-2.5904365
9	0xc0175e1f	-2.3651197
10	0xc04426a9	-3.0648596
11	0x3f300884	0.68762994
12	0xc04ee007	-3.2324235
13	0xbf036b36	-0.51335466
14	0xbfe2f486	-1.7730873
15	0xbeac6eb2	-0.33678204
16	0xbfcb5307	-1.5884713
17	0xbfc70740	-1.5549088
18	0xbf0accc6	-0.5421871
19	0x4044498d	3.0669892
20	0x40007c09	2.0075705
21	0x400bfe1d	2.1873848
22	0xc03e08ee	-2.969295
23	0x3db393c0	0.087684155
24	0xc040b344	-3.0109415
25	0x3edfb2cb	0.43691096
26	0xbfee4fee	-1.8618143
27	0x3fc85807	1.5651864
28	0x3fdf8d01	1.7464906
29	0x3fc9ce06	1.5765998
30	0xbfa7639a	-1.3077271
31	0x40409d46	3.0095992
32	0x3f425471	0.759101
33	0xc056a508	-3.3538227
34	0xbf3a7ce1	-0.728468
35	0xbfeb14f3	-1.8365768
36	0xbff0567e	-1.8776395
37	0xbfb6f015	-1.4292017
38	0xc013c402	-2.3088384
39	0xc0194f89	-2.3954794
40	0xbf8c3d06	-1.0956123
41	0x40365633	2.8490112
42	0xc00a97d9	-2.165518
43	0xbfaf411c	-1.3691745
44	0xc043b164	-3.057702
45	0xbfb7b840	-1.4353104
46	0x3edfbb10	0.43697405
47	0xc058002f	-3.3750112
48	0xbf298fa0	-0.6623478
49	0xc00cff51	-2.2030833
50	0xbfaadd02	-1.3348696
51	0xbef7276f	-0.48272273
52	0xc0268a2d	-2.6021836
53	0xc00b8657	-2.1800745
54	0xbfa7fa1a	-1.31232
55	0xbf9cf790	-1.226305
56	0xbf905bd1	-1.127802
57	0x3f7ce28d	0.9878319
58	0xbffbbc43	-1.9666828
59	0x3f67740e	0.9041146
60	0x4033ac48	2.8073902
61	0x3fa48985	1.2854468
62	0x3f105211	0.56375223
63	0x401e2660	2.4710922
64	0xc02abeb3	-2.6678894
65	0xbff50512	-1.9142172
66	0xbf613dbb	-0.8798482
67	0xc03383eb	-2.8049266
68	0xc01bb2bf	-2.4327848
69	0x3fddea22	1.7337077
70	0xbf53589f	-0.825571
71	0xbf75da22	-0.9603597
72	0xbff9b137	-1.9507207
73	0xbf70b774	-0.9402993
74	0xc01b4c0b	-2.4265163
75	0x3f92f42d	1.1480767
76	0x3f272a2c	0.65298724
77	0x40216584	2.521821
78	0xc020674b	-2.5063045
79	0x3f72598c	0.9466789
80	0x401f3777	2.4877603
81	0x3fa8ff3b	1.320289
82	0x3fec201d	1.84473
83	0x402f0a95	2.7350209
84	0xbfcd106a	-1.6020634
85	0x403d66b6	2.959394
86	0xbe7d8245	-0.24756725
87	0xbff32d7b	-1.8998255
88	0xbf157863	-0.5838682
89	0xbfe62045	-1.7978598
90	0xc029a807	-2.6508806
91	0xc0052220	-2.0802078
92	0xbfa4d094	-1.2876153
93	0xc01a74d0	-2.4133797
94	0xbe41bb1e	-0.18919036
95	0xbffeae0c	-1.9896865
96	0xbf302d7d	-0.6881941
97	0xbf9ff4b2	-1.249655
98	0xbf93a4b7	-1.1534642
99	0xbf131854	-0.57458997
100	0xbf1401d8	-0.57815313
101	0xc02276c8	-2.5384998
102	0xc0193398	-2.393774
103	0xbd9c1195	-0.07620541
104	0xbf94ba14	-1.1619287
105	0x3f686d80	0.90792084
106	0xc04dae50	-3.2137642
107	0x3e2bc740	0.16775227
108	0xbfc6dfe1	-1.5537072
109	0xbfb5b503	-1.4195865
110	0xc01d1751	-2.4545481
111	0x3f93ccf2	1.1546919
112	0xbd4a35be	-0.04936766
113	0xc03e0806	-2.9692397
114	0xbf90119e	-1.1255376
115	0xc006500c	-2.0986357
116	0xbf2e688a	-0.68128264
117	0x4037d5fb	2.8724353
118	0xbf2ad70c	-0.66734385
119	0xbfa6105d	-1.2973744
120	0x3dacde8d	0.08440886
121	0xbfc18923	-1.5119976
122	0xbfd8c518	-1.6935148
123	0xbf0e4177	-0.5556864
124	0xbf8c9a40	-1.0984573
125	0xbf0cbb91	-0.54973704
126	0xbfa2bcfe	-1.2713926
127	0x3f8e986b	1.1140264
128	0xbf182074	-0.5942452
129	0xbe360edc	-0.17779106
130	0xbf9ae481	-1.2100984
131	0xbe58239a	-0.21107331
132	0xc004304b	-2.0654476
133	0x3fe7fdb6	1.8124301
134	0xbe8c1dc2	-0.27366453
135	0x3fcb142c	1.5865531
136	0xbeb08237	-0.34474346
137	0xbf9553e5	-1.1666228
138	0x3ed54c2a	0.4165967
139	0xbe9e83f5	-0.3096005
140	0xbf194939	-0.59877354
141	0xc064a512	-3.572575
142	0xc01406f9	-2.3129256
143	0xc005c06a	-2.089869
144	0xbef809d0	-0.48444986
145	0xbfd695c5	-1.6764456
146	0x4008d597	2.1380365
147	0xbeb84ff0	-0.35998487
148	0xbfcfdd8f	-1.6239489
149	0xbecf64a9	-0.40506485
150	0xc00d1296	-2.2042594
151	0xc0008853	-2.0083206
152	0xbf1149f2	-0.56753457
153	0xbe41db18	-0.18931234
154	0xbfcf58bf	-1.6198958
155	0x3f3a7b07	0.72843975
156	0xc03cd9e5	-2.9507992
157	0x3f92213a	1.141639
158	0x3d932b9a	0.07186051
159	0xc00bab0e	-2.1823153
160	0xbf117e64	-0.5683348
161	0xbf604853	-0.8761036
162	0x3d76c7a5	0.06024899
163	0xbf34e868	-0.70667124
164	0x3db03baf	0.08605134
165	0xbf9bd4cd	-1.2174317
166	0x3f7ad9e4	0.97988725
167	0xc0237ffc	-2.5546865
168	0x3fc5ecff	1.546295
169	0x400a5820	2.1616287
170	0xbf0e822a	-0.55667365
171	0xbefe8859	-0.497134
172	0xbef339b9	-0.47504976
173	0x3e75a09d	0.2398705
174	0xc0391057	-2.8916223
175	0xbfacc697	-1.3498105
176	0xbeddafee	-0.43298286
177	0xbe3dc0a1	-0.18530513
178	0xbf6162bd	-0.8804129
179	0x3f25af30	0.6472044
180	0x3ecb080a	0.3965457
181	0xc00a415d	-2.1602395
182	0xbf0b2d8b	-0.5436637
183	0xbfbe8285	-1.4883581
184	0x3ec8505c	0.3912381
185	0xc042532c	-3.0363264
186	0xbf749e85	-0.9555438
187	0xbe127879	-0.14303769
188	0x3f193593	0.5984737
189	0xbff3cb56	-1.9046428
190	0xbf1de158	-0.6167197
191	0x3faf328a	1.3687298
192	0xc00dcd15	-2.2156422
193	0xbf7c6412	-0.98590195
194	0x3ed4c11c	0.4155358
195	0xbdf465f2	-0.11933507
196	0xbee35b39	-0.44405535
197	0xc00b2f9d	-2.174781
198	0xbf39da7f	-0.72599024
199	0xbfd3bcea	-1.6542027
200	0xbf44edb5	-0.7692521
201	0x3dba6282	0.0910082
202	0xbf7d287e	-0.9888991
203	0xbecb2676	-0.3967778
204	0xbf1f4948	-0.62221193
205	0x3e0cac84	0.13737684
206	0xbf518efb	-0.81858796
207	0xbea47f75	-0.32128492
208	0x3d967d9e	0.07348178
209	0xbf976a61	-1.1829339
210	0xbea80c2b	-0.32821783
211	0xbf9749e8	-1.1819429
212	0xbefdc9f3	-0.49568138
213	0x3f04b8d7	0.51844543
214	0x3d4bb3cc	0.049732015
215	0xbfbff9ae	-1.4998071
216	0xbf13dbf5	-0.577575
217	0xbfde7427	-1.7379197
218	0xbf0ad864	-0.54236436
219	0xc004c444	-2.074479
220	0xbf92ecf4	-1.1478562
221	0x3d100955	0.03516515
222	0xbd7efce3	-0.06225289
223	0xbf9e7dc2	-1.2382128
224	0xbdbc2904	-0.091875106
225	0x3f90dc20	1.1317177
226	0xbfb598b6	-1.4187229
227	0x3ea603bf	0.32424733
228	0xbf2a3b8a	-0.664971
229	0x3f7f3479	0.9968944
230	0x3c8b2b13	0.016988313
231	0x3fad6999	1.3547851
232	0x3ec97efb	0.3935469
233	0xbedacce4	-0.42734444
234	0xbd235875	-0.03987928
235	0xbfa9c88d	-1.3264328
236	0xbf66d299	-0.90165097
237	0x3f9bb6b7	1.2165135
238	0xbeb89073	-0.36047706
239	0xc028010e	-2.6250644
240	0xbe81dc40	-0.2536335
241	0xbf93db4e	-1.1551301
242	0xbf8d730d	-1.1050736
243	0xbe0b3f60	-0.13598394
244	0x3e75f709	0.24020018
245	0x3ff791da	1.9341385
246	0xbe60d21e	-0.21955153
247	0x3f003734	0.50084233
248	0x3ffe3b9d	1.9861943
249	0x3fb6e8bd	1.4289776
250	0x3d743a53	0.059625935
251	0x401f9f5f	2.4941022
252	0xbf51bd6a	-0.8192965
253	0x3f6d4198	0.92678213
254	0xbf8e94c5	-1.1139151
255	0xbf5dfb19	-0.8671127

lstm.weight_ih_l0 f4 [8, 2]
0	0x3e7f39b2	0.24924353
1	0xbfcd3924	-1.6033063
2	0xbd7b8b9f	-0.06141245
3	0xbf3789b9	-0.71694523
4	0x3fc2b07f	1.5210112
5	0xbf6ca635	-0.9244111
6	0x40075033	2.11427
7	0xbe9da45c	-0.3078946
8	0x3f57e928	0.84340143
9	0xbf29cfc4	-0.6633265
10	0x3f6b2412	0.91851914
11	0x3e7e36e6	0.2482563
12	0xbf8a2c71	-1.0794812
13	0xbffe4319	-1.9864227
14	0xbf5f432a	-0.8721186
15	0xbf82c584	-1.0216527

lstm.weight_hh_l0 f4 [8, 2]
0	0x3f77e581	0.9683457
1	0x3ea120ba	0.3147028
2	0x3fab278b	1.3371443
3	0x3ed2736a	0.4110368
4	0xbeb67bf2	-0.35641438
5	0xbe3bf538	-0.18355262
6	0xbd3bbdb7	-0.045835223
7	0x3e6b1861	0.22958519
8	0xbd924a99	-0.071431346
9	0x3dcd5c96	0.10027425
10	0x3e2ffb91	0.17185809
11	0xbe87675f	-0.26446053
12	0xbfa6dd70	-1.3036327
13	0xbf2e8a28	-0.6817956
14	0x3df8da84	0.121510535
15	0xbec92277	-0.39284107

lstm.bias_ih_l0 f4 [8]
0	0x4015991d	2.3374703
1	0x40520a1f	3.2818677
2	0x3d7c1d74	0.061551526
3	0x3ed5fba4	0.4179355
4	0x3fbfbd23	1.4979595
5	0x3fd66aca	1.675134
6	0x4023c6ac	2.559001
7	0x400abdd5	2.1678364

lstm.bias_hh_l0 f4 [8]
0	0x40026641	2.037491
1	0x4017658d	2.3655732
2	0xbdee28da	-0.116288856
3	0xbf1c4b84	-0.6105273
4	0x3fe423e1	1.7823449
5	0x3fe0818a	1.7539532
6	0x3fd10fd9	1.6332961
7	0x402088da	2.5083528

fc_out.weight f4 [15345, 2]
0	0xc01ecf28	-2.4813938
1	0xc0358cee	-2.8367267
2	0xc0355693	-2.833409
3	0xc045ed54	-3.0926104
4	0xc05ffab5	-3.499677
5	0xc08c8bb3	-4.392053
6	0x3f393259	0.7234245
7	0x3f08dbfb	0.53460664
8	0x4028af0e	2.6356845
9	0x405623d4	3.3459368
10	0x40460915	3.0943043
11	0x3fbeadbf	1.4896773
12	0x40404518	3.0042171
13	0x401049dd	2.2545083
14	0x402cdbc4	2.7009134
15	0x4023c5f3	2.5589569
16	0x401d7ec5	2.4608624
17	0x401d913d	2.4619896
18	0x401d180f	2.4545934
19	0x4026452c	2.597972
20	0x4021dd7a	2.5291429
21	0x401ea5b7	2.4788644
22	0x400b8d68	2.1805058
23	0x401e6ec1	2.47551
24	0x4011d14e	2.2784
25	0x400279a8	2.0386753
26	0x40226021	2.5371172
27	0x401ea1c6	2.4786239
28	0x4011f533	2.2805908
29	0x4022632d	2.5373032
30	0x40121319	2.2824156
31	0x3fe305bc	1.7736125
32	0x3fd9a0be	1.700218
33	0x40033163	2.0498893
34	0x401bbb4b	2.4333065
35	0x3fbf4312	1.4942343
36	0x3ff43418	1.9078398
37	0x3fc4933b	1.5357431
38	0x3fbe3b69	1.486188
39	0x402b6bf2	2.6784635
40	0x401d12b7	2.4542673
41	0x3fce9585	1.613938
42	0x4004ea73	2.0768096
43	0x3fbcd8c3	1.475365
44	0x3fa961d3	1.3232979
45	0x401f24b6	2.4866157
46	0x3fe1e4ef	1.764799
47	0x3ffc2b61	1.9700738
48	0x3fcbd5e3	1.5924648
49	0x400c5838	2.1928844
50	0x40275c32	2.6150022
51	0x3ffbc20d	1.9668595
52	0x3ff58bbd	1.918327
53	0x3fc25d9e	1.518482
54	0x3fd91e43	1.696236
55	0x4007b61d	2.1204903
56	0x3fe4787d	1.784927
57	0x40072bfb	2.1120594
58	0x3ff40696	1.906451
59	0x3fe550b4	1.7915254
60	0x3ffcb53b	1.9742807
61	0x3ff55f69	1.9169742
62	0x40030253	2.0470169
63	0x3f822e71	1.0170423
64	0x3ffd4016	1.9785182
65	0x3fad46de	1.3537252
66	0x3fec69eb	1.8469824
67	0x3f770cd7	0.9650397
68	0x3fdba5ad	1.7159935
69	0x3fb2b6c4	1.3962026
70	0x3ff2f8ef	1.8982219
71	0x3fbcaecc	1.4740844
72	0x3f82c649	1.0216762
73	0x3fc69193	1.5513176
74	0x3fc7104d	1.555185
75	0x400d16f6	2.2045264
76	0x3f9a0de9	1.2035495
77	0x3fcc3331	1.5953122
78	0x3fee40ad	1.8613487
79	0x3f4c1c29	0.7973047
80	0x3f7698ce	0.9632691
81	0x3f94d182	1.1626437
82	0x3fe3b202	1.7788699
83	0x3faa2a4b	1.3294157
84	0x3fc33d5f	1.5253104
85	0x3ff55dd4	1.9169259
86	0x3f91d09b	1.1391786
87	0x3fd8a3c5	1.6924978
88	0x3f464501	0.7744904
89	0x3fdf996f	1.7468699
90	0x3fd4d942	1.6628802
91	0x3fa3537e	1.2759855
92	0x3fc66196	1.5498531
93	0x3fc8acc8	1.5677729
94	0x3ff088bc	1.8791728
95	0x3f92cddc	1.1469073
96	0x3fa0e0ad	1.2568566
97	0x3ff210ed	1.8911415
98	0x3fe3f3dc	1.7808795
99	0x3f7defc3	0.9919397
100	0x3fb2ba44	1.3963094
101	0x3f8cc6b0	1.0998135
102	0x3fd1bf19	1.6386443
103	0x3fdb3e28	1.7128344
104	0x3f95e7c5	1.1711355
105	0x3fe802c9	1.812585
106	0x3fe102f9	1.7579032
107	0x3fa3a7da	1.2785599
108	0x3fe5648c	1.792131
109	0x3f2877b1	0.65807635
110	0x3f5e11bd	0.86745816
111	0x3fb996c0	1.449913
112	0x3fdae0f7	1.7099904
113	0x3f9ba162	1.2158625
114	0x3f561794	0.8362973
115	0x3fcbc995	1.5920893
116	0x3fdfb129	1.747594
117	0x3faf85f9	1.371276
118	0x3fdd5bc8	1.7293634
119	0x3f048eff	0.51780695
120	0x3fc71e05	1.5556036
121	0x3f82f525	1.0231062
122	0x3fb819b2	1.4382842
123	0x3f9515cd	1.1647278
124	0x3f4de252	0.8042346
125	0x3f84e64d	1.0382782
126	0x3f88c652	1.0685523
127	0x3f56666f	0.8375005
128	0x3fc9ee4c	1.5775847
129	0x3f5c4e14	0.8605664
130	0x3fb1976c	1.3874335
131	0x3f89c4e4	1.0763211
132	0x3f86e546	1.0538719
133	0x3f9b5f8c	1.2138534
134	0x3f0d53d0	0.5520601
135	0x3fad19bd	1.352348
136	0x3fc7f77e	1.5622404
137	0x3fc662ef	1.5498942
138	0x3fab77d4	1.3395944
139	0x3f5b2f73	0.85619277
140	0x3f4ade0d	0.7924507
141	0x3fe17288	1.7613077
142	0x3fc10f6f	1.5082835
143	0x3fbdccd7	1.4828137
144	0x3fd74574	1.681807
145	0x3fd73568	1.6813173
146	0x3fa045ac	1.2521262
147	0x3f54b0d4	0.8308232
148	0x3f34e338	0.7065921
149	0x3fa058b1	1.2527066
150	0x3f623cfc	0.88374305
151	0x3fc6c5e0	1.5529137
152	0x3fa35311	1.2759725
153	0x3fa67df6	1.300719
154	0x3fbf4db6	1.494559
155	0x3fbdbe56	1.4823711
156	0x3f90605f	1.127941
157	0x3f99491c	1.1975436
158	0x3fb653bd	1.4244305
159	0x3f0015a7	0.5003304
160	0x3fa23d14	1.267489
161	0x3f3851c2	0.7199975
162	0x3fa1cfed	1.2641579
163	0x3f81f82d	1.0153862
164	0x3f2083bf	0.6270103
165	0x3fc5c338	1.5450201
166	0x3fa83265	1.3140379
167	0x3f54343a	0.8289219
168	0x3fa4dbf0	1.287962
169	0x3fb3c741	1.4045182
170	0x3fd7665e	1.6828115
171	0x3f8e9a86	1.1140907
172	0x3fccdcb2	1.6004851
173	0x3f608f98	0.87719107
174	0x3fa44306	1.2832954
175	0x3f90af38	1.1303473
176	0x3f517607	0.8182072
177	0x3fadd59c	1.3580813
178	0x3fc90938	1.5705938
179	0x3f128d58	0.57246923
180	0x3fcc3142	1.5952532
181	0x3f2302fb	0.6367642
182	0x3f700838	0.9376254
183	0x3f248730	0.6426878
184	0x3fc77b39	1.558448
185	0x3f49184c	0.785527
186	0x3f5e1614	0.8675244
187	0x3fa61301	1.297455
188	0x3f0b881d	0.5450457
189	0x3f8df2f1	1.1089765
190	0x3f6ac5e0	0.91708183
191	0x3fb13305	1.3843695
192	0x3f54aadf	0.8307323
193	0x3f594609	0.8487249
194	0x3ec2f442	0.3807698
195	0x3f92cead	1.1469322
196	0x3fa901e8	1.3203707
197	0x3f1cfc17	0.6132216
198	0x3f9b57a5	1.2136122
199	0x3ee59646	0.44841212
200	0x3f90705d	1.128429
201	0x3f4cf9bf	0.8006858
202	0x3fbf6fad	1.4955956
203	0xbd250312	-0.04028613
204	0x3fc57e8d	1.5429245
205	0x3fa23e58	1.2675276
206	0x3f87d6ff	1.0612487
207	0x3fae60cc	1.362329
208	0x3f81b3f8	1.0133047
209	0x3eb1caca	0.34725028
210	0xbd45e47e	-0.04831361
211	0x3f60b8ff	0.8778228
212	0x3f587de6	0.84567106
213	0x3fc7454a	1.556802
214	0x3eea63b5	0.45779195
215	0x3ebb6a23	0.36604413
216	0x3f220099	0.6328216
217	0x3f9de8be	1.2336652
218	0x3f334163	0.7002165
219	0x3f1ccbc2	0.6124841
220	0x3efac7ac	0.48980463
221	0x3f19e266	0.6011108
222	0x3f25d728	0.6478143
223	0x3f6a5988	0.91542864
224	0x3f6e0a62	0.9298459
225	0x3f4b8c26	0.79510725
226	0x3ebcaed9	0.36852148
227	0x3f4aa573	0.79158705
228	0x3f6af329	0.9177728
229	0x3f7105bd	0.9414938
230	0x3f2087e5	0.6270736
231	0x3f95dd99	1.1708251
232	0x3ecfe5d8	0.40605044
233	0x3f550173	0.83205336
234	0x3f8fb138	1.1225958
235	0x3e7ead42	0.2487078
236	0x3e8756cd	0.2643341
237	0x3f790fed	0.97289926
238	0x3f5169d2	0.81802094
239	0x3f442a14	0.76626706
240	0x3f8a8781	1.0822603
241	0x3f14e50b	0.5816199
242	0x3eee2e1d	0.46519557
243	0x3f197934	0.59950566
244	0x3f2cec92	0.6754848
245	0x3f7fdffa	0.99951136
246	0x3f5a2d3e	0.85225284
247	0x3fa586b7	1.2931737
248	0x3fa8ccbd	1.3187481
249	0x3f46ad8b	0.77608556
250	0x3fbb67a7	1.4641007
251	0x3f071f84	0.52782464
252	0x3eb12088	0.34595132
253	0x3f9392b5	1.1529146
254	0x3ef37508	0.47550225
255	0x3f8d9d40	1.1063614

fc_out.bias f4 [15345]
0	0xc0013275	-2.0187047
1	0xc046b4b6	-3.1047797
2	0xc021ccc1	-2.5281222
3	0x3f7526da	0.9576241
4	0x400c628c	2.1935148
5	0x402af192	2.6709943
6	0x3ff8b43e	1.9430006
7	0x3fe36d5d	1.776775
8	0x3ff85e4b	1.9403776
9	0x3fe9b5c0	1.8258591
10	0x3fdf7efd	1.7460629
11	0x3ff76e7b	1.9330591
12	0x3ffbf1e7	1.9683198
13	0x3fb16377	1.3858479
14	0x3fc160fa	1.510772
15	0x3fee9acf	1.8640994
16	0x40028105	2.0391247
17	0x3ff30578	1.8986044
18	0x400e3e0e	2.2225375
19	0x3fd4aac5	1.6614615
20	0x3fd66998	1.6750975
21	0x40057914	2.085515
22	0x3fd10e46	1.6332481
23	0x3fdde315	1.7334925
24	0x3fda4555	1.7052408
25	0x3f835b84	1.0262303
26	0x3feb20b7	1.8369359
27	0x3fba6278	1.45613
28	0x3fa51412	1.289675
29	0x3fa51514	1.2897058
30	0x3f95e6a1	1.1711007
31	0x3fe58e5d	1.7934071
32	0x3fc4c9d3	1.5374092
33	0x3fe97435	1.8238589
34	0x3fb3816a	1.4023869
35	0x3fa36a16	1.276675
36	0x3fe870c1	1.815941
37	0x3f632a64	0.8873656
38	0x3fd6c943	1.678017
39	0x3fc91a05	1.5711066
40	0x3fe357b5	1.7761141
41	0x3f9d5d0c	1.2294021
42	0x3f7194ef	0.9436788
43	0x3facc568	1.3497744
44	0x3fc48c68	1.5355349
45	0x3f9e2c60	1.2357292
46	0x3f8ac366	1.0840881
47	0x3f8eb0b7	1.1147679
48	0x3f73b365	0.9519561
49	0x3f93dee8	1.15524
50	0x3fb0b30f	1.3804644
51	0x3f475776	0.7786783
52	0x3f7b32db	0.98124474
53	0x3f6eef25	0.93333656
54	0x3f9bb6cb	1.2165159
55	0x3fa566d5	1.2922007
56	0x3f647f4e	0.8925675
57	0x3f85e777	1.0461262
58	0x3f475b6a	0.7787386
59	0x3fb7adc4	1.4349904
60	0x3f942c09	1.1575938
61	0x3f8ad99e	1.0847661
62	0x3face9ce	1.3508852
63	0x3fc94938	1.572547
64	0x3f95e76b	1.1711248
65	0x3f8eaebd	1.1147076
66	0x3fa3c982	1.279587
67	0x3fba676e	1.4562814
68	0x3f2454f5	0.64192134
69	0x3f99c844	1.2014241
70	0x3f8020ae	1.0009973
71	0x3f2724b3	0.65290374
72	0x3eb84f60	0.35998058
73	0x3f91e757	1.1398724
74	0x3f9ba7b2	1.2160552
75	0x3f601fde	0.87548625
76	0x3f54885f	0.83020586
77	0x3ea7a1d1	0.32740644
78	0x3f672918	0.9029708
79	0x3f9389b1	1.1526395
80	0x3f7255fa	0.9466244
81	0x3f333fe7	0.7001938
82	0x3f61f8cb	0.8827025
83	0x3f72fe18	0.94918966
84	0x3f09ad67	0.53780216
85	0x3ec5b67b	0.38615784
86	0x3f189002	0.5959474
87	0x3f185a95	0.5951322
88	0x3f4a3001	0.789795
89	0x3f0e5d8c	0.5561149
90	0x3f3ec485	0.74518615
91	0x3f70fdb3	0.94137114
92	0x3f2cd3cb	0.6751067
93	0x3f1c0241	0.6094094
94	0x3f788441	0.97076803
95	0x3f1a485f	0.6026668
96	0x3f469e6d	0.7758549
97	0x3f82de5b	1.0224108
98	0x3f3ed1ea	0.74539053
99	0x3f7112b4	0.94169164
100	0x3f5f4b98	0.8722472
101	0x3f83bdc6	1.0292289
102	0x3e1f920e	0.15583059
103	0x3edcccb6	0.43124932
104	0x3f9a0668	1.2033205
105	0x3f9320e6	1.1494415
106	0x3e7f6cf7	0.2494391
107	0x3fa24a17	1.267886
108	0x3f332bf2	0.6998893
109	0x3f91b016	1.1381862
110	0x3f8d4bce	1.1038759
111	0x3f6706a1	0.9024449
112	0x3f524b43	0.8214609
113	0x3f6f5a7d	0.9349745
114	0x3f2093bf	0.6272544
115	0x3f15ec52	0.5856372
116	0x3f675067	0.9035706
117	0x3f72cbdd	0.9484232
118	0x3f76354f	0.9617509
119	0x3f3c0948	0.7345166
120	0x3f0cb529	0.5496393
121	0x3f861158	1.0474043
122	0x3f4631c5	0.7741969
123	0x3e63b4dd	0.22236963
124	0x3ece0a4d	0.40242234
125	0x3ef0758a	0.46964675
126	0x3f4fdb73	0.8119423
127	0x3f494fe0	0.78637505
128	0x3f18bb64	0.59660935
129	0x3eabaa0d	0.33528176
130	0x3e567d31	0.20946194
131	0x3f34add7	0.7057776
132	0x3f6ace3e	0.9172095
133	0x3f1ffa78	0.6249156
134	0x3f38fa86	0.7225727
135	0x3e75ac16	0.23991427
136	0x3f64bb7f	0.89348596
137	0x3eaff4c8	0.3436644
138	0x3e36f81c	0.17868084
139	0x3f5a07cb	0.8516814
140	0x3f16153e	0.58626163
141	0x3f5b8bff	0.8576049
142	0x3f87b3e9	1.0601779
143	0x3eeac842	0.4585591
144	0x3f18d4c8	0.5969968
145	0x3e41244f	0.18861507
146	0x3f28137a	0.6565472
147	0x3f704e4a	0.9386946
148	0x3f97eb9d	1.1868778
149	0x3e98f6ed	0.2987589
150	0x3f5278fa	0.82215846
151	0x3f91659c	1.1359134
152	0x3f2674eb	0.6502215
153	0x3f261002	0.64868176
154	0x3ee328f7	0.4436719
155	0x3f78cfd0	0.97192097
156	0x3f3b74d2	0.7322513
157	0x3f1ac43a	0.6045567
158	0x3f4a1ba4	0.78948426
159	0x3f158d47	0.584187
160	0x3edc49f6	0.43025178
161	0x3f6f05e6	0.93368375
162	0x3f6d52c4	0.92704415
163	0x3f1c5707	0.61070293
164	0x3f22c8ce	0.63587654
165	0x3f9aa1cc	1.2080626
166	0x3ebf8843	0.37408647
167	0x3e9a2652	0.3010736
168	0x3f6439ef	0.891509
169	0x3f208f6b	0.6271884
170	0x3f3efad3	0.7460148
171	0x3e087f0a	0.13329712
172	0x3e8f0ad6	0.27937955
173	0x3e91bdf6	0.2846524
174	0x3f8d89e6	1.1057708
175	0x3f0024f8	0.5005641
176	0x3f61e479	0.88239247
177	0x3f866a3b	1.0501169
178	0x3f68d13a	0.90944254
179	0x3f71adac	0.9440563
180	0x3eb49caa	0.35275775
181	0x3f7bdb74	0.98381734
182	0x3eb87e44	0.36033833
183	0x3f465b00	0.77482605
184	0x3db5cc7d	0.08876894
185	0x3e7f6d40	0.2494402
186	0x3e9d06dc	0.30669296
187	0x3e2dd8d0	0.16977239
188	0x3f750435	0.95709544
189	0x3f1c0bdf	0.60955614
190	0x3f8f6a4a	1.1204312
191	0x3ee65487	0.44986364
192	0x3f84256d	1.0323921
193	0x3f4706ae	0.7774457
194	0x3f508577	0.8145365
195	0x3e09bf88	0.1345197
196	0x3db098f7	0.08622926
197	0x3ee2adf9	0.44273356
198	0x3e12f6be	0.14351937
199	0x3f3a8a0a	0.7286688
200	0x3f0abf03	0.5419771
201	0x3f6ffa1c	0.9374101
202	0x3f4ddf18	0.8041854
203	0x3d495d8e	0.049161486
204	0x3dec0e12	0.11526121
205	0x3efde1a3	0.4958621
206	0x3f4969da	0.7867714
207	0x3f690b39	0.9103275
208	0x3e22a91f	0.15884827
209	0xbda2dc94	-0.07952228
210	0x3f2b0ba6	0.6681465
211	0x3e9c248f	0.30496642
212	0x3f508f69	0.81468827
213	0x3eede84d	0.46466294
214	0x3f8c8c9d	1.0980412
215	0x3f58eb84	0.8473437
216	0x3f295724	0.6614859
217	0x3f8477e2	1.0349085
218	0x3e95c1cc	0.29249418
219	0x3f293e93	0.66111106
220	0x3f444299	0.7666412
221	0x3ef155e9	0.47135857
222	0x3e74b458	0.2389692
223	0x3f7c4244	0.98538613
224	0x3d1d4ed9	0.038405273
225	0x3f624df7	0.88400215
226	0x3de38f28	0.11111289
227	0x3d9d0e4c	0.076687425
228	0x3f07e05e	0.5307673
229	0x3e8335b7	0.2562692
230	0x3f3fcef0	0.74925137
231	0x3f8540ab	1.041036
232	0x3f3c5525	0.7356742
233	0x3f413bec	0.7548206
234	0x3f084098	0.5322356
235	0x3f3dfe0c	0.7421577
236	0x3eba043d	0.3633136
237	0x3f479159	0.7795616
238	0x3d6faacf	0.058512505
239	0x3f141b9a	0.57854617
240	0x3ecbd0c9	0.39807728
241	0x3f84c03d	1.0371166
242	0x3f0d5a16	0.55215585
243	0x3e2ce40a	0.16883865
244	0x3ebf3a75	0.37349287
245	0x3f4f592f	0.8099546
246	0x3ec0c9fe	0.37654108
247	0x3e2e5f75	0.17028601
248	0x3ec52d73	0.38511238
249	0x3ea1beb1	0.31590798
250	0x3f219899	0.6312347
251	0xbc84957b	-0.01618456
252	0x3e0d4670	0.13796401
253	0x3ece8c49	0.40341404
254	0x3ebced85	0.36899963
255	0x3e4fd492	0.20295933
