experiments/lstm_h2_l1_20241123_232347/final_model.pth (torch, 310775 bytes, 7 tensors)

embedding.weight f4 [15345, 2]
000000 80 ed 99 bf 13 0a 94 3e 2e 80 04 bf 5e 56 68 3f
       -1.2025604 0.28913936 -0.51758087 0.90756786
000010 11 f3 98 bf 26 fb 59 bf d8 21 88 bf 80 0b be be
       -1.1949178 -0.8514885 -1.0635328 -0.3711815
000020 a4 76 86 3f 2c 62 8a bf 15 1a d8 3f d5 60 18 c0
       1.0504956 -1.081121 1.688296 -2.3809102
000030 fe 11 f7 3f b0 85 c1 bf 0d ab 4a bf 8d 23 01 c0
       1.9302366 -1.5118923 -0.7916725 -2.0177948
000040 1b 50 d9 bf b0 9a 28 c0 30 b1 42 40 45 23 11 bf
       -1.6977571 -2.6344414 3.0420647 -0.5669444
000050 83 c4 51 40 cc 80 2a bf 4b 94 80 3f 26 50 fc bf
       3.2776191 -0.6660278 1.0045255 -1.9711959
000060 07 73 b4 3f e8 78 1f c0 aa 6a 26 3f 86 d0 0a c0
       1.4097604 -2.4917545 0.65006506 -2.1689773
000070 29 53 05 40 d9 45 bb bf a0 d9 ff 3f 82 ed 00 c0
       2.0832007 -1.4630691 1.9988289 -2.0144963
000080 56 ab 36 c0 61 64 b5 3f 60 66 39 bf e1 d9 8b be
       -2.8542075 1.4171258 -0.72421837 -0.27314666
000090 77 c0 9e 3e 2c 6a fb be 81 7c 44 bf b7 37 34 c0
       0.31006214 -0.4910444 -0.7675248 -2.8159006
0000a0 8f ae e6 3f 97 83 04 c0 cd 46 0a 3f f9 29 5b bf
       1.8022021 -2.0705316 0.54014283 -0.8561092
0000b0 94 b3 ad 3f e9 a4 12 c0 d1 1b 10 c0 22 3f 04 40
       1.3570428 -2.2913153 -2.2516978 2.0663533
0000c0 71 ef dd bf d7 c3 71 3f b2 93 e6 3e e3 6d 23 be
       -1.7338697 0.9443945 0.45034558 -0.15959887
0000d0 90 06 b7 be b3 9c 71 c0 4c 05 5c be 76 5f 70 bf
       -0.35747194 -3.7751892 -0.21486396 -0.9389566
0000e0 29 d9 c6 3e 88 45 00 c0 f7 71 cb 3e 33 e8 be bf
       0.38837555 -2.0042439 0.39735386 -1.4914612
0000f0 4a 7e c7 3f 3c d4 1e c0 e5 51 38 40 dc b9 22 bf
       1.5585415 -2.4817038 2.8799984 -0.6356485
000100 4c 29 f0 3e 25 71 00 c0 8a c3 95 be 89 da 0e 3f
       0.46906507 -2.0069058 -0.29250747 0.5580221
000110 6d fc 65 3f 4f 90 53 c0 e6 58 96 bf 98 40 eb 3f
       0.89838296 -3.305683 -1.174588 1.8379087
000120 04 70 39 bf 78 31 2b c0 2a 33 f8 3f ae fd 75 be
       -0.7243655 -2.6748943 1.9390614 -0.24022552
000130 1b 32 19 40 88 f5 a0 bf 41 c6 8a 3f 66 39 cd bf
       2.3936832 -1.257493 1.0841752 -1.6033142
000140 5b 55 d9 3f f7 6c c6 bf 85 09 03 40 34 ce 3f c0
       1.6979173 -1.5502003 2.047456 -2.9969606
000150 47 6a e2 3f 06 da 00 c0 c3 4c 16 3d 00 e5 3e 3f
       1.7688683 -2.013307 0.0366943 0.74568176
000160 cc e1 91 be a1 0e 5e bf 7b e5 98 3f 1c ba ae bf
       -0.28492582 -0.8674107 1.1945032 -1.3650546
000170 2f 69 e1 be 53 24 b1 bc df 5d bc bf 6e 23 07 bf
       -0.4402556 -0.021623766 -1.4716147 -0.52788436
000180 4e de b7 3e 9c 55 10 3f 24 e2 a6 bf 58 19 c6 ba
       0.35911793 0.5638063 -1.3037763 -0.0015113754
000190 a3 ad 4a bf 1b 66 62 3f 37 4f e0 3f d6 78 a2 be
       -0.791712 0.8843705 1.7524174 -0.31732816
0001a0 27 b6 df 3f 73 a0 0f bf b5 6a 1b 40 a4 d2 6b bf
       1.7477463 -0.561042 2.4283879 -0.9211829
0001b0 53 ff d5 bf a0 93 c7 bf 78 89 89 3f 9c 17 2b c0
       -1.6718544 -1.5591927 1.0745077 -2.673316
0001c0 2a 52 d9 be bd a8 1a 3f 5c 7b c2 bf c0 7e b2 3e
       -0.424455 0.60413724 -1.5193896 0.34862328
0001d0 3d 9f ff 3f b6 d2 17 c0 be 26 e3 bf 74 92 cf bf
       1.9970471 -2.3722358 -1.7746198 -1.6216569
0001e0 90 a4 a2 bf cb e1 b6 bf 3f 21 c7 3e 09 8d 89 be
       -1.270647 -1.4287657 0.38892552 -0.26865414
0001f0 0a d5 88 3e de ad c9 3f eb 51 f9 3f 6a 1a 8d 3d
       0.26725036 1.5756185 1.9478124 0.06889804
000200 05 5d a7 bf 65 e8 0d be e4 18 07 3f ca d0 ab bd
       -1.3075262 -0.13858183 0.52772355 -0.08389433
000210 77 7b a6 3e 2d d5 5c c0 f5 81 a6 3f 3a b4 da bf
       0.3251607 -3.4505112 1.300841 -1.7086251
000220 10 0b cd bf 5b 62 01 40 69 ae 73 bf 96 2b 96 3f
       -1.6019001 2.0216281 -0.95188004 1.1732051
000230 4c b6 37 bf 4d ed a7 3f 1f 7f 02 ba c6 d1 0c c0
       -0.7176254 1.3119293 -0.0004978049 -2.2003036
000240 96 0d 14 c0 7d a4 26 bf 8f f5 2c 3f 87 51 41 bf
       -2.3133292 -0.6509474 0.6756219 -0.75515026
000250 11 3e d6 bf 81 43 3c bf d9 65 aa 3e 06 e1 34 bf
       -1.6737691 -0.735405 0.3328083 -0.7065586
000260 2b e0 7a bf ae 66 9f 3e 66 ef 31 bd 29 dc 8c be
       -0.97998303 0.31133026 -0.0434412 -0.2751172
000270 36 88 27 40 a6 28 76 bf 03 32 89 bf 62 2f bc 3f
       2.6176887 -0.96155775 -1.0718387 1.470196
000280 8c ad 2e 3f 12 5c ac 3e 95 10 05 be 92 9e 3e 3e
       0.6823356 0.33663994 -0.12994607 0.18615177
000290 22 ef 7a be 5d f4 03 40 91 d1 2f c0 42 d8 92 bf
       -0.24505284 2.0617898 -2.747166 -1.1472247
0002a0 21 e8 06 40 09 39 09 c0 00 8e 12 c0 1f f7 e4 3f
       2.107918 -2.1441061 -2.289917 1.7887915
0002b0 5e e8 48 bf db 3f 2f 3d 83 d6 b9 3f fb 48 80 bf
       -0.78479564 0.042785507 1.4518589 -1.0022272
0002c0 98 07 65 bf 36 6b 0b bd d3 84 49 3f 2f b9 90 3e
       -0.8946471 -0.03403779 0.787183 0.28266284
0002d0 45 08 54 bf 95 08 ae 3f 87 27 51 bf fd 02 6d bf
       -0.8282512 1.3596369 -0.8170094 -0.92582685
0002e0 7c ab 3d c0 83 26 a2 3f 9f 97 75 bf d3 8c ab bf
       -2.9635916 1.2668003 -0.9593448 -1.3402351
0002f0 b6 0b e4 bf cd 9c 59 bf 5f 72 c3 3f 8d 89 f4 be
       -1.7816074 -0.85004884 1.5269278 -0.47761193
000300 56 94 33 be 42 d9 d6 bd 87 70 2c bf 3b 79 ac be
       -0.17537054 -0.104906574 -0.67359203 -0.33686242
000310 5c 81 ac 3e 2b bd e0 3f bd e6 84 bf 6e c2 d5 be
       0.33692443 1.755773 -1.0382916 -0.417499
000320 4e 05 d3 3e 79 d9 7e bf 71 74 ee be c3 54 19 3f
       0.41214985 -0.99550587 -0.46573213 0.5989496
000330 be 94 87 bf 05 00 f1 bf 9d d3 02 c0 c6 bb f1 bf
       -1.0592268 -1.8828131 -2.0441658 -1.8885429
000340 4e 24 4b bf e5 85 31 3f 2a f8 3a bf af 35 24 3f
       -0.7935227 0.6934493 -0.7303492 0.64144415
000350 ec 1e 8c be ca 28 7d bf d9 6d 3d c0 21 e1 ab bf
       -0.27367342 -0.98890364 -2.9598296 -1.3428079
000360 e3 4e c9 bf 07 f0 44 3e 45 77 c9 bf 06 4d e5 3f
       -1.5727199 0.19232188 -1.5739523 1.7914131
000370 d8 dd b8 3e c6 e7 12 c0 42 38 46 3f d8 e6 0c 40
       0.36106753 -2.2953963 0.7742959 2.2015896
000380 ad 13 56 be 72 38 b1 bf 71 e2 ae be 18 f5 17 bf
       -0.20905943 -1.3845351 -0.34157136 -0.5935836
000390 84 3f b7 3d 88 48 82 bf 00 bb 9c 3f 78 15 57 3e
       0.089476615 -1.0178385 1.2244568 0.21004283
0003a0 c8 59 7a bf 50 c4 f7 3d ba 90 be be d3 67 95 be
       -0.97793245 0.120979905 -0.37219793 -0.29180774
0003b0 4d c2 90 3e 53 b1 d9 bf 7e b0 7c bf ad 75 5d be
       0.2827324 -1.700724 -0.98706806 -0.21626921
0003c0 30 b4 73 bf 03 4e a9 3f 74 56 3c bb 04 1d 3b 3e
       -0.9519682 1.3226932 -0.0028738054 0.18272787
0003d0 7a 90 e1 3f b6 c9 ae bf 26 f4 a0 3f 53 b4 c1 bf
       1.7622216 -1.3655307 1.2574508 -1.5133156
0003e0 42 c5 8e 3f 10 bb 8b bf cb f6 67 3f 69 05 f4 bf
       1.1153948 -1.0916462 0.9061095 -1.9064151
0003f0 0f 91 cf 3e ed b9 ec be 1a 4e d1 bf dd 46 fe bf
       0.40540358 -0.462356 -1.635196 -1.9865376

lstm.weight_ih_l0 f4 [8, 2]
000000 3d d5 ed bf 4e f0 8e 3f ee ee 82 bf 74 6c b7 3e
       -1.85807 1.1167085 -1.0229166 0.3582493
000010 4d cc be bf ba f9 ce 3f 7a a0 bd bf ca 6c b0 3f
       -1.4906098 1.616996 -1.4814599 1.37832
000020 03 73 38 3f 63 14 41 bf 22 08 91 3e ad 19 25 be
       0.72050494 -0.7542173 0.28326517 -0.16123076
000030 92 83 cd bf ad 81 8c 3f 3f 4a 5d bf 62 f7 d4 3e
       -1.6055777 1.0977074 -0.86441416 0.41594988

lstm.weight_hh_l0 f4 [8, 2]
000000 68 62 51 3f d8 f5 91 3e 65 c6 40 3e b1 3c d2 3e
       0.8179078 0.28507876 0.18825682 0.4106193
000010 84 ea 55 3f 49 fd 53 3e 3e e5 5b 3f 65 76 05 3f
       0.8356097 0.2070209 0.8589667 0.5213378
000020 db 0c 09 3f 37 bb 8d be dd 9c 42 3e 3f 84 eb 3e
       0.5353524 -0.27681896 0.19005151 0.45999333
000030 7a af bb be 4e c9 81 bf 07 c5 92 bf 21 f3 c9 bf
       -0.36657315 -1.0139558 -1.1466378 -1.5777322

lstm.bias_ih_l0 f4 [8]
000000 fd 4c 0d 40 a6 54 1f 40 53 21 20 3e 85 ba 67 bf
       2.207824 2.4895415 0.15637712 -0.9051898
000010 f8 1d d6 bf cc 57 1f c0 5b a5 eb 3f ee ff 4b 40
       -1.6727896 -2.4897337 1.8409837 3.1874957

lstm.bias_hh_l0 f4 [8]
000000 79 10 0a 40 69 84 33 40 6e c5 dd be 5b 1a 10 bf
       2.1572554 2.8049567 -0.4331469 -0.56290215
000010 88 be fb bf 56 b8 9b bf 2b 14 2b 40 d2 26 0e 40
       -1.966752 -1.216563 2.673106 2.2211194

fc_out.weight f4 [15345, 2]
000000 25 5f 22 40 d8 8e 77 40 67 a4 47 40 a4 28 82 40
       2.5370572 3.8680935 3.1194093 4.067461
000010 cc e0 21 40 37 e1 73 40 85 bd 75 bf 89 31 e0 be
       2.5293455 3.810621 -0.9599231 -0.43787792
000020 6e 03 43 c0 95 1f 3b c0 78 02 32 c0 a2 e0 1e c0
       -3.0470843 -2.9238026 -2.7814007 -2.4824605
000030 58 76 19 c0 30 41 0c c0 b8 15 33 c0 16 6c 2b c0
       -2.3978481 -2.1914787 -2.7982006 -2.678472
000040 93 4e 2b c0 a8 15 15 c0 e1 a8 28 c0 75 29 1e c0
       -2.6766708 -2.3294468 -2.6353076 -2.4712803
000050 35 be 0a c0 0e 6a 0c c0 9b 91 39 c0 77 1e db bf
       -2.1678593 -2.193973 -2.899512 -1.7118672
000060 3f 9e 16 c0 98 fd ea bf 9b be 17 c0 5d 8d 00 c0
       -2.3534086 -1.8358641 -2.3710086 -2.0086281
000070 d5 84 00 c0 aa 03 ee bf 7b a8 1c c0 4d fc 05 c0
       -2.0081074 -1.8594868 -2.4477832 -2.0935242
000080 10 df 31 c0 6e a0 ef bf 96 5b 28 c0 5c 1f 05 c0
       -2.7792397 -1.8720834 -2.63059 -2.080039
000090 16 e5 00 c0 45 10 0f c0 0f 26 d7 bf bd 02 0f c0
       -2.0139823 -2.235368 -1.680849 -2.2345421
0000a0 0b 2c 31 c0 16 54 c3 bf 9e 57 25 c0 a2 93 d0 bf
       -2.7683132 -1.5260036 -2.5834727 -1.6295054
0000b0 42 be 1d c0 cd 9f b5 bf 02 4e f0 bf 4f 9c 13 c0
       -2.4647374 -1.4189392 -1.8773806 -2.3064153
0000c0 4e 7d 0d c0 ad 01 df bf 7c d2 0a c0 76 0f f3 bf
       -2.210773 -1.7422386 -2.169097 -1.8989093
0000d0 90 2d cd bf 56 11 e3 bf a3 3c ed bf b7 61 ad bf
       -1.602953 -1.7739666 -1.853413 -1.3545445
0000e0 af 9e f1 bf b5 d0 e4 bf 64 2d 80 bf e1 17 03 c0
       -1.8876551 -1.7876192 -1.0013852 -2.0483325
0000f0 2a 09 17 c0 fa ab ba bf ea 92 b5 bf be db f8 bf
       -2.3599343 -1.4583733 -1.418546 -1.944206
000100 dd 95 15 c0 18 ab bb bf 2a ce f1 bf 85 8e a8 bf
       -2.337272 -1.4661589 -1.8891041 -1.3168494
000110 af f8 d3 bf 6a 95 a3 bf fd 30 bb bf ba 2a c8 bf
       -1.6560267 -1.2779973 -1.4624325 -1.5638039
000120 0d c7 0b c0 8f e9 b2 bf 2e fd e4 bf 68 35 85 bf
       -2.184024 -1.3977526 -1.7889764 -1.0406923
000130 c7 d1 8f bf 39 94 ea bf 27 e9 55 bf 55 33 ef bf
       -1.1235894 -1.8326484 -0.8355889 -1.868754
000140 8a 06 ca bf 18 b8 a1 bf ba c0 a4 bf 96 d9 8e bf
       -1.5783246 -1.2634306 -1.2871315 -1.1160152
000150 55 f2 9c bf 1d dd c9 bf 4d ce bc bf 42 bc 05 c0
       -1.2261454 -1.5770603 -1.4750458 -2.0896153
000160 ac b0 fe bf fb db 51 bf 75 21 02 c0 aa 3b bf bf
       -1.9897666 -0.8197629 -2.033292 -1.4940083
000170 87 04 e1 bf de b9 94 bf 75 fd 03 c0 e0 b9 6b bf
       -1.7579507 -1.1619222 -2.0623448 -0.920805
000180 06 79 9f bf 48 a0 b3 bf 68 fe 9c bf 93 fe 01 c0
       -1.2458808 -1.4033289 -1.2265139 -2.031163
000190 fa 0f 96 bf c4 2b c8 bf f6 df ce bf 42 92 95 bf
       -1.1723626 -1.5638356 -1.6162097 -1.1685259
0001a0 1b 11 c5 bf 00 7d 52 bf 10 6f 8c bf 3a 3b 94 bf
       -1.5395845 -0.82221985 -1.0971394 -1.1580575
0001b0 dc 3d c3 bf 34 03 39 bf cc 31 f9 be 56 f4 c9 bf
       -1.5253253 -0.7227051 -0.48670805 -1.577769
0001c0 3b 3f d8 bf a8 49 b7 bf 6f fb 98 bf cb 35 cd bf
       -1.6894296 -1.4319353 -1.1951731 -1.6032041
0001d0 aa 39 ba bf 4d 90 3e bf 7a 98 f9 bf d9 52 99 bf
       -1.4548848 -0.74438936 -1.9499657 -1.1978408
0001e0 59 81 b8 bf 75 9c 8a bf 83 30 b7 bf 99 4e cf bf
       -1.4414474 -1.0828997 -1.431168 -1.6195861
0001f0 c6 3b 6b bf e9 58 45 bf 84 9d e4 bf 09 a8 95 bf
       -0.9188808 -0.7708879 -1.786057 -1.1691905
000200 21 2d be bf 98 41 99 bf 7b ea a9 bf ab fd a2 bf
       -1.4857522 -1.1973143 -1.3274683 -1.2733663
000210 26 42 b4 bf 38 cc f8 bf 91 05 b8 bf 9e 6d ac bf
       -1.4082687 -1.9437323 -1.4376699 -1.3470953
000220 de 56 f3 bf dd 2b 45 bf af f2 c2 bf b7 31 6b bf
       -1.9010885 -0.77020055 -1.5230311 -0.91872734
000230 91 1f 02 c0 47 ee 4e bf 57 1c 8d bf 67 50 a7 bf
       -2.0331767 -0.8083233 -1.1024274 -1.3071412
000240 3c e6 9f bf 24 35 a6 bf 9c 66 ce bf ca bc 78 bf
       -1.2492137 -1.2984967 -1.6125064 -0.9716307
000250 ef 69 9e bf 0b 31 91 bf a0 85 d3 bf 23 6e 40 bf
       -1.2376078 -1.1343092 -1.6525154 -0.75168055
000260 6a d9 31 bf a5 fa bf bf 0d 0f 92 bf 03 9b 80 bf
       -0.6947237 -1.4998366 -1.1410843 -1.0047306
000270 a6 a7 48 bf 0e 7b 8e bf b3 02 e1 bf 8d 71 b7 be
       -0.7838081 -1.1131303 -1.7578949 -0.3582882
000280 56 06 0f bf a0 70 41 bf 6e 6a 58 bf 0c d1 41 bf
       -0.5586904 -0.7556248 -0.845374 -0.75709605
000290 28 61 96 bf ff d4 75 bf 40 eb c3 bf 42 0f 60 bf
       -1.17484 -0.9602813 -1.5306168 -0.8752328
0002a0 1f 2f 9e bf 9d 58 38 bf c8 74 75 bf 27 6d 42 bf
       -1.235813 -0.72010213 -0.9588132 -0.75947803
0002b0 f1 22 c9 bf b0 02 a7 bf 1a 31 ab bf 02 43 38 be
       -1.5713788 -1.3047695 -1.337436 -0.17994311
0002c0 3c 9f a6 bf 3d 8f 08 bf 15 5b c8 bd b4 78 31 bf
       -1.3017344 -0.53343564 -0.097829975 -0.69324803
0002d0 d9 2a 88 bf dd 47 92 bf 0a 28 35 bf b6 18 a1 bf
       -1.0638076 -1.1428181 -0.7076422 -1.2585666
0002e0 bf ae 95 bf 17 26 96 bf 7c 8e 1b bf 7c 09 62 bf
       -1.1693953 -1.1730374 -0.6076429 -0.8829572
0002f0 2c 15 0a bf 48 b3 b4 bf b7 46 9e bf 5f a1 62 bf
       -0.53938556 -1.4117212 -1.236533 -0.8852748
000300 51 05 1e bf 93 de 46 bf 61 c4 b0 bf 81 37 81 bf
       -0.6172686 -0.7768337 -1.380993 -1.0095063
000310 b3 91 8f bf 0c 2a 98 bf 9e aa 64 bf a7 1c b2 bf
       -1.1216339 -1.1887832 -0.8932284 -1.3914994
000320 8d c0 8f bf d9 e0 00 bf 85 17 59 bf 78 ea b2 bf
       -1.1230637 -0.5034309 -0.8480151 -1.3977804
000330 5d cf a4 bf c7 07 aa bf cb d2 9c bf bf 46 78 bf
       -1.2875782 -1.3283623 -1.2251829 -0.9698295
000340 1d 73 9f bf 31 69 41 bf 93 35 be be c8 43 36 bf
       -1.2457005 -0.75551134 -0.3715025 -0.71197176
000350 dc 8d 5c bf 61 54 81 bf b2 00 03 3c fa 67 ab bf
       -0.8615396 -1.0103875 0.007995771 -1.3391106
000360 34 23 c4 bf 87 47 42 be be c9 48 bf b9 4b 7f bf
       -1.5323243 -0.18972598 -0.78432834 -0.9972492
000370 f3 57 6a bf 1e 07 10 be c5 5f 90 bf 8a 33 1c bf
       -0.9154045 -0.14065215 -1.1279227 -0.6101614
000380 ce c7 d8 bf 1c b8 6d bf 7b 9c 1d 3e 30 26 c5 bf
       -1.6935976 -0.92859054 0.15391724 -1.5402279
000390 40 61 c1 bf 6f bc 03 bf 5e e5 1c bf 13 3e 50 bf
       -1.5107803 -0.514594 -0.61287487 -0.8134472
0003a0 ba df 2c bf 0b 59 03 bf 86 c6 76 be 54 ef 97 bf
       -0.6752888 -0.51307744 -0.24099168 -1.1869912
0003b0 17 d0 90 bf 29 fe 9c bf 47 73 c2 be 55 30 89 bf
       -1.1313504 -1.2265064 -0.37978575 -1.0717875
0003c0 6d 64 87 bf 61 54 0f bf 4c 56 7d bf cf 68 81 bf
       -1.0577523 -0.55988127 -0.98959804 -1.011011
0003d0 7a c7 46 bf bc 16 b0 bf 96 4d 9f be 25 73 5e bf
       -0.7764813 -1.3756938 -0.3111388 -0.86894447
0003e0 b7 a6 64 bf df 4f a7 be 90 23 85 bf ba a7 96 bf
       -0.89316887 -0.32678124 -1.0401478 -1.1769936
0003f0 e7 0e 99 bf eb 32 54 bf be a9 c4 bf 18 0e 58 bf
       -1.1957673 -0.82890195 -1.5364301 -0.84396505

fc_out.bias f4 [15345]
000000 a5 9f 0e c0 93 99 24 c0 43 b8 20 c0 3c ed 80 3f
       -2.228494 -2.5718734 -2.5112464 1.0072398
000010 0a 78 11 40 aa 3a 0e 40 61 40 21 40 d6 e3 d8 3f
       2.2729516 2.2223306 2.5195544 1.694453
000020 cd 2a f4 3f d0 3b ec 3f 20 b8 13 40 c9 04 04 40
       1.9075562 1.8455753 2.308113 2.062792
000030 94 19 07 40 a9 73 f3 3f 8b 8f 13 40 8c 36 d0 3f
       2.1109362 1.9019672 2.3056362 1.6266646
000040 09 ac ba 3f de c6 b6 3f b5 3b d3 3f d8 10 f4 3f
       1.4583751 1.427944 1.6502596 1.906764
000050 90 80 d6 3f 69 f7 d0 3f 91 1a e3 3f 91 8f b4 3f
       1.6757984 1.6325504 1.7742482 1.4106313
000060 2c 85 d3 3f 33 2f c0 3f 10 2b f7 3f c5 83 02 40
       1.6525016 1.5014404 1.9310017 2.0392926
000070 c7 6e cb 3f 0c 48 e8 3f 6a fb ab 3f 16 9d cb 3f
       1.5893182 1.8146987 1.34361 1.5907314
000080 90 c3 a6 3f 5b 69 d1 3f fd 66 dd 3f f9 96 cb 3f
       1.3028431 1.6360277 1.7297055 1.5905448
000090 1c a0 9a 3f e6 b7 d6 3f b2 e0 c4 3f fa 47 c9 3f
       1.2080112 1.6774871 1.5381072 1.572509
0000a0 73 ab b9 3f a6 67 eb 3f 0e 44 c0 3f 87 f4 75 3f
       1.4505447 1.8391006 1.5020769 0.96076244
0000b0 90 57 be 3f 54 92 68 3f 7d 7b b5 3f 4a d0 a1 3f
       1.4870472 0.9084828 1.4178311 1.264169
0000c0 f1 7a b7 3f 99 bc 5c 3f 8f 11 a7 3f 2b 9c a3 3f
       1.4334394 0.8622528 1.3052233 1.2782034
0000d0 74 02 c1 3f a7 68 c3 3f e9 e0 bc 3f 6c 6f b6 3f
       1.5078874 1.5266312 1.4756137 1.4252753
0000e0 c1 99 6c 3f 22 15 5e 3f dc b0 cd 3f 2c 73 4d 3f
       0.9242211 0.86750996 1.6069598 0.80253863
0000f0 0e 92 9d 3f a5 f2 42 3f e5 f6 be 3f ba 30 72 3f
       1.2310197 0.76151496 1.4919096 0.946056
000100 4b e2 90 3f a7 ba 8e 3f 39 97 13 3f d0 bf 62 3f
       1.1319059 1.1150712 0.5765262 0.8857393
000110 2f 35 87 3f 62 78 8a 3f e8 e9 70 3f dd 06 92 3f
       1.0563105 1.0817988 0.9410691 1.1408345
000120 bb 9b 80 3f 75 e6 80 3f dd b9 8c 3f 59 ff 89 3f
       1.0047525 1.007033 1.0994221 1.0781051
000130 1c d8 8d 3f 79 a1 88 3f ad 35 ac 3f b4 86 a2 3f
       1.1081576 1.0674278 1.345388 1.2697358
000140 d3 a6 a4 3f 0e 2e a4 3f 6f 19 8d 3f 46 92 77 3f
       1.2863411 1.2826555 1.1023387 0.9670757
000150 13 14 95 3f b6 58 a3 3f 33 c4 06 3f fc 2b b8 3f
       1.1646751 1.2761447 0.52643126 1.4388423
000160 4c 45 90 3f 71 75 c4 3f e1 ba 5b 3f a8 ad 4a 3f
       1.1271148 1.534834 0.8583203 0.7917123
000170 0f 18 3e 3f e4 99 93 3f 4e c1 4b 3f b1 db 57 3f
       0.7425546 1.1531339 0.79591835 0.843196
000180 cf 95 7d 3f b1 fd 19 3f b5 09 00 3f 50 36 ed 3e
       0.99056715 0.6015273 0.5001481 0.463305
000190 d4 7a 96 3f 3e ab ef 3e 99 00 ac 3e 8f f1 21 3f
       1.1756234 0.46810335 0.33594206 0.63259214
0001a0 d2 9d 51 3f 44 8f 90 3f 6f 65 49 3f 18 3c 87 3f
       0.8188144 1.1293721 0.786704 1.0565214
0001b0 6a 22 77 3f 1f 26 64 3f 26 57 a6 3f 4d 79 6e 3f
       0.96536887 0.8912067 1.2995346 0.9315384
0001c0 03 19 7c 3e 31 c0 3b 3f 63 86 36 3f 3f 32 56 3f
       0.24618916 0.73340136 0.7129881 0.8367042
0001d0 93 18 6f 3f 99 9a 7b 3f 31 a3 4e 3e 39 37 6b 3f
       0.9339687 0.9828277 0.2017944 0.9188114
0001e0 d9 c3 37 3f b7 b6 08 3f 4d 4f 00 3f 6c c3 7b 3f
       0.71783215 0.534038 0.50121003 0.98345065
0001f0 36 1c 8e 3f 3f 5e b9 3e 70 3e 09 3f 60 de 95 3e
       1.1102359 0.36204717 0.536109 0.2927122
000200 0c 5b a5 3f ed ba 10 3f a1 ba 50 3f 4b bc c4 3e
       1.291841 0.56535226 0.81534773 0.38424906
000210 da 7b d9 3e 2d c7 82 3f c2 d1 27 3e 00 f7 ea 3e
       0.42477304 1.0217034 0.1638861 0.4589157
000220 58 f8 44 3f 8d 79 d6 3e 6c 3b d9 3e dc 35 89 3f
       0.7694144 0.4188961 0.42428148 1.0719562
000230 b9 e2 42 3f 5f 1b 7c 3f a9 f2 71 3f 42 51 90 3f
       0.761272 0.98479265 0.94510895 1.1274798
000240 86 d4 da 3e 47 53 95 3f 78 91 e0 3e d0 5e 79 3f
       0.42740268 1.1666039 0.43860984 0.974103
000250 93 70 7c 3f 36 7c 1d 3e 30 b1 8e 3f 34 30 10 3e
       0.98609275 0.15379414 1.1147823 0.14080888
000260 c0 71 91 3f ee 50 ae 3f 39 c9 71 3f 22 6c f5 3e
       1.1362839 1.3618448 0.94447666 0.4793406
000270 f1 2a fa 3e 13 e9 b9 3f 44 00 8d 3f 94 33 15 3e
       0.48860887 1.4524254 1.1015706 0.14570457
000280 af 30 4b 3f 9a a2 2b 3f 73 2c 39 3f 3a 17 f3 3e
       0.7937116 0.67044985 0.7233345 0.47478658
000290 77 e1 2c 3f 18 3c 5a 3f 18 b8 54 3f 5f dd c3 3e
       0.6753153 0.85247946 0.83093405 0.3825483
0002a0 6c 87 36 3f 54 0a 17 3f c4 6d ba 3e c4 01 80 3f
       0.7130039 0.59000134 0.3641187 1.0000539
0002b0 ec 78 3d 3f 47 66 69 3f 10 7d 8a 3f b9 2c 0b 3f
       0.7401264 0.9117169 1.0819416 0.54365116
0002c0 20 a2 f8 3e b8 c0 4b 3f 30 b3 3b 3f ea b0 c7 3e
       0.48561192 0.7959094 0.73320293 0.39002162
0002d0 4d a1 d9 3e 80 65 84 3f a3 8e 6c 3f 3e 5e 28 3f
       0.42505875 1.0343475 0.92405146 0.657688
0002e0 22 86 18 3f 3b c4 8c 3e ff 41 c4 3e 1a b7 01 3f
       0.5957967 0.27493462 0.383316 0.50670016
0002f0 a4 f6 6e 3f af cc 93 3f e2 c2 8b 3e cb 0e 6f 3e
       0.93345094 1.154684 0.2729712 0.23345487
000300 41 80 58 3f df fb 83 3f e1 0a 82 3f 84 b2 56 3f
       0.845707 1.031124 1.015957 0.83866143
000310 0c aa c1 3e a3 f6 20 3f 50 f0 a3 3f eb 8f 7b 3f
       0.37825048 0.6287634 1.2807713 0.98266476
000320 10 86 48 3f 16 00 4a 3f 98 8a ce 3e 77 b4 79 3e
       0.78329563 0.7890638 0.40340114 0.24385248
000330 bc 3c 90 3f 67 97 8f 3f 95 f8 1e 3f eb 3e c2 3e
       1.1268535 1.1218079 0.62098056 0.37938628
000340 3c 12 5a 3f 4d c4 4d 3f 8a 33 1d 3f 47 48 8d 3f
       0.85184073 0.80377656 0.6140677 1.1037682
000350 5c c5 a3 3f 3c ce a1 3e 19 c5 0d 3f 5b 79 00 3f
       1.2794604 0.31602657 0.5537887 0.50185174
000360 b9 05 99 3f 4f 3e a2 3f 7f 4a 3a 3f 03 55 03 3f
       1.1954871 1.2675265 0.7276992 0.5130159
000370 ed a3 44 3d c4 b3 7d 3e d8 7c 57 3f 16 60 4f 3f
       0.048007894 0.24775606 0.8417487 0.8100599
000380 fe e3 5f 3f e2 b4 3f 3f 6b 0e 11 3f 70 2a 9d 3e
       0.87457263 0.7488538 0.56662625 0.3069644
000390 bd a2 b5 3e d2 7f 96 3e 98 fc 70 3f 13 e7 8d 3f
       0.35475722 0.29394394 0.9413543 1.1086143
0003a0 4c e1 1b 3f d8 07 b0 3e 5c a5 52 3f db 65 30 3f
       0.6089065 0.34380984 0.8228357 0.6890542
0003b0 88 26 6b 3f a9 14 82 3f 91 fc a9 3e cc e2 5f 3f
       0.9185567 1.0162555 0.33200505 0.8745544
0003c0 f7 b7 1b 3f 53 5a c4 3e df e1 80 3c 68 54 93 3e
       0.60827583 0.38350162 0.015732704 0.28775334
0003d0 1c f2 37 3f 90 42 fd 3e 2e 8e 1d 3f a1 8e 85 3f
       0.71853805 0.49464846 0.61545074 1.0434152
0003e0 58 e9 d6 3e 86 1d a5 38 58 83 92 3e 3b ce d2 3d
       0.41974902 7.873312e-05 0.28615832 0.102932416
0003f0 72 45 6a 3f 83 c5 c0 3e 9c 56 bb 3e 43 30 06 3f
       0.91512215 0.3765069 0.36589515 0.5241739
