experiments/gru_h2_l1_20241124_115326/final_model.pth (torch, 310647 bytes, 7 tensors)

embedding.weight f4 [15345, 2]
0	0xbfdc976a	-1.7233708
1	0xc00934d2	-2.143849
2	0x3f1eda3b	0.62051743
3	0xbfadd313	-1.358004
4	0xbfd16df5	-1.6361681
5	0xbefeac90	-0.4974103
6	0xbeaa4b2e	-0.33260483
7	0x3fd3115b	1.6489671
8	0x3fd6882f	1.676031
9	0x3f18e50a	0.59724486
10	0x3fb531f8	1.4155874
11	0xbd09dbf1	-0.033657018
12	0x3f9091cd	1.1294495
13	0xbc94994d	-0.018139506
14	0x3fbe9c18	1.4891386
15	0x3ea50d1c	0.32236564
16	0x3fb7962e	1.4342706
17	0x3f463b7c	0.77434516
18	0x40046298	2.0685177
19	0x3f33d783	0.7025072
20	0x3f823547	1.0172509
21	0x3f21a009	0.6313482
22	0x3f956b8d	1.1673447
23	0xbe11203a	-0.1417245
24	0x3f0e664a	0.5562483
25	0xbe500fb2	-0.20318487
26	0x3f854ea0	1.041462
27	0x3d868fe8	0.06570417
28	0x3fd579a6	1.6677749
29	0xbd9523b7	-0.07282203
30	0x3f89de10	1.0770893
31	0xbe382119	-0.17981376
32	0xbecaa1bc	-0.3957652
33	0x3fd708ed	1.6799599
34	0x3f86b0c7	1.0522698
35	0x3f0f550e	0.5598916
36	0x3ebbd056	0.36682385
37	0x3f59b767	0.85045475
38	0x402a1703	2.6576545
39	0x3fc8d63a	1.5690377
40	0xbde18050	-0.11010802
41	0xbfc0a972	-1.5051711
42	0x3f4c49f3	0.7980034
43	0x3ee300aa	0.44336444
44	0x3fc2c4a3	1.5216259
45	0x3f08029d	0.5312899
46	0x3f2ce96e	0.67543685
47	0x3f3846b0	0.7198286
48	0x3ea56bfc	0.32308948
49	0xbe049f48	-0.12951386
50	0x3f8954fd	1.0729061
51	0x3e845d1a	0.2585228
52	0x3fb6feba	1.4296486
53	0x3f778712	0.96690476
54	0x3f847791	1.0348989
55	0x3f2ec19f	0.6826419
56	0x3f9253f8	1.1431875
57	0x3e89484a	0.26812965
58	0x3f8d5fb4	1.1044831
59	0xbc104551	-0.008805589
60	0x3f6040f5	0.87599117
61	0xbede2ff6	-0.43395966
62	0x400e9b23	2.2282188
63	0xbe318cd1	-0.17338873
64	0xbe018654	-0.12648898
65	0x3f9a9960	1.2078056
66	0x3fa16bf9	1.2611076
67	0x3d904d57	0.070460014
68	0x3f9cf695	1.2262751
69	0x4003e432	2.060803
70	0xbf060687	-0.5235371
71	0x3fa107ab	1.2580465
72	0x3f44c432	0.7686187
73	0xbd877cd0	-0.06615603
74	0x3fb7f788	1.4372416
75	0xbf6b9198	-0.92019033
76	0x3f9ee43a	1.2413399
77	0x3e67c2a9	0.2263285
78	0xbefc8ee1	-0.49327758
79	0xc00652ce	-2.098804
80	0x3f76b68f	0.9637231
81	0x4008d82b	2.1381938
82	0x3ff988a4	1.9494824
83	0xbeeaccc1	-0.4585934
84	0x3fce8707	1.6134957
85	0x3ebe0ff6	0.37121552
86	0x3efb8271	0.49122956
87	0x3ee0d59f	0.4391298
88	0xbf243685	-0.6414569
89	0xbefcebb8	-0.4939859
90	0x3f33826b	0.7012088
91	0x3d75aefb	0.059981328
92	0x3fe39ba5	1.7781874
93	0x3f9491c9	1.160699
94	0x3fa81bf8	1.3133535
95	0x3e6ed846	0.2332469
96	0x3f989924	1.1921735
97	0xbe77b5dc	-0.24190468
98	0x3f214c0f	0.6300668
99	0x3f07cbf2	0.5304557
100	0x3f92fa50	1.1482639
101	0x3fdb8a91	1.7151662
102	0x3f88f87c	1.0700831
103	0x3f2edd68	0.6830659
104	0xbfb08641	-1.3790971
105	0xbfae90d8	-1.3637953
106	0x401ac536	2.4182868
107	0x3f9b1a51	1.2117406
108	0xbf746df0	-0.9548025
109	0xbf444573	-0.7666847
110	0x3f108d83	0.5646593
111	0xbf546df9	-0.82980305
112	0xbe19fa5b	-0.1503691
113	0x3fe35b52	1.7762244
114	0x3f5ab2fa	0.85429347
115	0x3d61700c	0.055038497
116	0x3fdeb6ac	1.7399497
117	0x3e2ce7f8	0.16885364
118	0x3e4388f3	0.1909521
119	0x3f8a00b4	1.0781465
120	0x3f1816e5	0.59409934
121	0xbe021ec4	-0.12707049
122	0x3f22874d	0.634877
123	0xc00f4ed0	-2.2391853
124	0x3e03252e	0.12807152
125	0x3ee2856f	0.44242427
126	0x3e7fc26e	0.24976513
127	0x3f9720ed	1.1806923
128	0xbdda9597	-0.10673063
129	0x3e9e3f48	0.30907655
130	0x3edd25b8	0.4319284
131	0xbf77f184	-0.968529
132	0x3f88da5c	1.0691638
133	0x3eddeb78	0.4334371
134	0xbe452d0f	-0.1925547
135	0x3f150f66	0.5822662
136	0xbbf4974b	-0.0074643246
137	0x3e5fc0b9	0.21850862
138	0x3f5ad130	0.85475445
139	0x3f925de3	1.1434902
140	0x3fbdbc15	1.4823023
141	0x3f4fb26d	0.8113163
142	0x3f4b52fe	0.7942351
143	0xbf78349f	-0.96955293
144	0x3fd09d60	1.6298027
145	0xbeddc57e	-0.43314737
146	0xbfaf3c30	-1.3690243
147	0xbdfefb5d	-0.124502875
148	0xbe00c7f4	-0.12576276
149	0x3e014edd	0.1262774
150	0x3f57c47d	0.8428419
151	0x3e7d117c	0.24713701
152	0xbfded7db	-1.7409624
153	0x40133a14	2.3004198
154	0x3f43a686	0.7642597
155	0x3f38ff8a	0.7226492
156	0x3f965fba	1.1747963
157	0x3fa8591d	1.3152195
158	0x3ee53477	0.4476659
159	0x3f25c07a	0.6474682
160	0xbf895b71	-1.0731031
161	0x3f0c346d	0.54767495
162	0x3f09e5c3	0.53866214
163	0x3fb0eeb0	1.3822842
164	0xbe59967c	-0.21248811
165	0x3fc58c14	1.5433373
166	0x4001cb53	2.028035
167	0x3f487071	0.7829657
168	0x3f691a0f	0.9105539
169	0x3e0713bd	0.13191123
170	0x3f99f364	1.2027402
171	0x3bf1e855	0.0073824325
172	0x3fa668f2	1.3000777
173	0x3dbd577d	0.09245203
174	0x3fea9a50	1.8328342
175	0x3e7dc135	0.24780734
176	0x3f4cf5e2	0.8006269
177	0xbf1975b4	-0.59945226
178	0x3f6c7627	0.92367786
179	0x3ec97ab8	0.3935144
180	0xbf648f7f	-0.8928146
181	0xbf578427	-0.84186023
182	0x3f3d4128	0.73927546
183	0xbd9843b4	-0.07434788
184	0x3fa5a056	1.2939556
185	0xbeed9a19	-0.4640663
186	0x3fafd260	1.3736076
187	0x3f88e1ba	1.0693886
188	0x3e41a87c	0.18911928
189	0x3cd2dc1b	0.02573972
190	0xbe8393bb	-0.25698647
191	0xbf7a26bd	-0.9771536
192	0x3e217aa8	0.15769446
193	0xbf0a3b69	-0.539969
194	0x3fd57b71	1.6678296
195	0x3fe364af	1.7765101
196	0x3fadd366	1.3580139
197	0x3ab2d7cd	0.0013644636
198	0x3f441b0e	0.7660378
199	0x3f7f4e6c	0.9972904
200	0x3da7b803	0.08189394
201	0x3e085754	0.13314563
202	0x3ede5e05	0.43431106
203	0x3e6c650c	0.23085421
204	0x3e96aca9	0.29428604
205	0x3edc774d	0.4305977
206	0x3ec7e688	0.3904307
207	0xbf07a47e	-0.5298537
208	0x3efe957b	0.4972342
209	0x3bc91274	0.006136233
210	0x3f2a70b5	0.6657823
211	0x3fb26183	1.3936008
212	0x4023872a	2.5551248
213	0x3f157a95	0.5839017
214	0xbfc4c2b7	-1.5371922
215	0xbe9f8cee	-0.31162208
216	0x3eae21a5	0.34010044
217	0x3e57b52d	0.21065207
218	0xbf593097	-0.8483977
219	0xbf4930cc	-0.78590083
220	0x3e166add	0.14689203
221	0xbf4928c3	-0.7857782
222	0xbce1820f	-0.027527837
223	0x3f453467	0.77033085
224	0x3fda813b	1.7070688
225	0x3f86a90e	1.0520341
226	0x3f8161d3	1.0107979
227	0xbf3b2056	-0.73096216
228	0xbf41a824	-0.7564719
229	0xc022e59e	-2.5452647
230	0x3f591071	0.8479071
231	0x3e87d1fe	0.265274
232	0xbe870b9d	-0.26376048
233	0xbf523b6c	-0.8212192
234	0x3fdb06d1	1.7111455
235	0xbe32db9b	-0.17466585
236	0x3f244cc7	0.6417965
237	0x3d98cf71	0.07461441
238	0xbe087c4a	-0.13328663
239	0x3f772b6b	0.96550626
240	0x3f905de4	1.1278653
241	0x3f3ae897	0.73011154
242	0x3c9c1903	0.019054895
243	0x3fa7e891	1.3117849
244	0x3f9eb08e	1.239763
245	0x3ea57046	0.3231222
246	0x3ee7b089	0.45251873
247	0x3e84c51e	0.25931638
248	0x3cdab1c2	0.02669609
249	0x3ed4a431	0.41531518
250	0x3ff723b2	1.9307768
251	0xbf837085	-1.0268713
252	0x3f515732	0.81773674
253	0x3eff7c47	0.49899504
254	0xbf6b3254	-0.9187367
255	0x3ec46faf	0.38366458

gru.weight_ih_l0 f4 [6, 2]
0	0x3f17eb58	0.5934348
1	0x3f5eba68	0.87003183
2	0xbbc50296	-0.006012271
3	0xbb4a652d	-0.003088306
4	0x3b57d137	0.0032931098
5	0xba50d469	-0.0007966222
6	0xba6d543e	-0.00090533856
7	0xbd3433b3	-0.043994617
8	0x3ee6c881	0.45074847
9	0x3e4a8019	0.19775428
10	0x3f5564df	0.8335704
11	0x3eaa3543	0.3324376

gru.weight_hh_l0 f4 [6, 2]
0	0x3cbfa556	0.023394268
1	0xbe085ebc	-0.13317388
2	0x3fbbd673	1.467482
3	0xbfa736b0	-1.3063564
4	0xc06c73ea	-3.6945748
5	0x407ba21a	3.931769
6	0x40e6a937	7.208156
7	0xc0863258	-4.1936455
8	0x3d9d6600	0.076854706
9	0xbd951a6f	-0.072804324
10	0xbd1faf41	-0.038985495
11	0xbe092e00	-0.13396454

gru.bias_ih_l0 f4 [6]
0	0x3ce39d7b	0.027785053
1	0x3f010059	0.50391155
2	0xbee36dbc	-0.44419658
3	0x3ea14493	0.3149763
4	0x40826fd9	4.0761533
5	0xbf618ed2	-0.8810855

gru.bias_hh_l0 f4 [6]
0	0x3ea77a45	0.32710472
1	0x3efa0eb8	0.48839355
2	0x3ee11230	0.43959188
3	0x3f698a65	0.912268
4	0xbdacb79e	-0.0843346
5	0x402dfbbc	2.7184896

fc.weight f4 [15345, 2]
0	0xc03888ac	-2.8833418
1	0x3f6dbb16	0.92863595
2	0xc01812e2	-2.3761525
3	0x3f857295	1.0425593
4	0xc02304d5	-2.54717
5	0x3f867d4f	1.0506991
6	0x3f102177	0.56301063
7	0x3d0ff507	0.035145786
8	0x40389b2e	2.8844714
9	0x3dd76341	0.10516978
10	0x402e0f1a	2.7196717
11	0x3ddab115	0.10678307
12	0x40126616	2.2874808
13	0x3dd160c0	0.10223532
14	0x4007e8f9	2.1235945
15	0x3dc9c5d1	0.098521836
16	0x3fe9dbdd	1.8270222
17	0x3db2ce9f	0.08730816
18	0x3fe684b5	1.8009249
19	0x3dc344fc	0.09534642
20	0x400e5017	2.2236383
21	0x3dbe0698	0.092786014
22	0x40028d49	2.0398734
23	0x3dbe794c	0.09300479
24	0x4006459a	2.0979981
25	0x3dc70a42	0.097187534
26	0x3ffd43e7	1.9786347
27	0x3dd73d3e	0.10509728
28	0x400f8ff3	2.243161
29	0x3dc5898a	0.09645374
30	0x3fc0a945	1.5051657
31	0x3dccfbf8	0.10008997
32	0x401088f9	2.2583601
33	0x3dd88fe0	0.10574317
34	0x3ffad725	1.9596907
35	0x3dcb5833	0.09928932
36	0x40028d08	2.0398579
37	0x3da69710	0.08134282
38	0x3fc5be0a	1.544862
39	0x3dbdd05a	0.092682555
40	0x3ff95f1a	1.9482148
41	0x3dc6aed1	0.09701312
42	0x3feb127e	1.8365018
43	0x3db39e47	0.087704234
44	0x3fd361af	1.6514186
45	0x3db0deea	0.086362675
46	0x3ff6f2a7	1.9292802
47	0x3daf0ebe	0.08547734
48	0x3fe265a8	1.7687273
49	0x3dc27195	0.0949432
50	0x400f11bc	2.2354574
51	0x3dba9ce2	0.09111954
52	0x400433ab	2.0656536
53	0x3dc08143	0.09399655
54	0x4005d2ea	2.0909982
55	0x3dd84ae8	0.10561162
56	0x3fd700fa	1.6797173
57	0x3d825281	0.063633926
58	0x3feca9f8	1.848937
59	0x3d85fa95	0.06541935
60	0x3fefa932	1.8723509
61	0x3dab9f27	0.08379965
62	0x3fc2629a	1.5186341
63	0x3db1a22e	0.086735114
64	0x3fb6f59e	1.4293706
65	0x3db5d7fa	0.08879085
66	0x3fac3914	1.3454919
67	0x3d9aa669	0.075512715
68	0x3fc83a67	1.5642823
69	0x3db5a21a	0.08868809
70	0x3fa5d105	1.2954413
71	0x3d975c45	0.07390646
72	0x3fa0ecbf	1.2572249
73	0x3d8bbd0c	0.06823167
74	0x3f8b52df	1.0884665
75	0x3d8da1b4	0.06915608
76	0x3ff10deb	1.8832372
77	0x3d9fb324	0.0779784
78	0x3fccfbfa	1.6014397
79	0x3dae987c	0.08525178
80	0x3fbfb37b	1.4976648
81	0x3d8da19c	0.0691559
82	0x3fd2bd08	1.6463938
83	0x3db1c976	0.08681004
84	0x3fbdee48	1.4838343
85	0x3d9ae616	0.07563417
86	0x3f99c676	1.201369
87	0x3d6206c1	0.055182222
88	0x3fcf6679	1.6203147
89	0x3d87f1a2	0.06637885
90	0x3f9ac7b4	1.2092195
91	0x3d90beaf	0.0706762
92	0x3f29be07	0.66305584
93	0x3d4a0341	0.04931951
94	0x3f9e3b7a	1.2361901
95	0x3da52c40	0.08065081
96	0x3fe5b3a4	1.7945447
97	0x3d8f534f	0.06998312
98	0x3fa8e966	1.3196228
99	0x3d819de6	0.06328945
100	0x3fad0fe2	1.3520472
101	0x3d8a1751	0.067427285
102	0x3faf5d09	1.3700267
103	0x3d3984c2	0.045292623
104	0x3fa29719	1.2702361
105	0x3d288cda	0.04114995
106	0x3fa1d19e	1.2642095
107	0x3d6c4e9b	0.05769215
108	0x3f9533b5	1.1656405
109	0x3da31d9c	0.07964632
110	0x3fac828a	1.3477337
111	0x3d809855	0.06279055
112	0x3f4cc3df	0.79986376
113	0x3d78fc8f	0.060787734
114	0x3f586a5a	0.8453728
115	0x3d774f67	0.06037846
116	0x3fd93e53	1.6972145
117	0x3d9192ee	0.07108103
118	0x3f53ab20	0.8268299
119	0x3d29fa30	0.041498363
120	0x3f97ebdd	1.1868855
121	0x3d99f215	0.075168766
122	0x3f60be24	0.8779013
123	0x3d1b7275	0.03795095
124	0x3f9cda20	1.2254066
125	0x3d902252	0.07037796
126	0x3f97e60a	1.1867077
127	0x3d8aa4ca	0.06769712
128	0x3f962f6e	1.1733224
129	0x3d4c8c6d	0.049938608
130	0x3f94b430	1.1617489
131	0x3d9debde	0.07711004
132	0x3f3bcb18	0.7335677
133	0x3d1fa2d9	0.038973663
134	0x3fa45a1a	1.2839997
135	0x3d978e17	0.07400148
136	0x3f8873f7	1.066039
137	0x3d6d7cf2	0.057980485
138	0x3f47218d	0.7778557
139	0x3d688c4f	0.056774434
140	0x3f85f236	1.0464542
141	0x3d81d645	0.06339697
142	0x3f37fa7f	0.718666
143	0x3d138caf	0.03602284
144	0x3ef82e1f	0.48472688
145	0x3d4a3fc7	0.04937723
146	0x3f740dbf	0.95333475
147	0x3d392a2c	0.045206234
148	0x3f40c8f8	0.75306654
149	0x3d25d756	0.040488563
150	0x3f9ad105	1.2095038
151	0x3d8594f9	0.06522555
152	0x3f6d0b32	0.9259521
153	0x3d8a8403	0.067634605
154	0x3f9d4a9e	1.2288396
155	0x3d4dc654	0.05023797
156	0x3fb0ea63	1.3821529
157	0x3d55a8c1	0.05216289
158	0x3f989722	1.1921122
159	0x3caf7859	0.02141969
160	0x3fcae83a	1.585212
161	0x3d91e611	0.0712396
162	0x3f53a93f	0.82680124
163	0x3d37111d	0.044694055
164	0x3fb0de10	1.3817768
165	0x3d4622fa	0.0483732
166	0x3f5ee3bf	0.8706626
167	0x3d6b46e6	0.05744066
168	0x3fad6ab0	1.3548183
169	0x3d34b082	0.044113643
170	0x3f9ea96e	1.2395456
171	0x3d31903d	0.043350447
172	0x3f91c633	1.1388611
173	0x3d6efabe	0.058344595
174	0x3f56f06e	0.83960617
175	0x3d712873	0.058876466
176	0x3f6354cd	0.8880127
177	0x3d03ba41	0.032160047
178	0x3f8f10c3	1.117699
179	0x3d9e5a1f	0.07732033
180	0x3f70c267	0.94046634
181	0x3d7fec27	0.06248107
182	0x3f080979	0.53139454
183	0x3c8f1f71	0.017471047
184	0x3f5a3fd4	0.85253644
185	0x3d151c47	0.03640392
186	0x3f6ab0cf	0.9167604
187	0x3d255958	0.040368408
188	0x3f797f84	0.974602
189	0x3d373efe	0.04473781
190	0x3f9e4437	1.2364568
191	0x3ccf3932	0.025295828
192	0x3f887896	1.06618
193	0x3d481715	0.048850138
194	0x3f615325	0.88017493
195	0x3d6004e8	0.05469218
196	0x3eb03689	0.34416607
197	0x3d301288	0.042986423
198	0x3f79704a	0.97436965
199	0x3d62b258	0.055345863
200	0x3f362d8a	0.7116324
201	0x3c7b9d0a	0.015357265
202	0x3eeee860	0.46661663
203	0x3d3235a7	0.043508198
204	0x3f0511d5	0.51980335
205	0x3cd08c23	0.025457447
206	0x3ef91bf1	0.4865413
207	0x3d2ef614	0.042715147
208	0x3f00eaf1	0.5035849
209	0x3d4cbaf4	0.04998298
210	0x3f92f039	1.147956
211	0x3d7ca166	0.06167736
212	0x3f2eadb7	0.6823382
213	0x3d347691	0.044058386
214	0x3f0f538d	0.55986863
215	0x3d2f0f68	0.042739302
216	0x3f360eac	0.7111614
217	0x39cfe74c	0.00039654446
218	0x3f5317e6	0.8245834
219	0x3d06ff49	0.032958303
220	0x3f0f7cf4	0.5605004
221	0x3d496f1c	0.049178228
222	0x3f1d35e8	0.6141038
223	0xbcd7c803	-0.02634049
224	0x3ead93bd	0.33901778
225	0x3d51b987	0.051202323
226	0x3f51d0f9	0.8195949
227	0x3cdfd744	0.027324326
228	0x3f001b1b	0.5004136
229	0x3d1aa7d0	0.037757695
230	0x3f1e1131	0.6174498
231	0x3cd3ab2c	0.025838457
232	0x3f334b9a	0.70037234
233	0xba112d8a	-0.0005538097
234	0x3e947a5b	0.289996
235	0x3c69ef63	0.014278266
236	0x3ee6d0d3	0.45081195
237	0x3d29d622	0.04146398
238	0x3ebe8a77	0.37215015
239	0x3d34ecf2	0.04417128
240	0x3e099863	0.13437037
241	0x3cc0e04c	0.023544453
242	0x3f03507a	0.5129467
243	0x3d067a75	0.032831628
244	0x3ee4d602	0.44694525
245	0x3d166cc2	0.036724813
246	0x3f87bc7d	1.0604397
247	0x3bf1d54a	0.0073801624
248	0x3f4ee278	0.80814314
249	0x3d445bcd	0.04793911
250	0x3f654d9e	0.8957156
251	0xbb453897	-0.0030093545
252	0x3eca3628	0.39494443
253	0x3cdff3f5	0.027338007
254	0x3ee4f469	0.4471772
255	0x3cc6db97	0.02427463

fc.bias f4 [15345]
0	0xc0248cbd	-2.57109
1	0xc024f356	-2.577352
2	0xc04d5d0b	-3.208804
3	0x3f998df4	1.1996446
4	0x407cfa60	3.9527817
5	0x4066b7c6	3.6049666
6	0x406a6110	3.6621742
7	0x406c1b79	3.6891768
8	0x4075d9a4	3.8414087
9	0x407a519d	3.9112313
10	0x4056bd30	3.355297
11	0x405e24a8	3.4709873
12	0x4047c517	3.1214044
13	0x404c50a2	3.1924214
14	0x403cd5f6	2.9505591
15	0x405be780	3.4360046
16	0x402a3e01	2.6600344
17	0x403a0f68	2.9071903
18	0x403826fb	2.8773792
19	0x405045da	3.2542634
20	0x403a04b2	2.9065366
21	0x403717a8	2.8608189
22	0x4038fc25	2.8903897
23	0x40280a78	2.625639
24	0x40308686	2.7582107
25	0x4014794e	2.3199039
26	0x40144bb2	2.31712
27	0x4016f6d0	2.3588142
28	0x40251dc5	2.579942
29	0x401783c5	2.3674176
30	0x400c1901	2.189026
31	0x4023a938	2.5572033
32	0x40213c8d	2.5193207
33	0x4021e15b	2.5293796
34	0x400ffed2	2.249928
35	0x401c0163	2.4375846
36	0x401e09e6	2.4693542
37	0x4021f404	2.5305185
38	0x3fea3f2a	1.8300526
39	0x3ff7cb37	1.9358891
40	0x3ff9d2ec	1.9517493
41	0x3ff1ab14	1.8880334
42	0x3ffb3f0a	1.9628613
43	0x400d7516	2.2102714
44	0x3fddaa2a	1.7317555
45	0x4009cd83	2.1531684
46	0x402313c7	2.548082
47	0x4004ec7d	2.076934
48	0x3fbc74f4	1.4723191
49	0x3feba99b	1.8411134
50	0x3fdfc463	1.7481807
51	0x3fd6c91f	1.6780127
52	0x3fe70bb1	1.8050443
53	0x3fe81478	1.8131247
54	0x3ff017c3	1.8757252
55	0x3fd62c69	1.6732303
56	0x40061c4d	2.0954773
57	0x4007219a	2.1114259
58	0x3fa966c5	1.3234488
59	0x3ff706bd	1.9298931
60	0x3fe62c15	1.7982203
61	0x3fec12d8	1.8443251
62	0x3fd0a15b	1.6299242
63	0x3fc6e9f8	1.5540152
64	0x3fe07fee	1.7539041
65	0x3fdb8a74	1.7151628
66	0x3ff93b61	1.9471246
67	0x3fc9e326	1.5772445
68	0x3fd43fbb	1.6581949
69	0x3ff62354	1.9229531
70	0x3fb98f79	1.4496909
71	0x3fe94483	1.8224033
72	0x4000faf6	2.0153174
73	0x3fc2f225	1.5230147
74	0x3fe68baf	1.8011378
75	0x3fad5258	1.3540754
76	0x3fcb2a88	1.5872355
77	0x3fa8df81	1.3193208
78	0x3f90f5ba	1.132499
79	0x3f99a061	1.2002069
80	0x3f5e3ba1	0.86809736
81	0x3fccb328	1.5992174
82	0x3f8d400c	1.103517
83	0x3fc6680f	1.5500506
84	0x3f8be92b	1.0930532
85	0x3f8752d3	1.0572151
86	0x3f85e537	1.0460576
87	0x3fbfd01a	1.4985383
88	0x3f9948e2	1.1975367
89	0x3f881eac	1.063436
90	0x3fb040cf	1.3769778
91	0x3fbf396c	1.4939399
92	0x3f94cecc	1.1625609
93	0x3f8c570c	1.0964065
94	0x3f8f945f	1.1217154
95	0x3f6931b6	0.9109148
96	0x3f8aa22d	1.0830742
97	0x3fa25694	1.2682672
98	0x3fd40720	1.6564674
99	0x3f8e55a8	1.111989
100	0x3f9e1ee6	1.235318
101	0x3fb5536b	1.4166082
102	0x3fb93e6f	1.4472178
103	0x3fbe2b9e	1.4857061
104	0x3fc956b6	1.5729587
105	0x3f811a4e	1.0086153
106	0x3f971ce4	1.1805692
107	0x3faa5de8	1.3309908
108	0x3f65a35e	0.89702404
109	0x3f9300f7	1.148467
110	0x3fa0148a	1.2506268
111	0x3f661533	0.898761
112	0x3fb7c69d	1.4357487
113	0x3f65f6ec	0.898299
114	0x3fac91ec	1.3482032
115	0x3f9e699f	1.2375983
116	0x3f67c7c9	0.9053922
117	0x3fb19900	1.3874817
118	0x3fa49494	1.2857842
119	0x3fb90363	1.4454159
120	0x3fbffa01	1.499817
121	0x3f9441b9	1.1582557
122	0x3fa5cac9	1.295251
123	0x3f259624	0.6468222
124	0x3f7e5a36	0.993564
125	0x3f28937d	0.6585005
126	0x3fa8ea46	1.3196495
127	0x3fa39a63	1.278149
128	0x3f44c082	0.76856244
129	0x3f8ecf49	1.1157008
130	0x3f69f301	0.9138642
131	0x3fafa94f	1.3723544
132	0x3faf72af	1.3706874
133	0x3fa23806	1.2673347
134	0x3f8e4ea5	1.111775
135	0x3f6a5627	0.9153771
136	0x3f8a2878	1.07936
137	0x3f893440	1.071907
138	0x3fb75213	1.4321922
139	0x3f7a9991	0.97890574
140	0x3f8b47c2	1.0881274
141	0x3f853851	1.0407811
142	0x3f44de17	0.7690138
143	0x3f094797	0.5362486
144	0x3f148fee	0.5803212
145	0x3f1f3a40	0.6219826
146	0x3faf11e3	1.3677334
147	0x3f8bac7a	1.0912011
148	0x3f955d5a	1.1669114
149	0x3f8905cd	1.0704895
150	0x3f7fa915	0.99867374
151	0x3f821c3d	1.0164868
152	0x3f09dff7	0.5385737
153	0x3f653dbe	0.89547336
154	0x3f64e453	0.89410895
155	0x3f3f6cb0	0.7477522
156	0x3f466857	0.7750296
157	0x3f8147b5	1.0100008
158	0x3ed132d3	0.40859088
159	0x3fac573a	1.346412
160	0x3f85d0fa	1.04544
161	0x3f8211c2	1.0161669
162	0x3f4b5c76	0.7943796
163	0x3f2942f0	0.66117764
164	0x3f1a2060	0.6020565
165	0x3f6de1df	0.92922777
166	0x3facea46	1.3508995
167	0x3f711387	0.9417042
168	0x3f79ea0a	0.9762274
169	0x3f7323c5	0.94976455
170	0x3efcf7d1	0.4940782
171	0x3f7ddca9	0.99164826
172	0x3f3a764f	0.72836775
173	0x3f46d2a1	0.77665144
174	0x3f88581c	1.0651889
175	0x3f7917e5	0.97302085
176	0x3f6cf362	0.9255887
177	0x3f6670b2	0.9001571
178	0x3f1b3213	0.6062328
179	0x3f602af1	0.87565523
180	0x3f8ac40a	1.0841076
181	0x3f4cc61c	0.7998979
182	0x3f522670	0.820899
183	0x3f0ef1fa	0.55837977
184	0x3f4ca249	0.7993513
185	0x3ecf8aa7	0.4053547
186	0x3f6bb7cd	0.9207733
187	0x3e86e018	0.26342845
188	0x3f538988	0.8263173
189	0x3f442c88	0.7663045
190	0x3faf1334	1.3677735
191	0x3f8ada44	1.0847859
192	0x3f83e1a7	1.0303239
193	0x3f33e6f0	0.7027426
194	0x3f155759	0.58336407
195	0x3f70f403	0.9412233
196	0x3f4c228e	0.79740226
197	0x3e1a58af	0.15072893
198	0x3f5c15c6	0.85970724
199	0x3f6bd649	0.9212385
200	0x3f72c149	0.9482618
201	0x3f8daa57	1.1067609
202	0x3f31beec	0.6943195
203	0x3f3e9138	0.74440336
204	0x3eabe26f	0.33571193
205	0x3e97a73d	0.2961978
206	0x3f2aac47	0.66669124
207	0x3f68a916	0.90883005
208	0x3f578059	0.8418022
209	0x3f0ee447	0.55817074
210	0x3f523f68	0.82128
211	0x3f7793d2	0.9670993
212	0x3f182bab	0.5944163
213	0x3f9107f8	1.1330557
214	0x3f33e83a	0.70276225
215	0x3f30c38e	0.6904839
216	0x3f59bbb6	0.8505205
217	0x3eeae100	0.45874786
218	0x3f0b7115	0.54469424
219	0x3f49ee83	0.78879565
220	0x3f13e43a	0.5777012
221	0x3e6c9bc8	0.23106301
222	0x3ee48f87	0.44640753
223	0x3f46804e	0.7753953
224	0x3f3fda02	0.7494203
225	0x3f7611cd	0.9612091
226	0x3f024b91	0.50896555
227	0x3f30eec3	0.6911432
228	0x3f52553c	0.8216131
229	0x3f540bc0	0.8283043
230	0x3ea983a1	0.33108237
231	0x3eb09fef	0.3449702
232	0x3f35a939	0.7096134
233	0x3f4eff41	0.80858237
234	0x3f6b84fc	0.91999793
235	0x3f707456	0.93927515
236	0x3f38506d	0.7199772
237	0x3ea11fe9	0.31469658
238	0x3f07dda6	0.53072584
239	0x3ee61962	0.4494124
240	0x3f325eb9	0.69675785
241	0x3ea354f6	0.31900758
242	0x3f1e3794	0.61803555
243	0x3f683c4e	0.9071702
244	0x3f012859	0.5045219
245	0x3ec49ea2	0.38402277
246	0x3f68da1e	0.9095782
247	0x3f81067d	1.0080105
248	0x3dcfce74	0.101468
249	0x3f4f1657	0.8089346
250	0x3f251649	0.6448713
251	0x3ef74e72	0.48302037
252	0x3f365a78	0.71231794
253	0x3ecf8311	0.40529683
254	0x3f554fca	0.83324873
255	0x3f80faae	1.0076501
