experiments/gru_h2_l1_20241127_110855/final_model.pth (torch, 311024 bytes, 7 tensors)

embedding.weight f4 [15345, 2]
-1.27406 -1.2068399 -0.25411427 1.7674352 -1.4204744 -0.0077096964 -0.023999713 -1.1165289
0.10336367 2.0867755 2.6056595 0.4964655 1.9200028 1.2495627 0.21283899 1.0052756
-0.47814605 1.8030906 2.582548 0.9624403 3.0924668 0.5413304 1.4360354 0.9046877
2.3792043 0.68682474 0.97792006 1.1149868 1.2961302 1.7495185 2.008877 1.1712749
-2.775778 -1.4075694 -1.1879056 -1.4060553 -0.64471817 1.7761171 0.78186333 0.8433398
1.6797731 1.4025238 -1.0632218 2.477515 1.0357317 2.3099086 -1.9083129 -1.9832554
-2.3584816 0.102975555 0.04720112 1.2836734 0.7744284 1.4054085 0.30498144 -1.2067064
1.2562261 0.81352305 1.2716262 0.4879341 1.9321008 0.60442346 1.685919 2.1014104
1.1856048 0.79726523 -1.5702277 -0.76536846 0.5017748 3.396306 -2.6727397 -0.028292634
-0.06553219 1.7699969 1.2889338 0.77278733 1.40282 2.0996978 0.24658832 1.918371
1.3181375 1.2733954 2.810893 0.9474002 1.893543 1.5417132 -1.3674932 -0.09929872
0.27831203 0.7913047 0.2991237 1.9831905 -1.1610768 -1.2029669 -2.3812454 0.18359812
-1.4778771 -0.9422818 -0.9851175 -0.43302178 -2.444221 -1.3408238 0.8929958 1.2384533
1.6570954 0.18630263 1.7921149 1.1852897 -0.14523153 1.1243613 0.8927569 1.8830776
0.2506602 -0.65075254 -1.7792591 0.2503751 1.2147245 2.3415985 -1.4154907 1.5006808
-0.74970484 -1.6996144 1.605847 -0.34842294 -0.6209665 0.2767932 0.9624697 0.89318365
-0.310789 0.13923341 -0.5474074 -0.24846688 0.26621786 2.6945512 1.915733 0.26265663
-0.39025033 -2.1404672 -1.582876 -1.8571287 -0.8291947 -1.2083443 1.7254293 0.13471071
-1.6109885 -1.1930807 -1.0656413 -0.6658783 0.61611146 0.8136269 -1.3341144 1.8316274
-0.6287972 -1.68321 0.34141588 0.0055244174 2.0602207 0.94765705 -3.7536538 -0.6306727
-0.017867329 -2.313319 -1.5764508 -1.8718607 -1.792848 -0.99214053 -3.059788 -0.8330425
2.034891 1.6449276 -0.94748706 -2.2058058 0.56353617 -0.14662331 1.2479167 1.3435427
-0.45624477 1.2925372 1.1573011 1.6314 -1.2228689 -0.43608913 -0.72254324 -2.342733
-1.6118679 -0.7105141 -0.026445124 -0.41568664 -2.611043 0.47122 0.7053924 0.86577636
1.0088317 1.921959 0.50478476 -1.0250405 -2.299967 -0.7893331 -0.9519632 0.28394526
0.5897697 1.2692182 -1.686683 -1.1846515 0.6375307 0.9137872 0.32785696 0.041254263
-0.47950652 -1.015118 -0.48890328 -1.3513452 -1.4918468 0.73006916 0.34200436 -0.33745784
-1.1063932 -1.1993673 -2.429603 -0.5363311 0.40120888 0.91588503 -0.15676185 -0.7696003
0.040790938 1.8594806 1.5201881 -0.29605886 -0.73493135 2.586508 0.5875669 1.8209487
0.31225052 0.29648682 -0.5431409 0.854941 -0.69706345 1.0682558 -1.2996603 -0.78192633
-0.9937677 -0.8010701 -1.7900554 0.037191883 1.8554116 0.5358789 1.3427255 1.5599672
1.394135 1.8236761 2.5968008 -0.68877536 -1.4867086 0.24996002 -0.25997895 1.3069805
00000000: 6614 a3bf bb79 9abf 441b 82be 513b e23f
00000010: 1bd2 b5bf 9fa1 fcbb 0c9b c4bc 6bea 8ebf
00000020: 55b0 d33d bb8d 0540 20c3 2640 ba30 fe3e
00000030: a7c2 f53f acf1 9f3f 77f2 593e dfac 803f
00000040: 8fcf f4be accb e63f 7748 2540 7d62 763f
00000050: faea 4540 a194 0a3f 02d0 b73f 9d99 673f
00000060: e244 1840 bfd3 2f3f f858 7a3f e3b7 8e3f
00000070: 98e7 a53f 39f0 df3f 7191 0040 56ec 953f
00000080: 59a6 31c0 3c2b b4bf 4a0d 98bf 9ff9 b3bf
00000090: 400c 25bf ce57 e33f 3228 483f 1ee5 573f
000000a0: ce02 d73f e685 b33f a717 88bf 9b8f 1e40
000000b0: db92 843f 8bd5 1340 9943 f4bf 50db fdbf
000000c0: 5df1 16c0 d9e4 d23d f655 413d 694f a43f
000000d0: f140 463f 6de4 b33f 8726 9c3e 5b75 9abf
000000e0: 04cc a03f 0c43 503f a6c4 a23f 80d2 f93e
000000f0: 144f f73f 7fbb 1a3f 32cc d73f 827d 0640
00000100: e6c1 973f 9319 4c3f 39fd c8bf 30ef 43bf
00000110: 5074 003f 145d 5940 2b0e 2bc0 f4c5 e7bc
00000120: be35 86bd 428f e23f c8fb a43f 64d5 453f
00000130: 9b8f b33f 7361 0640 a681 7c3e 2e8d f53f
00000140: bbb8 a83f 9ffe a23f ace5 3340 d288 723f
00000150: 9e5f f23f dc56 c53f 040a afbf 215d cbbd
00000160: ea7e 8e3e f292 4a3f be26 993e 30d9 fd3f
00000170: 2a9e 94bf d2fa 99bf 5366 18c0 2501 3c3e
00000180: 142b bdbf 6139 71bf a930 7cbf 08b5 ddbe
00000190: 1e6e 1cc0 1da0 abbf 5f9b 643f a385 9e3f
000001a0: b41b d43f 1ec6 3e3e 0564 e53f 93b7 973f
000001b0: 93b7 14be 12eb 8f3f b78b 643f b008 f13f
000001c0: 8956 803e b897 26bf c3be e3bf 2a31 803e
000001d0: 187c 9b3f c0dc 1540 cd2e b5bf 4f16 c03f
000001e0: a8ec 3fbf f78c d9bf 658c cd3f 7e64 b2be
000001f0: a9f7 1ebf d7b7 8d3e 6a64 763f afa7 643f
00000200: bc1f 9fbe 3493 0e3e e422 0cbf 1a6e 7ebe
00000210: b54d 883e 8773 2c40 bd36 f53f ee7a 863e
00000220: e4ce c7be 6afd 08c0 ae9b cabf 65b6 edbf
00000230: 1b46 54bf 07ab 9abf deda dc3f 9bf1 093e
00000240: df34 cebf deb6 98bf ef66 88bf 0077 2abf
00000250: 7bb9 1d3f da49 503f 43c4 aabf c472 ea3f
00000260: daf8 20bf 6d73 d7bf 10ce ae3e 2c06 b53b
00000270: a8da 0340 a799 723f dd3b 70c0 c473 21bf
00000280: 815e 92bc 6b0d 14c0 24c9 c9bf 2299 efbf
00000290: 0b7c e5bf ecfc 7dbf 91d3 43c0 4642 55bf
000002a0: a73b 0240 fd8c d23f 838e 72bf ec2b 0dc0
000002b0: e843 103f 6c24 16be bcbb 9f3f 35f9 ab3f
000002c0: ea98 e9be dc71 a53f 7122 943f b7d1 d03f
000002d0: f886 9cbf 1347 dfbe 98f8 38bf 56ef 15c0
000002e0: b051 cebf 41e4 35bf 72a3 d8bc e1d4 d4be
000002f0: 541b 27c0 bf43 f13e 9994 343f 85a3 5d3f
00000300: 6621 813f c102 f63f 9339 013f 8734 83bf
00000310: a932 13c0 bc11 4abf dcb3 73bf 4661 913e
00000320: 26fb 163f be75 a23f 3be5 d7bf a9a2 97bf
00000330: 3635 233f f5ed 693f dedc a73e 3bfa 283d
00000340: e181 f5be 63ef 81bf 8851 fabe e1f8 acbf
00000350: d6f4 bebf d0e5 3a3f 321b af3e 46c7 acbe
00000360: 4b9e 8dbf de84 99bf 9e7e 1bc0 ff4c 09bf
00000370: 406b cd3e 7177 6a3f 2e86 20be 8604 45bf
00000380: 6614 273d 7603 ee3f 8695 c23f 0795 97be
00000390: 7624 3cbf 5989 2540 c96a 163f d914 e93f
000003a0: 4ddf 9f3e 1fcd 973e 480b 0bbf 6add 5a3f
000003b0: c072 32bf 9bbc 883f 455b a6bf 532c 48bf
000003c0: 8f67 7ebf ee12 4dbf 8920 e5bf 8456 183d
000003d0: 217e ed3f 5c2f 093f 6ede ab3f 01ad c73f
000003e0: 0473 b23f 386e e93f fc31 2640 9553 30bf
000003f0: 784c bebf 85f5 7f3e f61b 85be 234b a73f

gru.weight_ih_l0 f4 [6, 2]
0.04092893 -0.03524198 -0.32930416 -0.22806211 -0.03394847 0.22441351 0.92948437 0.97545743
-0.16644694 0.27353996 -0.85869867 -0.68349254
00000000: 18a5 273d e559 10bd 8e9a a8be 1d89 69be
00000010: 8d0d 0bbd a8cc 653e b0f2 6d3f 94b7 793f
00000020: 1171 2abe 6e0d 8c3e add3 5bbf 5ef9 2ebf

gru.weight_hh_l0 f4 [6, 2]
-1.1111457 0.5424373 -0.20028935 0.63231385 1.2122289 -0.54490864 0.54879624 -0.61251724
1.3809271 -0.26723322 0.044720396 -0.20617647
00000000: 063a 8ebf 2cdd 0a3f a718 4dbe 52df 213f
00000010: 512a 9b3f 227f 0bbf e97d 0c3f eecd 1cbf
00000020: 38c2 b03f cbd2 88be bc2c 373d ed1f 53be

gru.bias_ih_l0 f4 [6]
1.97646 1.6055342 -2.7801468 -1.416874 -1.5754819 1.2867671
00000000: a4fc fc3f 2582 cd3f eded 31c0 215c b5bf
00000010: 64a9 c9bf c9b4 a43f

gru.bias_hh_l0 f4 [6]
0.90006804 1.7378854 -2.713756 -2.3175228 -2.1551976 1.0374135
00000000: dc6a 663f 0773 de3f 2eae 2dc0 4b52 14c0
00000010: c2ee 09c0 f7c9 843f

fc.weight f4 [15345, 2]
3.3954024 -2.5797818 2.433848 -1.8925426 3.4776454 -1.913749 -0.6342602 0.8032711
-2.6942203 2.7188988 -1.897915 2.497109 -1.7267601 2.8583322 -2.041658 2.9309084
-2.2300093 2.2904518 -1.5366278 3.0481436 -2.2936087 2.4990308 -1.4595431 2.3332381
-1.2792209 2.441044 -2.3933256 2.0767355 -1.3962212 2.660538 -2.0846734 2.0575435
-1.1462586 2.4437811 -1.477976 1.918454 -1.6029243 2.3689628 -1.1768931 1.6700963
-1.7649295 2.2312949 -1.3781852 2.7099497 -1.6222701 1.4781194 -1.304332 2.0821557
-1.9765074 1.8093692 -1.8595921 2.0973675 -0.939187 2.5083058 -1.0587958 1.9967839
-1.2711524 2.1987557 -1.2100251 0.80688316 -1.4745159 1.7991905 -1.3950665 1.857698
-1.7614892 1.5041709 -1.060755 2.0242035 -1.3430055 1.7802896 -1.968045 1.51227
-1.7051901 1.2912538 -1.9544222 1.2568328 -1.430347 1.7589068 -0.73648626 1.4528172
-1.31981 1.1540269 -1.1975347 1.6895041 -1.7298623 1.3004649 -1.763051 1.4123265
-1.1344022 1.6488457 -0.8572232 1.2579744 -2.0370166 1.1073318 -0.9763504 1.3100543
-0.89550126 1.54993 -1.3438488 1.5190687 -0.54297507 1.5623748 -1.2992688 1.4413719
-0.9706467 1.579044 -1.0410033 1.3614122 -0.8885367 1.1657897 -1.5211524 0.010877396
-0.83844143 1.4489684 -1.615783 0.3205939 -0.6354355 1.5290947 -1.2005012 1.2953038
-0.65512174 1.7628212 -1.137806 0.6954676 -1.5940571 -1.1827439 -0.5152646 1.6367542
-1.28518 1.3369021 -1.2883209 1.7257982 -0.81408995 1.8477578 -0.69800025 0.98855835
-1.0801513 1.4822547 -1.2640185 0.51240015 -1.3157345 1.0434778 -1.2020671 1.6082983
-1.1468519 1.0748414 -0.9669353 1.7025473 -0.8320112 1.2049083 -1.1041968 1.0064648
-0.59742504 0.9337374 -0.7295157 0.984246 -0.8661436 1.5789777 -0.37416068 1.4588131
-0.79604656 -1.1537209 -1.3792026 -0.57562417 -1.0220705 1.3257132 -0.89805883 1.0574721
-1.4619194 1.0966147 -0.9134268 1.0250404 -0.9899806 1.154644 -1.1750635 0.5898298
-0.94161093 0.5842531 -0.7214583 -0.4886219 -1.4059051 1.0663203 -1.2077987 -0.1196376
-1.0577713 1.5099871 -0.6221416 0.39762717 -0.8998428 0.08719216 -0.8954702 1.0698129
-0.8852474 -1.0404389 -1.062436 0.4627457 -1.3955787 -0.052451618 -1.4856924 -0.053692758
-0.97848696 1.0903175 -0.93251956 -0.3717197 -1.2654606 0.77118385 -0.5550701 1.0590109
-1.0795914 1.2175702 -0.85914195 -0.2917442 -0.5523455 0.26122892 -0.8814996 0.3346921
-0.5267319 0.8623339 -0.52485305 1.5555841 -1.1648415 0.31554142 -0.39917773 1.1975715
-0.4277167 1.0578629 -1.6091709 -1.3074294 -0.37542173 1.683304 -1.0444627 -0.4937634
-0.7942315 -0.22502829 -0.6082459 0.5384376 -0.96541685 -0.14312875 -0.84624267 0.798875
-0.9412848 0.43663546 -0.9565674 0.3289914 -0.6604614 0.87688607 -1.2331877 0.03235407
-0.44493738 1.7499126 -0.2612751 1.2428898 -0.45576936 1.1089143 -1.0369895 0.9677236
00000000: 464e 5940 251b 25c0 2ac4 1b40 d63e f2bf
00000010: be91 5e40 baf5 f4bf e05e 22bf 2da3 4d3f
00000020: 1b6e 2cc0 7002 2e40 e1ee f2bf a2d0 1f40
00000030: 7a06 ddbf eaee 3640 86aa 02c0 0194 3b40
00000040: 79b8 0ec0 c396 1240 38b0 c4bf c914 4340
00000050: 7cca 12c0 1ff0 1f40 4fd2 babf c653 1540
00000060: 83bd a3bf 113a 1c40 3f2c 19c0 3ce9 0440
00000070: 60b7 b2bf 4146 2a40 4a6b 05c0 cbae 0340
00000080: 9ab8 92bf e966 1c40 512e bdbf e78f f53f
00000090: a02c cdbf 169d 1740 6fa4 96bf b7c5 d53f
000000a0: 36e9 e1bf 89cd 0e40 5f68 b0bf d16f 2d40
000000b0: 8ca6 cfbf 0433 bd3f 5af4 a6bf 0a42 0540
000000c0: 32fe fcbf 6999 e73f 1d07 eebf 453b 0640
000000d0: 8f6e 70bf 1588 2040 9f86 87bf 9d96 ff3f
000000e0: 1fb5 a2bf 6ab8 0c40 1ae2 9abf e58f 4e3f
000000f0: f0bc bcbf e04b e63f 8a91 b2bf 0cc9 ed3f
00000100: 7a78 e1bf ac88 c03f d2c6 87bf 8d8c 0140
00000110: 9be7 abbf 88e0 e33f e6e8 fbbf 1092 c13f
00000120: ab43 dabf ce47 a53f 822a fabf e6df a03f
00000130: 9c15 b7bf dc23 e13f 5d8a 3cbf eaf5 b93f
00000140: 89ef a8bf 27b7 933f d148 99bf ac41 d83f
00000150: 216c ddbf a275 a63f a8ab e1bf 1dc7 b43f
00000160: 1734 91bf 600d d33f fb72 5bbf 4e05 a13f
00000170: 7b5e 02c0 0cbd 8d3f 1af2 79bf dcaf a73f
00000180: 923f 65bf 1b64 c63f 3d03 acbf d870 c23f
00000190: 6a00 0bbf e6fb c73f 714e a6bf e07e b83f
000001a0: 4d7c 78bf 1d1e ca3f 993f 85bf c142 ae3f
000001b0: 2477 63bf 9938 953f 1fb5 c2bf 1b37 323c
000001c0: 19a4 56bf cc77 b93f fad1 cebf e224 a43e
000001d0: e7ab 22bf 60b9 c33f 06aa 99bf 84cc a53f
000001e0: 0fb6 27bf 20a4 e13f a1a3 91bf 2a0a 323f
000001f0: 100a ccbf 2764 97bf 61e8 03bf 2981 d13f
00000200: c780 a4bf 9c1f ab3f b3e7 a4bf f5e6 dc3f
00000210: 3368 50bf 5483 ec3f 25b0 32bf 2912 7d3f
00000220: 6642 8abf 86ba bd3f 5ccb a1bf a82c 033f
00000230: fd69 a8bf ae90 853f 56dd 99bf b8dc cd3f
00000240: 0bcc 92bf 6794 893f 1289 77bf 12ed d93f
00000250: b0fe 54bf 6f3a 9a3f 5256 8dbf d7d3 803f
00000260: d9f0 18bf 6a09 6f3f 8ac1 3abf 8cf7 7b3f
00000270: 96bb 5dbf f11b ca3f fd91 bfbe 63ba ba3f
00000280: b5c9 4bbf 20ad 93bf b689 b0bf 1b5c 13bf
00000290: 35d3 82bf f8b0 a93f 2fe7 65bf 3f5b 873f
000002a0: 2d20 bbbf df5d 8c3f 57d6 69bf 8634 833f
000002b0: 5e6f 7dbf 60cb 933f 7b68 96bf 16ff 163f
000002c0: 6a0d 71bf 9c91 153f 7eb1 38bf a62c fabe
000002d0: b3f4 b3bf 2f7d 883f 2699 9abf 8f04 f5bd
000002e0: 0d65 87bf 4247 c13f ac44 1fbf ca95 cb3e
000002f0: 195c 66bf ce91 b23d 893d 65bf a1ef 883f
00000300: 939f 62bf 1a2d 85bf e7fd 87bf 01ed ec3e
00000310: 53a2 b2bf 82d7 56bd 2b2b bebf f0ec 5bbd
00000320: 1f7e 7abf 868f 8b3f 9ab9 6ebf 0b52 bebe
00000330: 9dfa a1bf 4e6c 453f 1319 0ebf ab8d 873f
00000340: 0d30 8abf 57d9 9b3f baf0 5bbf 7f5f 95be
00000350: 8466 0dbf ccbf 853e f5a9 61bf c35c ab3e
00000360: e7d7 06bf eac1 5c3f c55c 06bf 611d c73f
00000370: 8719 95bf a58e a13e 0661 ccbe 064a 993f
00000380: affd dabe 0d68 873f 50f9 cdbf d959 a7bf
00000390: 4737 c0be 8176 d73f f4b0 85bf 8ece fcbe
000003a0: c152 4bbf d16d 66be 01b6 1bbf 0cd7 093f
000003b0: 8f25 77bf 5890 12be 5ca3 58bf 1283 4c3f
000003c0: 0af8 70bf af8e df3e 9ae1 74bf 9071 a83e
000003d0: 0014 29bf 9b7b 603f 18d9 9dbf b485 043d
000003e0: d5ce e3be 23fd df3f dac5 85be 0317 9f3f
000003f0: 9a5a e9be e7f0 8d3f 12bc 84bf bcbc 773f

fc.bias f4 [15345]
-2.702636 -2.2327285 -1.6565757 0.7836228 1.7605209 2.149543 1.7873253 1.254445
1.516503 1.6280093 1.1329337 2.0551717 1.8909866 1.0450662 1.5385376 1.2293789
1.7521968 1.8027253 1.2673608 2.2121382 1.2113639 1.0636917 1.7314459 1.520947
1.1057851 0.9386948 1.399924 1.6902945 1.1609 2.2484183 1.1584446 1.1635686
1.084213 1.2869747 1.0592226 0.62767774 1.1073416 0.77654964 0.9502985 1.6831216
1.2931541 1.006498 0.8576372 0.6501321 1.0259589 1.6424538 0.51021934 1.4400163
1.2487959 0.7206976 1.6136217 0.8212604 1.0282531 1.0412828 1.3159723 1.4832929
1.1392665 0.93878144 1.2488658 0.85256803 1.0841836 1.2429615 1.6640154 1.225518
0.68914056 0.29839945 0.72304755 1.5275908 0.77082866 1.2706188 0.81176174 0.44155362
0.79199487 0.51343346 0.9421394 0.91177416 1.3975403 1.0738765 0.53034 1.1677041
1.9387348 1.2637477 0.6271613 0.95091176 0.29303208 0.7518444 0.6249319 0.8148142
0.9802052 1.586288 0.23993078 0.87215036 0.23872998 1.2020581 1.2894872 0.6072586
1.621226 0.8245828 0.6812353 0.4737528 0.48932976 1.3822888 0.4104535 0.9870273
0.1713401 1.1162183 1.2106 0.70766014 0.9978706 0.44919103 0.53385895 0.79543924
0.8779781 0.8224392 0.3998088 1.0724117 1.1014258 0.98541284 1.0191208 0.5236394
0.54350525 0.77624786 0.7059923 0.54482865 0.22691433 0.87898237 0.73996407 0.27581224
1.1346579 1.0151492 1.2536547 0.036573283 0.5930911 0.6744561 0.47081077 1.0145063
0.5755341 0.76504767 0.09091908 0.68688196 0.5692018 1.0524396 0.20767237 0.29161623
0.34921584 0.3196034 0.06529729 0.6819911 0.817382 0.17922468 0.70088756 0.5823677
0.6748421 0.45757082 0.38430044 0.81898284 0.5080343 0.5327612 -0.0774954 0.18740831
0.37753 0.59824926 0.87616426 0.27995014 0.44767496 0.66545755 0.36189303 0.80185086
0.73775804 0.05961486 0.8551647 0.16924107 0.3622194 0.42738327 1.0406977 1.0184256
0.37337363 0.22459917 0.5806532 0.5999452 0.9217722 0.57057184 0.73141825 1.0216643
0.41824114 0.6716261 1.0747242 0.6988138 0.10859858 0.83393246 0.88982296 0.63165873
0.14343768 0.51757354 0.37864295 1.126143 0.7980771 0.9747831 0.13830137 0.44801894
0.48214936 0.6266239 0.4485522 0.96407425 0.6997612 0.621155 0.5417454 0.7836748
0.6073309 -0.034935407 0.42518365 0.8932946 1.0853326 0.601204 0.9713435 0.67314297
1.1215166 0.27295065 0.8911089 0.55370283 0.5424714 0.4075071 0.25565326 0.35744575
0.57057554 0.52321595 0.6418041 0.8628412 0.50441253 0.305154 1.1694338 0.73975307
0.62412244 0.19935995 0.8869305 0.65108055 0.030345755 0.62104887 0.9182812 1.0327808
-0.02870639 -0.2889735 0.41062653 0.2357361 0.9738977 0.84872 0.8695745 0.70417535
0.998914 0.42780206 1.0975162 1.0876667 0.60632277 0.5156928 0.07129739 0.9165886
00000000: fdf7 2cc0 06e5 0ec0 ac0a d4bf 819b 483f
00000010: c058 e13f 1d92 0940 13c7 e43f a791 a03f
00000020: c51c c23f 9c62 d03f f903 913f ef87 0340
00000030: d90b f23f bbc4 853f cdee c43f 4a5c 9d3f
00000040: fc47 e03f b4bf e63f e138 a23f ac93 0d40
00000050: f90d 9b3f 0d27 883f 05a0 dd3f 64ae c23f
00000060: 5e8a 8d3f 4d4e 703f b630 b33f 925b d83f
00000070: 5f98 943f 16e6 0f40 ea47 943f d1ef 943f
00000080: 7ec7 8a3f 96bb a43f 9b94 873f 7daf 203f
00000090: 5fbd 8d3f f5cb 463f c346 733f 8770 d73f
000000a0: 1386 a53f edd4 803f 1d8e 5b3f 0f6f 263f
000000b0: 9f52 833f ed3b d23f bc9d 023f 7452 b83f
000000c0: 8bd8 9f3f a37f 383f 288b ce3f 1f3e 523f
000000d0: cc9d 833f c148 853f c871 a83f 8bdc bd3f
000000e0: 7cd3 913f fb53 703f d6da 9f3f e641 5a3f
000000f0: 87c6 8a3f 5d19 9f3f 75fe d43f c6dd 9c3f
00000100: 846b 303f d0c7 983e a519 393f 1888 c33f
00000110: 0755 453f a3a3 a23f 9ecf 4f3f 5113 e23e
00000120: 2dc0 4a3f 6070 033f 0c30 713f 086a 693f
00000130: 9ae2 b23f c974 893f 5dc4 073f 5477 953f
00000140: 7628 f83f 7cc2 a13f a58d 203f f46e 733f
00000150: 4d08 963e e078 403f 89fb 1f3f aa97 503f
00000160: baee 7a3f 7c0b cb3f 6ab0 753e 3f45 5f3f
00000170: a275 743e 0add 993f eb0d a53f 4d75 1b3f
00000180: 5584 cf3f dc17 533f 7065 2e3f ba8f f23e
00000190: 6e89 fa3e d7ee b03f f626 d23e d2ad 7c3f
000001a0: c773 2f3e 3ee0 8e3f f1f4 9a3f 3729 353f
000001b0: 7374 7f3f 5efc e53e fbaa 083f e8a1 4b3f
000001c0: 2cc3 603f 608b 523f bdb3 cc3e c944 893f
000001d0: 85fb 8c3f 0444 7c3f 8d72 823f 3b0d 063f
000001e0: 2923 0b3f 2eb8 463f e9bb 343f e479 0b3f
000001f0: 3b5c 683e fd04 613f 496e 3d3f 4337 8d3e
00000200: 783c 913f 69f0 813f c277 a03f decd 153d
00000210: d1d4 173f 28a9 2c3f 1c0e f13e 58db 813f
00000220: 3456 133f 2ada 433f c833 ba3d 7fd7 2f3f
00000230: 36b7 113f 57b6 863f 11a8 543e b94e 953e
00000240: 6bcc b23e 0fa3 a33e 96ba 853d f896 2e3f
00000250: f23f 513f ad86 373e 5e6d 333f 0d16 153f
00000260: 74c2 2c3f b946 ea3e 07c3 c43e dca8 513f
00000270: 890e 023f 0a63 083f e9b5 9ebd f7e7 3f3e
00000280: 9d4b c13e dd26 193f 4d4c 603f a055 8f3e
00000290: a735 e53e 6d5b 2a3f 0b4a b93e 1946 4d3f
000002a0: b6dd 3c3f b62e 743d 13ec 5a3f 884d 2d3e
000002b0: d274 b93e fbd1 da3e 9535 853f c55b 823f
000002c0: d42a bf3e 53fd 653e b0a5 143f 0296 193f
000002d0: 43f9 6b3f ff10 123f 3a3e 3b3f e5c5 823f
000002e0: b423 d63e b0ef 2b3f 9090 893f 76e5 323f
000002f0: ef68 de3d 997c 553f 70cb 633f 63b4 213f
00000300: 54e1 123e b37f 043f 7ddd c13e 7425 903f
00000310: c84e 4c3f 638b 793f e09e 0d3e bd62 e53e
00000320: 48dc f63e 6d6a 203f a2a8 e53e 92cd 763f
00000330: 8d23 333f 0404 1f3f d4af 0a3f e99e 483f
00000340: 0a7a 1b3f 6e18 0fbd acb1 d93e f4ae 643f
00000350: 2eec 8a3f 81e8 193f f8a9 783f 1953 2c3f
00000360: db8d 8f3f 30c0 8b3e b61f 643f 78bf 0d3f
00000370: 68df 0a3f c5a4 d03e fce4 823e 2103 b73e
00000380: 3d11 123f 7bf1 053f 464d 243f 29e3 5c3f
00000390: 2e21 013f 253d 9c3e 02b0 953f 7560 3d3f
000003a0: 7dc6 1f3f 0425 4c3e e10d 633f 37ad 263f
000003b0: a997 f83c 0ffd 1e3f 7a14 6b3f 2932 843f
000003c0: aa29 ebbc 56f4 93be a43d d23e ce64 713e
000003d0: 5c51 793f b745 593f 6f9c 5e3f d644 343f
000003e0: d4b8 7f3f df08 db3e 697b 8c3f aa38 8b3f
000003f0: f837 1b3f 7104 043f 5e04 923d 8da5 6a3f
