experiments/gru_h2_l1_20241125_141731/final_model.pth (torch, 311152 bytes, 7 tensors)

embedding.weight f4 [15345, 2]
-0.06300406 -1.4444698 -0.4442636 -1.186145 -0.3548087 -1.3981291 0.9401578 -0.15838425
-1.8144401 0.014255972 -1.7452722 -1.3024611 -0.64375097 -2.3358335 0.4271897 -0.3983407
0.23806323 -0.4769292 -2.0174153 -1.152404 -0.9965074 -2.564806 -1.1957195 -1.2644179
-1.3447584 -1.6307763 -1.4131899 -0.88678396 -1.4805794 -1.4037824 -1.3844348 -1.7354372
3.2544446 0.7405728 1.9295044 3.4686396 -0.06843973 0.39929828 -0.4667522 -1.3944436
-2.2547746 -0.67734206 -0.7541345 -0.85929793 -1.4691246 -1.3242117 2.1166942 1.1624151
2.6862228 0.24978627 -0.54767954 -0.7458473 -1.4724205 -0.6689071 -0.1638519 -0.96602416
0.23235981 -2.3392518 -1.1957446 -0.50556856 -1.6376771 -1.473704 -1.4954315 -1.6882051
-0.5081535 -1.6634053 0.014402559 2.951348 -1.5193262 -1.4535272 1.0204886 0.4529778
-0.77107584 -0.6815735 -0.37310207 -2.3692849 -0.9846283 -2.2942345 -0.9133509 -1.3580788
-3.453877 0.67688113 -2.4860427 -0.90417033 -3.2848866 0.37130916 2.7989533 0.9884354
0.6210271 0.043535322 -1.2765009 -1.0569139 0.63083464 0.4975334 0.6483232 0.18620965
0.46175608 -0.62680036 -0.36956966 2.8237462 1.1412284 0.83263946 -1.5292809 -0.90021276
-1.4070535 -1.0117687 -3.0624359 0.31066948 1.0715666 -0.20139338 -1.7532917 -0.88788193
0.5847001 0.93514204 0.63259864 -1.1506721 -1.7620339 -1.3237412 1.0709313 0.86348677
1.7910035 1.2441247 0.2014707 -0.6571359 -0.26966348 0.49490675 -1.1021206 -1.1786522
0.66396475 1.1991264 -0.34598726 0.5856942 -0.043351818 -2.7741697 -1.0885385 -0.78348356
0.99154097 1.4929506 0.38480297 0.56243503 0.8155097 1.3709271 0.847078 -2.189504
1.5295914 1.0030721 -0.5090232 0.65387005 -1.0159239 -0.06778872 1.0589437 -0.50218916
0.95459336 0.70685 0.22515313 -1.1252592 -1.1951772 -2.2829766 1.4277693 1.5092207
3.325786 0.09636676 0.6344666 1.1938806 1.2817138 0.857871 2.0451868 0.73450124
-2.2446961 -1.2431464 1.4042543 0.5015901 -0.92261255 0.23823658 -0.6795036 -1.5877924
-0.75754976 1.4341218 -0.9726086 -1.7390274 1.0994642 1.7481054 -0.30129886 1.4681723
2.511712 1.4812329 1.5861526 1.2118856 2.9402022 -1.2527721 -1.391659 -0.4613958
-1.2821856 -1.1351829 -0.29375628 1.2572141 0.5090302 2.8258035 0.703276 1.7142205
-0.9543562 -0.40880275 1.0866419 1.392402 0.8744814 2.2108114 1.3233999 0.1605187
1.7843015 1.1016654 2.0021393 -0.133089 0.047551095 -1.1880718 0.43303517 3.117683
0.36224076 1.6859089 2.7205946 -0.4523224 0.31402007 -1.0294361 1.662576 0.591211
-0.53152025 -1.1837069 1.0589776 0.7213383 -0.62086976 -0.85569733 -0.4551795 -1.6027973
1.2897505 -0.10683879 1.1294296 2.6459377 1.109537 0.74054205 0.31578228 0.8151962
-0.21477057 1.2427436 -0.30839622 0.5641859 0.77070075 -1.33983 -0.2841732 -2.2215738
-1.0451505 -1.9919814 -1.5243748 -1.0946434 -0.5118313 -0.51705897 -0.051071 -0.39576015
00000000: 4608 81bd 63e4 b8bf 8576 e3be 99d3 97bf
00000010: 7ca9 b5be e5f5 b2bf 2eae 703f 7b2f 22be
00000020: 933f e8bf e191 693c 1465 dfbf 0cb7 a6bf
00000030: ddcc 24bf 4c7e 15c0 9cb8 da3e 50f3 cbbe
00000040: d9c6 733e 1030 f4be 551d 01c0 f981 93bf
00000050: 1c1b 7fbf c825 24c0 560d 99bf 72d8 a1bf
00000060: 0b21 acbf 47bd d0bf 68e3 b4bf 4604 63bf
00000070: a083 bdbf 24af b3bf 2935 b1bf ce22 debf
00000080: d248 5040 2e96 3d3f 00fa f63f 31fe 5d40
00000090: 212a 8cbd d370 cc3e 25fa eebe 217d b2bf
000000a0: 3a4e 10c0 4a66 2dbf f50e 41bf f3fa 5bbf
000000b0: 460c bcbf c57f a9bf eb77 0740 05ca 943f
000000c0: 13eb 2b40 f9c7 7f3e ba34 0cbf d9ef 3ebf
000000d0: 4678 bcbf 7f3d 2bbf cbc8 27be 5c4d 77bf
000000e0: bbef 6d3e 4db6 15c0 290e 99bf f16c 01bf
000000f0: 679f d1bf 55a2 bcbf 4d6a bfbf 1b17 d8bf
00000100: 5916 02bf 77ea d4bf b6f8 6b3c e3e2 3c40
00000110: 4879 c2bf 2e0d babf 5f9f 823f b5ec e73e
00000120: 3a65 45bf 9a7b 2ebf 3c07 bfbe 5da2 17c0
00000130: 9a10 7cbf bdd4 12c0 5dd1 69bf 87d5 adbf
00000140: 520c 5dc0 1548 2d3f 531b 1fc0 b577 67bf
00000150: 953b 52c0 3c1c be3e 0d22 3340 1a0a 7d3f
00000160: a2fb 1e3f 1852 323d 6264 a3bf f448 87bf
00000170: 617e 213f b3bc fe3e 82f8 253f bead 3e3e
00000180: 4b6b ec3e fd75 20bf 3c38 bdbe 42b8 3440
00000190: c613 923f dc27 553f 7abf c3bf 5874 66bf
000001a0: 541a b4bf a381 81bf f3fe 43c0 1210 9f3e
000001b0: 1829 893f 113a 4ebe dd6b e0bf 3b4c 63bf
000001c0: e8ae 153f 7865 6f3f fcf1 213f 3949 93bf
000001d0: 548a e1bf 5a70 a9bf 4714 893f 780d 5d3f
000001e0: 9a3f e53f 7a3f 9f3f 564e 4e3e 0f3a 28bf
000001f0: 5511 8abe 6b64 fd3e 4a12 8dbf 13de 96bf
00000200: 98f9 293f f97c 993f 3e25 b1be 0ef0 153f
00000210: ad91 31bd ff8b 31c0 3b55 8bbf 6192 48bf
00000220: a1d5 7d3f 0119 bf3f e504 c53e befb 0f3f
00000230: 3ec5 503f 8a7a af3f 1bda 583f d520 0cc0
00000240: a7c9 c33f ab64 803f 584f 02bf 0764 273f
00000250: cb09 82bf d0d4 8abd 788b 873f 788f 00bf
00000260: 3b60 743f 1ff4 343f 8b8e 663e 7e08 90bf
00000270: 91fb 98bf 4a1c 12c0 25c1 b63f 252e c13f
00000280: aed9 5440 f05b c53d 676c 223f 14d1 983f
00000290: 330f a43f 6f9d 5b3f 57e4 0240 4608 3c3f
000002a0: 1aa9 0fc0 6c1f 9fbf 9bbe b33f 3568 003f
000002b0: 5630 6cbf 4af4 733e f3f3 2dbf c83c cbbf
000002c0: c8ee 41bf 4e91 b73f e1fc 78bf 7398 debf
000002d0: 3ebb 8c3f ebc1 df3f d843 9abe 12ed bb3f
000002e0: e4bf 2040 0a99 bd3f 0c07 cb3f 111f 9b3f
000002f0: 462c 3c40 d65a a0bf e221 b2bf 123c ecbe
00000300: a81e a4bf ac4d 91bf 3967 96be 64ec a03f
00000310: ce4f 023f f7d9 3440 e509 343f 946b db3f
00000320: b050 74bf 984e d1be 1517 8b3f 3b3a b23f
00000330: 03de 5f3f ef7d 0d40 2b65 a93f 045f 243e
00000340: fe63 e43f 5f03 8d3f 0d23 0040 7c48 08be
00000350: f0c4 423d bd12 98bf c9b6 dd3e 1e88 4740
00000360: 9f77 b93e ddcb d73f 391e 2e40 cd96 e7be
00000370: 3dc7 a03e 90c4 83bf 4acf d43f 9b59 173f
00000380: b611 08bf b583 97bf 948c 873f a0a9 383f
00000390: 52f1 1ebf fb0e 5bbf 4a0d e9be 7628 cdbf
000003a0: 8b16 a53f 4cce dabd 2691 903f 0b57 2940
000003b0: 4f05 8e3f 2a94 3d3f 37ae a13e b3b0 503f
000003c0: d1ec 5bbe 3912 9f3f 1ce6 9dbe 7d6e 103f
000003d0: a54c 453f 8d7f abbf 267f 91be 442e 0ec0
000003e0: 7ec7 85bf 3ff9 febf b71e c3bf 461d 8cbf
000003f0: 6007 03bf fa5d 04bf d32f 51bd 13a1 cabe

gru.weight_ih_l0 f4 [6, 2]
0.0020684116 0.192179 0.038938083 0.066827 -1.1229465 -1.066041 -0.8475736 -0.7769012
0.6081166 0.6163833 0.5390548 0.3783444
00000000: 308e 073b 92ca 443e 8a7d 1f3d 98dc 883d
00000010: b6bc 8fbf 0874 88bf 95fa 58bf ffe2 46bf
00000020: 88ad 1b3f 4ccb 1d3f 7fff 093f 5bb6 c13e

gru.weight_hh_l0 f4 [6, 2]
0.55547184 0.6178504 0.29292324 0.09312398 -0.26446766 -1.0196345 -1.1810547 -0.13729927
0.22707823 -0.9536737 0.10093204 -0.5350425
00000000: 6733 0e3f 722b 1e3f 09fa 953e c9b7 be3d
00000010: 4e68 87be 6283 82bf cd2c 97bf 2e98 0cbe
00000020: 3287 683e f623 74bf 75b5 ce3d 8cf8 08bf

gru.bias_ih_l0 f4 [6]
1.7034568 2.027144 -1.755738 -2.4811685 1.6163559 1.2354828
00000000: df0a da3f babc 0140 06bc e0bf 77cb 1ec0
00000010: c0e4 ce3f 4d24 9e3f

gru.bias_hh_l0 f4 [6]
1.2375664 0.9115869 -1.4669904 -1.4393048 1.0361854 1.4088255
00000000: 9368 9e3f c25d 693f 57c6 bbbf 243b b8bf
00000010: b9a1 843f 6554 b43f

fc.weight f4 [15345, 2]
-2.8386054 -3.2857528 -2.6747336 -2.6861439 -3.2622056 -3.4130416 0.54567325 0.6770127
3.0678334 2.358024 2.215844 2.3829079 2.3439667 2.4072893 2.3888836 1.7641697
2.352199 2.3634615 2.0720801 2.7275627 1.7483395 2.1213427 1.6987393 2.4392035
2.110872 1.773938 1.8698131 1.6246136 1.8135401 1.9475061 1.5315652 2.2641227
2.0250502 2.0394673 1.5909631 1.9035283 1.6324192 2.0564659 1.6427137 1.8675741
2.0526307 1.9245442 1.4109709 1.8474039 2.6157718 1.342152 1.8783573 1.582233
1.6217892 2.209753 1.6481888 1.3132163 1.6457653 1.8022015 1.8366157 1.6196626
1.7378165 1.9767205 1.1565018 1.7717596 2.232987 1.1941037 2.0630276 1.1593504
1.353847 0.90317345 1.0115219 1.7639716 0.87422377 2.0345447 1.9880873 0.9376432
1.6191839 1.3698102 1.3742087 1.5592016 1.7415484 1.1849546 0.656991 1.8292536
0.82730925 0.6580334 1.8696316 1.2206829 1.781065 1.294015 0.981766 1.446305
1.3539208 1.4756569 1.0901519 2.0217335 1.0098877 1.6595744 1.1603307 0.9129741
1.3760957 0.7202608 0.8436532 1.2135588 1.3124603 1.6116116 1.7787273 1.0311465
1.0417802 1.5038829 1.005622 1.2685682 1.5115356 1.0083205 1.2928613 1.2466851
0.9412884 1.804833 0.76438737 0.72856003 1.7836171 0.8964168 1.1147135 1.1004955
0.97764933 0.68747336 1.0799155 1.1523808 0.54023254 0.9966497 1.5874568 0.71423215
1.3638734 0.9313754 0.99635345 1.1891788 0.590872 1.2314057 1.5878814 0.8351987
0.5288431 1.3507583 0.5283049 1.9275072 1.5946894 0.9899372 0.8680049 1.3312097
1.0223565 0.61494166 0.77509403 1.3058196 1.3485899 1.4511137 1.6208038 0.7656508
0.5237629 0.87957066 0.7054353 1.1044043 0.9381693 1.1462135 0.7804728 1.4962101
-0.364716 1.1830623 -0.13158791 1.2828339 1.0472802 0.603874 0.6637962 1.142615
1.6945618 0.97542137 1.1581613 0.5699018 1.0846872 0.6807455 0.8526065 1.3348918
0.7109034 1.2570101 0.21070041 0.44394997 0.8696812 1.2735934 0.37033007 1.2863386
1.3365238 0.3647097 1.4678108 0.48487383 0.9374712 0.6765127 1.5830183 0.7036671
-0.060724914 0.4799174 0.8322278 0.99652296 0.9542529 0.42623803 0.16095343 0.9579194
0.23318268 0.7039256 1.2607985 0.5029386 1.0558162 0.23911698 0.24527434 1.0428342
1.1650367 0.48820794 0.1392519 1.0779849 0.8455114 0.34841084 0.27413854 0.6830306
-0.004189988 1.086235 0.83009666 0.8997872 -0.17864922 1.1099001 0.59459126 1.1700498
0.30290008 0.60519785 1.057167 0.22540511 0.78085625 0.44820818 0.8653043 0.35387456
0.12627956 0.9262642 1.1712677 0.09630785 0.5979042 1.169271 0.49539775 1.0378215
0.4176378 1.0945699 0.64864635 1.263561 1.3811948 0.5112421 0.51644474 0.54056853
0.023254717 1.2185884 0.8506265 0.7821831 0.60554904 0.90325946 0.50737935 0.62673235
00000000: b6ab 35c0 c649 52c0 d62e 2bc0 c8e9 2bc0
00000010: fac7 50c0 466f 5ac0 3eb1 0b3f b450 2d3f
00000020: 6257 4440 dde9 1640 63d0 0d40 9081 1840
00000030: 8d03 1640 0711 1a40 78e3 1840 50d0 e13f
00000040: 6e8a 1640 f442 1740 f69c 0440 6390 2e40
00000050: 97c9 df3f 14c4 0740 4a70 d93f e91b 1c40
00000060: 8718 0740 6610 e33f 0956 ef3f 57f3 cf3f
00000070: 1522 e83f e147 f93f 540a c43f 63e7 1040
00000080: 6c9a 0140 a286 0240 aea4 cb3f d1a6 f33f
00000090: 1df3 d03f 239d 0340 7144 d23f ab0c ef3f
000000a0: 4d5e 0340 7757 f63f b29a b43f bb77 ec3f
000000b0: ce68 2740 a3cb ab3f 036e f03f 9c86 ca3f
000000c0: ca96 cf3f 986c 0d40 daf7 d23f 7917 a83f
000000d0: 70a8 d23f 8aae e63f 3916 eb3f 1b51 cf3f
000000e0: c570 de3f 2d05 fd3f 4008 943f 05c9 e23f
000000f0: 42e9 0e40 64d8 983f a508 0440 9865 943f
00000100: dc4a ad3f 6036 673f 8d79 813f d2c9 e13f
00000110: 21cd 5f3f fb35 0240 a579 fe3f 6209 703f
00000120: 6b41 cf3f f155 af3f 12e6 af3f eb93 c73f
00000130: 0feb de3f 98ac 973f 9030 283f fb24 ea3f
00000140: 8aca 533f e074 283f 1750 ef3f 563f 9c3f
00000150: f0f9 e33f 49a2 a53f 0455 7b3f 8620 b93f
00000160: 474d ad3f 53e2 bc3f 198a 8b3f 1564 0140
00000170: 0044 813f ef6c d43f b785 943f acb8 693f
00000180: e723 b03f 0363 383f a8f9 573f e555 9b3f
00000190: b3fe a73f 4a49 ce3f 56ad e33f 9cfc 833f
000001a0: 0e59 853f 3c7f c03f 39b8 803f 7160 a23f
000001b0: 007a c13f a510 813f 7b7c a53f 6193 9f3f
000001c0: 47f8 703f c504 e73f e4ae 433f e982 3a3f
000001d0: 914d e43f 927b 653f efae 8e3f 09dd 8c3f
000001e0: 3a47 7a3f 41fe 2f3f ac3a 8a3f 3781 933f
000001f0: ae4c 0a3f 6f24 7f3f c931 cb3f ebd7 363f
00000200: 6793 ae3f 9e6e 6e3f 0511 7f3f 0337 983f
00000210: 6343 173f b49e 9d3f b33f cb3f 95cf 553f
00000220: 4362 073f a6e5 ac3f fd3e 073f 8eb8 f63f
00000230: c81e cc3f 866c 7d3f 9235 5e3f 1465 aa3f
00000240: 94dc 823f d16c 1d3f 906c 463f 1925 a73f
00000250: 989e ac3f 18be b93f 8076 cf3f b101 443f
00000260: 5315 063f 8b2b 613f 6897 343f 1f5d 8d3f
00000270: dd2b 703f 20b7 923f 11cd 473f d083 bf3f
00000280: 0ebc babe 966e 973f fbbe 06be e733 a43f
00000290: 470d 863f 7d97 1a3f 8cee 293f 3541 923f
000002a0: 67e7 d83f 37b5 793f a13e 943f 16e5 113f
000002b0: 08d7 8a3f 5645 2e3f 6b44 5a3f bcdd aa3f
000002c0: c4fd 353f b5e5 a03f d9c1 573e 694d e33e
000002d0: 6da3 5e3f 1c05 a33f e79b bd3e bea6 a43f
000002e0: 3613 ab3f 3bbb ba3e 39e1 bb3f 6241 f83e
000002f0: 1dfe 6f3f f02f 2d3f 58a0 ca3f 8723 343f
00000300: b0ba 78bd bcb7 f53e e20c 553f 211c 7f3f
00000310: eb49 743f df3b da3e fad0 243e 353a 753f
00000320: 71c7 6e3e 7834 343f d861 a13f 96c0 003f
00000330: fc24 873f 15db 743e 3229 7b3e 977b 853f
00000340: ec1f 953f 64f6 f93e 0d98 0e3e 69fb 893f
00000350: 6f73 583f e862 b23e e35b 8c3e 18db 2e3f
00000360: 2b4c 89bb c009 8b3f 3781 543f 7458 663f
00000370: d2ef 36be 3511 8e3f 2237 183f 31c4 953f
00000380: b815 9b3e 3fee 1a3f 4051 873f 99d0 663e
00000390: 32e6 473f 8b7b e53e 9584 5d3f 0c2f b53e
000003a0: 6e4f 013e a71f 6d3f 1aec 953f 0d3d c53d
000003b0: 4010 193f acaa 953f c6a4 fd3e 56d7 843f
000003c0: 9fd4 d53e de1a 8c3f b00d 263f 5ebc a13f
000003d0: feca b03f c3e0 023f b935 043f b362 0a3f
000003e0: ad80 be3c b4fa 9b3f a9c2 593f 273d 483f
000003f0: 4305 1b3f 033c 673f 9de3 013f 8871 203f

fc.bias f4 [15345]
-2.0567834 -2.073349 -1.8206785 0.7989743 1.6903739 1.8965224 1.4795077 1.9135796
1.2321002 1.1938038 1.9120853 1.5832822 1.586106 1.9271045 1.6268768 1.4388211
1.1465816 1.6010427 1.3858768 1.5791439 1.1286523 1.6313065 0.9563657 1.3103768
0.9407017 1.7351564 1.2358614 1.1849123 0.7966295 1.3784295 0.9026137 1.139285
1.911597 1.3070531 1.0661156 1.1475435 0.983636 0.94592613 1.0057327 1.2803771
1.9625386 0.7486569 0.6478641 1.2544316 0.8653763 0.51866966 0.9210147 1.4245106
1.363292 1.2654666 0.6063435 0.7232138 0.8672717 1.0866467 0.70562893 0.70039785
0.663458 1.4976914 0.66721076 1.0768963 1.4882003 0.8730524 1.2954166 0.9280389
0.9707886 0.9633821 1.3325938 0.7031031 1.2288151 0.53826076 0.5533844 0.93298346
1.2913613 0.81764764 0.1911415 0.5093206 1.355241 0.9465462 0.6889458 0.51012236
1.405056 1.239638 1.1183794 0.9824782 0.16358417 0.8122458 0.9752104 0.44017717
0.611241 1.4503783 0.5213289 0.5855106 0.9260709 0.46243364 0.7074922 0.2933778
1.4657824 0.49561742 0.86946636 0.9809117 1.329813 0.5774695 1.0430145 0.9770294
0.73438936 0.66526383 0.9704183 1.029374 1.0898687 0.6578907 0.9903129 0.47844866
1.1947343 0.6349801 0.9360106 0.7172531 0.71413755 0.76587164 0.17767854 0.6039449
0.5181606 0.17025054 0.3273721 0.88019675 0.81546766 0.59567565 0.576209 0.83120406
0.8228232 0.65264446 0.67305446 0.7344583 0.11669059 0.4112644 0.45669955 0.7468865
1.0055362 0.54603565 0.38511893 0.7233586 0.5234682 0.9251864 0.46795237 0.27108386
0.26722276 0.50147355 0.8127807 0.28370038 0.9415448 0.55613667 0.9461073 0.53015894
0.58239824 0.5413451 0.5553004 0.33586213 0.53826916 1.1006922 0.7785877 0.82211787
0.4834876 0.21466233 0.69860464 0.41488835 0.8891 0.6674171 0.91821057 0.9816984
0.76746047 0.4541653 0.84106034 0.81384265 0.6672845 0.8602131 0.016244585 -0.0013948668
0.8796 0.33281264 0.11449061 0.40620658 0.40876168 0.73636174 1.0241605 0.61503834
0.683748 0.9648754 1.0462486 0.9059246 0.82743627 0.17491288 0.70672905 0.55645895
1.2232615 0.57416725 0.5870327 0.58644575 0.599524 -0.097690426 0.8131425 0.3548294
0.6710602 0.09934246 0.21490036 0.32180005 0.20201327 0.86423224 0.5481427 0.17707244
0.73157305 0.69744015 0.6511942 0.91550666 0.49204177 0.81796837 0.061199415 0.57980835
0.8368933 0.8992823 0.02404018 0.12168193 0.13825409 1.1985714 0.44617283 0.34412888
1.1214715 0.4331305 0.68498063 0.29784915 0.20446157 0.73552626 0.38473365 0.5670512
0.4513535 0.6571212 0.5722132 0.7717154 0.40723428 0.51274365 0.24710804 1.038381
0.5537498 0.51547307 0.7470194 0.2641297 -0.12641224 0.64075035 0.9756183 -0.03760039
0.70409185 0.9461777 0.4829817 0.45070976 0.7974464 1.1548283 0.72858274 0.3870774
00000000: 57a2 03c0 c0b1 04c0 fe0b e9bf 9489 4c3f
00000010: 2c5e d83f 3fc1 f23f 8260 bd3f 2df0 f43f
00000020: 76b5 9d3f 90ce 983f 36bf f43f fea8 ca3f
00000030: 8505 cb3f 5cab f63f 803d d03f 4a2b b83f
00000040: 30c3 923f f8ee cc3f 6964 b13f 6321 ca3f
00000050: ae77 903f a7ce d03f 62d4 743f 6dba a73f
00000060: d4d1 703f 9b19 de3f b530 9e3f 35ab 973f
00000070: e9ef 4b3f 6170 b03f b111 673f 17d4 913f
00000080: 36af f43f 844d a73f 7a76 883f b5e2 923f
00000090: 92cf 7b3f 3728 723f d9bb 803f 66e3 a33f
000000a0: 7734 fb3f fba7 3f3f 6cda 253f 3791 a03f
000000b0: 4d89 5d3f 89c7 043f 9fc7 6b3f 5d56 b63f
000000c0: 5a80 ae3f cffa a13f 5439 1b3f 8a24 393f
000000d0: 8505 5e3f 3d17 8b3f 19a4 343f 464d 333f
000000e0: 62d8 293f 5ab4 bf3f 53ce 2a3f bdd7 893f
000000f0: 597d be3f 5d80 5f3f 36d0 a53f f593 6d3f
00000100: 9a85 783f 36a0 763f 6f92 aa3f 91fe 333f
00000110: d049 9d3f 75cb 093f 9aaa 0d3f 01d8 6e3f
00000120: 544b a53f 5b51 513f 99ba 433e d662 023f
00000130: 8978 ad3f da50 723f c05e 303f 6197 023f
00000140: e0d8 b33f 75ac 9e3f 0e27 8f3f b183 7b3f
00000150: 9c82 273e 57ef 4f3f 64a7 793f e75e e13e
00000160: 4a7a 1c3f ffa5 b93f d075 053f 06e4 153f
00000170: fc12 6d3f 1ac4 ec3e 351e 353f 9d35 963e
00000180: c29e bb3f 91c1 fd3e 5995 5e3f 071d 7b3f
00000190: 5037 aa3f 0bd5 133f 8081 853f 991e 7a3f
000001a0: f100 3c3f bb4e 2a3f 556d 783f 87c2 833f
000001b0: d180 8b3f 866b 283f 2585 7d3f 39f7 f43e
000001c0: 0eed 983f 0e8e 223f 649e 6f3f e69d 373f
000001d0: b8d1 363f 2a10 443f 5df1 353e 229c 1a3f
000001e0: 2ca6 043f 2856 2e3e 519d a73e 9354 613f
000001f0: 7dc2 503f 337e 183f 6f82 133f cac9 543f
00000200: 8ba4 523f b513 273f 4c4d 2c3f 7605 3c3f
00000210: 7afb ee3d 3f91 d23e 86d4 e93e f433 3f3f
00000220: 69b5 803f fec8 0b3f 4f2e c53e 072e 393f
00000230: 0302 063f 04d9 6c3f 7497 ef3e 81cb 8a3e
00000240: 6cd1 883e 9260 003f 6512 503f 2d41 913e
00000250: 1409 713f f95e 0e3f 1734 723f 7fb8 073f
00000260: 0d18 153f 9895 0a3f 2b28 0e3f 1ff6 ab3e
00000270: 02cc 093f 7be3 8c3f 8651 473f 5176 523f
00000280: b08b f73e 71d0 5b3e c1d7 323f 3f6c d43e
00000290: 0f9c 633f d9db 2a3f d90f 6b3f 9650 7b3f
000002a0: 4a78 443f 5b88 e83e bb4f 573f fe57 503f
000002b0: 28d3 2a3f ed36 5c3f 5d13 853c f7d3 b6ba
000002c0: 772d 613f 6b66 aa3e 0e7a ea3d 4ffa cf3e
000002d0: 3649 d13e 3482 3c3f b117 833f 2773 1d3f
000002e0: 1c0a 2f3f 1302 773f 79eb 853f adea 673f
000002f0: ddd2 533f 5d1c 333e 32ec 343f 1874 0e3f
00000300: d593 9c3f a0fc 123f c647 163f 4f21 163f
00000310: 687a 193f eb11 c8bd 1b2a 503f 33ac b53e
00000320: 9aca 2b3f 0f74 cb3d d70e 5c3e fac2 a43e
00000330: 91dc 4e3e 533e 5d3f 1453 0c3f 7a52 353e
00000340: 5f48 3b3f 708b 323f aab4 263f a55e 6a3f
00000350: e6ec fb3e 6066 513f 3dac 7a3d 526e 143f
00000360: a43e 563f 5d37 663f e9ef c43c 6034 f93d
00000370: 7b92 0d3e ca6a 993f c470 e43e a931 b03e
00000380: 618c 8f3f 48c3 dd3e e45a 2f3f af7f 983e
00000390: 605e 513e 734b 3c3f cffb c43e 442a 113f
000003a0: ce17 e73e 1839 283f 907c 123f 248f 453f
000003b0: 0381 d03e 2b43 033f e409 7d3e abe9 843f
000003c0: 8cc2 0d3f 0bf6 033f aa3c 3f3f 023c 873e
000003d0: 3672 01be 3708 243f 1fc2 793f de02 1abd
000003e0: 5d3f 343f b438 723f 6149 f73e 6ec3 e63e
000003f0: 7325 4c3f 6ad1 933f 6684 3a3f 022f c63e
