experiments/gru_h2_l1_20241125_150248_small/final_model.pth (torch, 90672 bytes, 7 tensors)

embedding.weight f4 [4309, 2]
00000000: b3a3 d2bc ddda db3e 1efb 3ebe c8fe 05bf
00000010: 1062 653f f5d2 23bf 00d0 5dbf d797 0fbf
00000020: 409c ecbe a12d 99be d7ff 51bd b396 ca3e
00000030: 5708 4e3f ab49 2cbd 0c55 a93f 37a4 2c3e
00000040: d1c9 4b3f 88e9 7dbf a58e 5c3f 49fc ca3e
00000050: 6a2e b93f 4134 843e 1a47 24bf 0576 27bf
00000060: af18 97be bb3b d7be 22bb fb3e 5836 02c0
00000070: ddf4 4b3f 1d8d bdbf d3c0 a5be 0cca 2cbf
00000080: d6da c7be b215 b8bf a16f 7fbf fbf3 113f
00000090: fa67 6b3e 88c8 403e b48c 803e 9096 923d
000000a0: c758 6e3f 56a4 7dbe db14 64bd 9bc4 db3e
000000b0: 7152 693f 4d26 2f40 914a 83bd 9f6d 6d3f
000000c0: 02fc 1ec0 09a9 9f3f 8b2d a33e d81d 9bbf
000000d0: 2be0 833f c6a1 e63d c74d 11bf b7e7 15bf
000000e0: 2c9b 213c 2e50 1ec0 881e c73e aa0a 3c3f
000000f0: d6bc df3e b551 58bf 4fff 7bbf 16a1 cb3e
00000100: e8c0 813d e815 d9be 5393 e03d abc7 b2be
00000110: 7ffc febe 129c ff3d f0b3 6f3e 5c47 333f
00000120: 97d6 f8bc 10c6 dd3e 013f ec3d 2c65 1ac0
00000130: abca 063d 78b5 45be c868 4dbf 21d0 dbbe
00000140: ad35 1abf cc16 e03e 24de 393f a876 12bf
00000150: 734f 6dbe bd35 da3e 9926 59bf e3c6 c7bc
00000160: c380 4dbf 3ce0 6e3f 5619 38bd 8385 2b3f
00000170: 015e 99be 2c1a 4bbf 9b4c 613f 1321 6abf
00000180: 3261 05bf 231b 583f 53c0 bebd 5ab2 b0bf
00000190: d998 733f 87ea 06c0 1cf8 12bf 35f5 2abf
000001a0: e702 afbf 5921 a03f a503 983d 7b06 7e3d
000001b0: 17db 903e 8bd7 3b3f d6ee 1a3d 2faf 55bf
000001c0: 42a7 b2bf 6965 b83e 9774 0040 5242 f03f
000001d0: 66e1 1dbf ca18 40be d683 b73e a9ed e63f
000001e0: f6c2 bd3d e02a 71be d51e 3b3c d403 053f
000001f0: 5e84 c5bf 9666 99bf 17de 32bf b13f 5dbf
00000200: a731 603e 4f7a 82bf 8758 503e 2e63 91bd
00000210: 59b5 e43e 4574 9d3d 9db5 043f 15b5 80bf
00000220: d061 483d 60ad 7bbf 02a4 873f 8ef4 bfbe
00000230: 0a71 fcbf 30d2 a63f 3173 71be 2b73 cc3f
00000240: d34a 8abe 0fc8 03bf a9c2 93bf c33b 303e
00000250: 702f c03f b4bb 05c0 838a 2e3f 5dae a0bb
00000260: 82c1 b23e d688 9dbf fc94 343f 4040 a4bc
00000270: 7217 39bf 8c3e a5be b19e 39be ec70 863f
00000280: 1aea 3a3f 38cd 9e3f 6850 0c3f bd21 e73e
00000290: c30d 43bf 8018 0940 185f 0b3f 78c3 16be
000002a0: 79ef b6be 28d8 6c3f ee6f 26be 2f74 6bbf
000002b0: cea3 4e3f b391 0ec0 b874 3ebf 386d 263e
000002c0: 23f4 2a40 a3e3 2d3f 7ab7 b0be 9aaf 81bf
000002d0: 5628 c3be 562e 1dbf dfae c23f 9fd6 5dbf
000002e0: cf36 8fbf 4e78 5abf 5888 b83f 617c 853e
000002f0: 50a5 703f 4ba9 f7be 53f1 073e cb54 813e
00000300: 3ff5 81bf 6a5b 0fbf 4e88 8b3e 6fb6 63bf
00000310: 1a8f d3bd bb90 c93f cd62 2840 e6b1 eb3c
00000320: aa64 7fbf c457 663f d2fa 7dbf 2194 0abf
00000330: 29ec 76bf 1cdf f13f e67a 343e 3cc0 80be
00000340: a76a 9a3e 2d1c 99be 8dc6 563f 4a81 06c0
00000350: 7e4d b5bd 1de1 a23f 3a5b 07bf f9ad 483f
00000360: ece9 48bf a70f 92ba dec8 28be 7bda cebd
00000370: bf72 dbbe 7beb 8cbe 3d30 b6bf 93c3 52bf
00000380: 896d b03f 9a79 053f 3d1f 23c0 a95d 823d
00000390: ba95 d03d 9d02 f73f 424a 283f 680c 7f3e
000003a0: 8fd3 a2be d9d3 233f 400d c43f 35df 7fbf
000003b0: 6fe9 f6be 6f25 45bf 8d9b c8bf 8df1 30be
000003c0: 2017 a4bf 4585 9e3d 2d1b 3d3f e5c8 1540
000003d0: ae2c a7bf ad11 233e 9798 a5be b330 6dbf
000003e0: cf59 ecbe aec0 493f 53c7 14be 0718 c93f
000003f0: abd0 c5bf 7f62 953c 04bd 0440 41ed febf
-0.025712823 0.42940417 -0.18650481 -0.5234189 0.89602757 -0.6399377 -0.8664551 -0.56091064
-0.4621296 -0.29917625 -0.05126938 0.395681 0.80481476 -0.042062443 1.3229079 0.16859518
0.7960482 -0.99184465 0.8615516 0.39645603 1.446729 0.25821117 -0.6417099 -0.6541446
-0.2951102 -0.42037758 0.49166209 -2.0345669 0.79670507 -1.4808689 -0.32373676 -0.674958
-0.39034146 -1.4381621 -0.9977971 0.5701291 0.22988883 0.18826497 0.25107348 0.07157624
0.93104213 -0.2476972 -0.05568395 0.42923436 0.9114142 2.7367127 -0.06410707 0.92745394
-2.4841313 1.247346 0.31870684 -1.2118483 1.0302786 0.112613246 -0.56759304 -0.58556694
0.009863656 -2.4736438 0.3889048 0.7345377 0.43698758 -0.84499675 -0.98436445 0.39771336
0.06335622 -0.42399526 0.109656 -0.3491796 -0.49802014 0.1248094 0.23408484 0.7003076
-0.030375762 0.43315172 0.115354545 -2.412425 0.032908123 -0.19307506 -0.8023801 -0.42932227
-0.6023815 0.43767393 0.72604585 -0.57212305 -0.23174839 0.42619124 -0.8482452 -0.024386829
-0.802746 0.93310905 -0.044946037 0.670006 -0.29954532 -0.7933681 0.88007516 -0.9145672
-0.52101433 0.8441641 -0.09314027 -1.3804429 0.951551 -2.1080644 -0.57409835 -0.66780406
-1.3672761 1.2510177 0.0742257 0.0620179 0.28292152 0.7337577 0.037825428 -0.83470434
-1.3957293 0.3601487 2.007116 1.8770239 -0.61672056 -0.18759456 0.3584277 1.8041278
0.092657015 -0.23551512 0.011420925 0.51958966 -1.543102 -1.1984432 -0.6987013 -0.8642531
0.21893941 -1.0193576 0.2034627 -0.07098995 0.44669607 0.07688192 0.5183962 -1.0055262
0.048921406 -0.98311424 1.0596926 -0.37491268 -1.9721997 1.3032894 -0.23579098 1.5972646
-0.2701021 -0.5147714 -1.154378 0.17210297 1.5014477 -2.0895815 0.681801 -0.004903598
0.3491326 -1.2307384 0.7053983 -0.020050168 -0.723014 -0.32274282 -0.18126942 1.0503211
0.7301346 1.2406378 0.5481019 0.45142928 -0.76192874 2.1421204 0.54441977 -0.14723003
-0.35729578 0.9251733 -0.16253635 -0.9197416 0.80718696 -2.2276428 -0.7439685 0.16252601
2.671151 0.6792547 -0.34514982 -1.0131714 -0.3811671 -0.6139883 1.5209616 -0.8665561
-1.1188601 -0.8533982 1.4416609 0.26071456 0.94002247 -0.48371348 0.13275652 0.25260004
-1.0152968 -0.5599886 0.2725243 -0.88950247 -0.10330029 1.5747293 2.6310303 0.028771352
-0.99762976 0.8997767 -0.99210846 -0.54132277 -0.964541 1.8896213 0.17625007 -0.25146663
0.30159494 -0.2990431 0.83896714 -2.1016412 -0.08852671 1.2724949 -0.52873576 0.7839046
-0.78481936 -0.0011143581 -0.16482875 -0.101002656 -0.42860982 -0.27523407 -1.4233471 -0.8232967
1.3783427 0.52138674 -2.5487816 0.063655205 0.10184808 1.9297673 0.6573831 0.24907076
-0.3180203 0.6399513 1.5316544 -0.9994996 -0.4822497 -0.77010244 -1.567247 -0.17279644
-1.2819557 0.07740263 0.7386959 2.3403866 -1.306051 0.15924712 -0.3234298 -0.92652434
-0.4616227 0.7880963 -0.14529161 1.5710458 -1.5454305 0.018235443 2.0740366 -1.9916154

gru.weight_ih_l0 f4 [6, 2]
00000000: af4d 4fbe b50c 0fbd e8b0 a5be 2626 21be
00000010: f7a1 b7bb cdfd 103e cbda febe 8563 ed3e
00000020: 9771 393c edaf 16bd 173d 8f3e 1cfd 2cbe
-0.20244478 -0.034924228 -0.3236153 -0.15737209 -0.0056040245 0.14159317 -0.497763 0.4636499
0.011318586 -0.03678887 0.27976295 -0.16893429

gru.weight_hh_l0 f4 [6, 2]
00000000: 21c2 373e 38fa 403f 9f9c d53e 1cf8 953d
00000010: a3e5 4cbf 1f76 84bf 7b1f 29bf c439 943d
00000020: 7e1a 5a3e e64d 0b3f 2113 2a3f a6f0 143f
0.17945148 0.75381804 0.41721055 0.07322714 -0.800379 -1.0348548 -0.6606366 0.072375804
0.21299168 0.5441574 0.6643544 0.581797

gru.bias_ih_l0 f4 [6]
00000000: a41b 123f b378 083e 1dac 97bf dad6 edbe
00000010: 43ce 903f a082 d83e
0.57073426 0.13327293 -1.18494 -0.4645298 1.1312946 0.4228716

gru.bias_hh_l0 f4 [6]
00000000: 6238 993e f767 693f 627a c0be decc 80bd
00000010: 2fec ac3e 61cb 583f
0.2992583 0.9117426 -0.3759337 -0.06289075 0.33773944 0.8468533

fc.weight f4 [4309, 2]
00000000: e8eb 67bf a352 94bf f146 90bf 3a34 21be
00000010: 33cf 503d 0076 0dbf 1418 b23e fc09 9bbd
00000020: 411b 903f ef34 453e ccd4 6c3f efe0 37be
00000030: f00c 9c3f a056 8d3e 11a2 a43e 60ff 193f
00000040: 6e4c b5bd 5459 2a3e 286a 483e 7331 0f3f
00000050: c045 dd3e 8c19 2c3e 5843 6c3f b311 5f3f
00000060: 0067 983f 0526 41be f603 433f d805 fdbb
00000070: 51cd 7a3f c4f6 733f a690 093f c095 5d3f
00000080: 9f84 263e 7f32 6f3f 184c b4bc 9514 223d
00000090: 3cd1 9c3f e805 323f 36c9 cf3e c4f6 3fbd
000000a0: 9c0a 413d b949 503f 4586 ff3e 661c 0b3f
000000b0: a430 873f 19d7 803f bbab b93e d7c5 85be
000000c0: 2fce 0b3e 0673 0f3f 0728 923e 664c 603f
000000d0: 5a90 3ebd b334 6f3f 8aff 653e 88f9 4e3f
000000e0: 207c f73e 385a ffbb b823 5e3f 75a6 d33c
000000f0: 387e 333f 654c cc3e 2c4b 5cbe 9db0 053f
00000100: 3961 f43d 5322 703f ad26 233f 64ee 91be
00000110: 32b9 1a3e 21be 22be 454a 843f 113b 0abe
00000120: 5bf5 48be 1826 7a3e 3abd 7a3f b39d 2b3f
00000130: 8837 3f3f 76a1 f73e 4404 e33e 61c8 bf3e
00000140: 5470 40ba 9918 313f 55a2 6cbe 75be e7bd
00000150: 2a6c ec3e 5182 383f 5f53 523e 61b3 543f
00000160: e44c 383f da88 b23d bea4 97be c3cc 6a3f
00000170: 752f 8b3e e7cb 1f3f 51ef 513f e25f f03e
00000180: d8bb f9bc bb64 703f f3f0 563f a19e 74be
00000190: 3c5b 603f 062a 48be 89b1 6ebe 74f7 bc3e
000001a0: 5c38 5e3f 2eca 8dbd ef58 513f d97b 283f
000001b0: 17e6 4d3f 4c7d b9bc b46b 493f 4580 2b3f
000001c0: 99c4 e33e c085 453e 5019 5f3f 1f0b ea3e
000001d0: 6b0b 50bd 5407 bbbe e6ce 77bd a2af 0f3f
000001e0: 035e 453e bf1d 313e d819 96be b365 c03e
000001f0: 7765 123f 3248 e7be 135e 203f 65a0 9fbe
00000200: 34d7 aabe 0ce4 61be 4dd8 833d 3ca9 b5be
00000210: 52bd 5ebe 636b 203f 50a7 adbe 4f87 513f
00000220: 9d9f 193e a9a2 db3e 3135 b6be f569 dabe
00000230: f3e0 8a3e 1839 9dbe bf12 87be a28e 39be
00000240: 4f6a 95be c2f0 c8be 2033 4e3f 625f d53e
00000250: 299e f83c 531e c03e d7d6 c93d a3d9 bf3d
00000260: 59f1 31be 6268 ec3e c7e6 543e 28cd 443e
00000270: 62ae 1f3f 228f 3c3f 5e12 c23e b98e 37be
00000280: ab10 243f b55c e63e bb47 5ebe 67b4 153f
00000290: e89d 2a3f 732f 32be 5889 a93e 451e 14be
000002a0: 3454 dbbe fc71 4b3b 48ef b7be 803e 8bbe
000002b0: b6b9 a53e 22c7 ab3e b325 633f 3bc0 033f
000002c0: 364f 203f 3f84 53be bf8b 3b3f 54c3 53bb
000002d0: a976 ba3e 8d51 eabe 5ec6 5d3f 2269 97bd
000002e0: 3809 a83e 50e4 d5bd 7fe1 293d ae7b c5bd
000002f0: 8d02 b63e 19cd 5d3e ced9 8ebe 48f1 7e3e
00000300: 0429 be3e 0e47 303f a00c e13e bd92 4fbe
00000310: b38b 3bbd 0baa adbe 5d21 473f 7ab2 b93e
00000320: cd60 afbe 8ae7 b5be 3bc5 f63e 0be7 013e
00000330: f56a ac3d 63b8 933e 3bc2 8bbe 3469 e53d
00000340: df6e f63e 4dbb dd3d e9c8 bb3e 6e26 3e3f
00000350: ecb6 953e b945 b23e dd8f 2c3f d7c0 fabe
00000360: d80b fd3e b141 db3e aefa 253e 4209 d9be
00000370: 9b62 623d 0a85 b43e e0f2 eebe 7dca 263c
00000380: 9b41 633e 7fe3 9d3e 9183 cebe b969 46bc
00000390: a84b 2a3f 5343 1f3f 2e62 bf3e 170c f33e
000003a0: 5e9a 523f e6c1 d83e 480f 873c 0c2e 1e3f
000003b0: 711c 9dbe afee c33e 1c51 20bd 6acf efbd
000003c0: 7260 90be a3ea ddbe bdcd 093f 8d42 173e
000003d0: 077d bc3e 2720 0b3f bfed d2be d37f 1a3e
000003e0: 2dc8 c2be 624d c33e e863 233f e4b2 d63e
000003f0: 15b9 253f a1f6 e0be bd63 2f3f 8c5d a33e
-0.9059434 -1.1587719 -1.127165 -0.15742579 0.05097885 -0.5525818 0.34783995 -0.07570264
1.1258317 0.19258474 0.925122 -0.17956899 1.2191448 0.27605152 0.32154897 0.60155296
-0.088524684 0.16635638 0.19571745 0.5593483 0.43217278 0.1680662 0.9229026 0.8713638
1.1906433 -0.1886216 0.7617792 -0.007721644 0.9796954 0.9529841 0.5373634 0.86556625
0.16261528 0.93436426 -0.02200894 0.03957041 1.2251353 0.6954026 0.405832 -0.046866193
0.04712926 0.8136249 0.49907127 0.5434021 1.0561719 1.0065643 0.36263832 -0.26127502
0.13652872 0.56034887 0.28546163 0.87616575 -0.046524383 0.9343979 0.22460762 0.80849504
0.48336887 -0.0077927373 0.8677325 0.025836209 0.7011447 0.39902034 -0.21513051 0.52222615
0.11932606 0.93802375 0.6373089 -0.2850219 0.15109709 -0.15892841 1.0335165 -0.13499095
-0.19624846 0.24428594 0.97944987 0.67037505 0.7469411 0.48365372 0.44339192 0.37457564
-0.0007340957 0.6917816 -0.231088 -0.11315624 0.46176273 0.7207385 0.20539616 0.8308621
0.71992326 0.087175086 -0.29617876 0.9171869 0.27184644 0.62420505 0.8200579 0.46948153
-0.030485079 0.939037 0.8396141 -0.23888637 0.8763921 -0.1954728 -0.23309912 0.36907542
0.8680475 -0.06923328 0.81776327 0.65813977 0.80429214 -0.022642754 0.78679967 0.669926
0.4448593 0.19289303 0.87148 0.4571161 -0.05079214 -0.36529028 -0.060500048 0.5612737
0.19274144 0.17296503 -0.29316592 0.3757759 0.57186073 -0.45172268 0.62643546 -0.3117706
-0.33367312 -0.22059649 0.064377405 -0.35480678 -0.21751907 0.6266386 -0.33916712 0.8184709
0.15002294 0.42897537 -0.35587457 -0.42658964 0.27124748 -0.30707622 -0.2638149 -0.18120816
-0.2918267 -0.39246184 0.8054676 0.41674334 0.030348854 0.37523136 0.098554306 0.09367683
-0.17377223 0.46173388 0.2079116 0.19218886 0.6237546 0.73655903 0.37904638 -0.17925538
0.64087933 0.44992605 -0.2170705 0.584784 0.66647196 -0.17400913 0.33112597 -0.14464672
-0.4283768 0.0031043282 -0.35924745 -0.2719612 0.3236825 0.33550364 0.887294 0.51465195
0.62620866 -0.20655917 0.7326011 -0.003231247 0.36418656 -0.45765343 0.8663081 -0.07393099
0.32819533 -0.10443938 0.041474815 -0.09642731 0.3554882 0.2166027 -0.27900547 0.24896729
0.37140667 0.6885842 0.43954945 -0.2027082 -0.045787524 -0.33918795 0.77785283 0.3626898
-0.3425354 -0.35528213 0.4819735 0.12685792 0.08418838 0.28851613 -0.27296624 0.112017065
0.48131463 0.108267404 0.3667672 0.7427739 0.2924112 0.3481882 0.6740702 -0.4897525
0.494231 0.42823556 0.16208908 -0.42389876 0.05526982 0.3525775 -0.46669674 0.010180113
0.22192995 0.30837628 -0.40334752 -0.012110167 0.6652169 0.62212104 0.37379593 0.4747016
0.82266796 0.42335433 0.016486779 0.6178901 -0.30685762 0.3826804 -0.039139852 -0.11709483
-0.28198582 -0.43343076 0.53829557 0.14771481 0.36814138 0.54345936 -0.4119701 0.15087824
-0.38043347 0.38144976 0.6382432 0.41933358 0.6473554 -0.43938163 0.68511564 0.31907308

fc.bias f4 [4309]
00000000: fe9c b3bd 10fb 2abf 828a f6be bc2e d53e
00000010: 1b9c 843f 913d 723f 863d 533f e0ea e73e
00000020: 8a56 afbd b25b 343f 4bc7 233f cb9f 263f
00000030: 1b29 bf3e 29dc 1bbe 88f5 e43e a58f 1f3e
00000040: 0717 9f3e c7c7 413f 6236 683e e0e8 193f
00000050: 5a75 d83e 20f2 073f b39a 843f f3b1 e43e
00000060: f15a 823c 2221 113f 84b6 593f 77fc 603f
00000070: e978 93be 7141 bf3e 5a2b df3e c2af 283e
00000080: f8f7 dc3e 7d7b d53e 8faf 13be 2279 5c3f
00000090: ebd7 fdbd 2e16 6d3f 698a 3d3f 9ec5 783f
000000a0: 8603 643e 7e39 593f 0b66 c8bd dee2 debd
000000b0: 5d2c 823e 3e3e 4b3f 70b4 da3e bc4a 6b3e
000000c0: 234d 8abb 3a6a 72be 1186 253e 2a0d 463f
000000d0: c0e9 a8be b628 243f ac4a a4be dafd 333e
000000e0: 9015 bc3e 5642 dabe 62c1 423f 3a3b 863e
000000f0: 0e59 643f 0690 d4be 0160 5c3f 61be 873d
00000100: bb13 9bbe 8f4e 213f ced6 e23e f0a9 b93e
00000110: a561 f23e c560 023f 77a8 9dbe f704 94be
00000120: f798 c83e b532 9ebd 7c0c 153f 8b06 31be
00000130: 8fc3 613e c642 1e3f 6082 a33e 398d dcbd
00000140: 7bbf bb3e bfc8 233f b824 423f ecfc 3f3f
00000150: e68b 613e a27a 7abe 8e3d b8bd 9bc4 04be
00000160: f1f1 273f 5695 be3e 8c48 6d3e 4613 dd3d
00000170: f8b0 f33d 611b d13e 9fc9 5b3d f93c bbbe
00000180: d3f7 dd3e 8804 613e 1a7c 7a3e b73f 68be
00000190: f3ca d53e 14fe b6be 7b2a 3f3f b7ea efbe
000001a0: 6cde d23e 11be 163e 1ad4 e4be 2b87 dcbe
000001b0: 1192 91be f5ed 583e 1345 0e3f 61de 04bf
000001c0: dfa0 953e b914 543e 2628 0cbf f49e cbbd
000001d0: 494d ffbe 0e3c f63d 5716 2e3f 5de8 643e
000001e0: e403 e5bd a415 fa3e 278f f6be d047 393f
000001f0: b522 ab3e 2127 ffbe cd7e febe 810a 3b3e
00000200: 4358 253f 8c9a 563d dac0 63bd 3eb5 bfbe
00000210: 6acd f03e 7da0 823d ee3e 48bc e8c9 e03e
00000220: db0a f03e 16ea 373f 9b51 1ebe fac4 993e
00000230: e545 74be c570 8fbe e95c 063f bfd0 dfbe
00000240: 1399 213e fde4 0abd fd0a 1d3e 63a6 e2be
00000250: 604f cfbd af5c 1e3e 9266 2f3f e5b7 11bf
00000260: 4ef2 d03b 5f20 193f 9918 983d 9ede c4be
00000270: c8cb 6f3e ca1e e5be acb6 0fbe 372c 1f3f
00000280: bbcd 063f 4fb0 aabc b0c8 c13e a6ab 2b3f
00000290: 4c90 f4be 2738 0a3d 8ef3 f9be dbb9 243f
000002a0: db47 193f c625 08bf e418 0e3f 5e3a f53e
000002b0: 83f3 063f 92d5 f63e 7b9c 853e 109f f03c
000002c0: 727a 15bf 98f8 0abf c323 143f 6998 de3e
000002d0: 7b4a 683b 1a80 a5be d324 b4be 19ef 083e
000002e0: 8c0f 0f3e 4a5e 833e 8d58 8b3e c30e a2be
000002f0: 5134 d6be c5bd 013f 47d3 0bbf 23d8 8dbe
00000300: 254b 8cbe 213e d43e 364c 02bf 0067 f8be
00000310: 7e5e ebbd 450b f4be e7fc 85be e043 f8be
00000320: 38c3 1b3f 73dd 66bc 2c99 bd3e 99c0 343f
00000330: 5adb 0d3f 2526 3b3e a7be 253f 15f0 883d
00000340: f2c8 c2be 0394 dabd fe7a c63d d4e1 d6be
00000350: 65b0 313f 929b 1c3f bcb7 14bf 644d a7be
00000360: eefd 6cbd 48d2 db3e 2ce0 bd3e 7e50 223f
00000370: b6fc 963e 9cb4 ff3e 897f dbbe 1290 1a3d
00000380: 9f92 8d3e 9767 61be ebcc 94be 1ee9 8a3e
00000390: 6e35 e13b 17fc fdbe 11e5 953e 1ff8 f93e
000003a0: 5d82 1cbe a8b6 023f 686f 8d39 8992 27be
000003b0: ceda b03d 8ba3 273f 9449 9abe 66c5 113f
000003c0: 455d c2be 8e28 fe3e ea06 2f3f 925c 923d
000003d0: 9f59 043f ef49 2abe 508c b63e 5f0e 88bd
000003e0: 579d ba3e eeb3 e8be 3a28 d13e 7435 22be
000003f0: 937e d43e 4f32 1a3f 856b 163f e8fa e33e
-0.08770178 -0.6678934 -0.48152548 0.41637218 1.036014 0.9462519 0.8251575 0.45296383
-0.08561428 0.70452416 0.6397597 0.65087575 0.37336048 -0.15220703 0.44718575 0.1558214
0.31072256 0.7569546 0.22676995 0.60120964 0.42277032 0.5310383 1.035971 0.44667014
0.015912505 0.5669118 0.8504412 0.8788523 -0.28803185 0.37354615 0.43587762 0.16473296
0.43157935 0.41695777 -0.14422439 0.86122334 -0.12394699 0.9261197 0.7403932 0.9717654
0.22266969 0.8485335 -0.09785088 -0.10883115 0.25424471 0.7939185 0.42715788 0.22977728
-0.004220621 -0.23673335 0.16164424 0.77363837 -0.32990837 0.6412462 -0.3208822 0.17577305
0.367352 -0.42628735 0.7607633 0.2621706 0.89198387 -0.4151613 0.8608399 0.06628109
-0.3028849 0.63010496 0.44304508 0.36262465 0.47340122 0.5092891 -0.3079259 -0.28910038
0.39179203 -0.07724515 0.58222175 -0.17287652 0.22047256 0.6182064 0.31935406 -0.107691236
0.36669526 0.6397819 0.7583728 0.74995303 0.22026023 -0.24460843 -0.089961156 -0.12965624
0.6560355 0.3722331 0.23172206 0.10794692 0.118989885 0.408412 0.053659078 -0.36569956
0.43353137 0.21974385 0.24461403 -0.22680555 0.417564 -0.3574072 0.74674195 -0.4685876
0.4118532 0.14720942 -0.4469307 -0.43071875 -0.28431752 0.21184523 0.5557415 -0.51901823
0.29224297 0.2071103 -0.5474876 -0.09942427 -0.4986365 0.12023173 0.6800284 0.22354265
-0.11182383 0.48844635 -0.48156092 0.723752 0.33424917 -0.4983454 -0.49706116 0.18265726
0.645878 0.05239348 -0.05560384 -0.37442964 0.47031718 0.06378267 -0.012222035 0.43904042
0.46883282 0.7184156 -0.15460818 0.30033094 -0.23854788 -0.28015724 0.5248552 -0.43713948
0.1578105 -0.033909786 0.15336223 -0.44267568 -0.101225615 0.15465043 0.68515885 -0.56921226
0.006376541 0.5981502 0.07426567 -0.38451093 0.2341758 -0.44750053 -0.14034528 0.6217684
0.5265767 -0.020836024 0.37848425 0.6705879 -0.4776634 0.033744957 -0.4881863 0.6434609
0.5987527 -0.5318264 0.5550673 0.47896093 0.5271532 0.48209816 0.26095948 0.029372722
-0.5838996 -0.54285574 0.5786707 0.43475655 0.0035444784 -0.32324296 -0.35184345 0.13372459
0.13970774 0.25657874 0.27215996 -0.31651887 -0.4183679 0.5068019 -0.5461926 -0.27703962
-0.2740108 0.4145365 -0.5089754 -0.48516083 -0.11492632 -0.47664848 -0.26169512 -0.48489285
0.60844755 -0.014090884 0.37030923 0.7060638 0.5541283 0.1827627 0.6474404 0.06686417
-0.38043934 -0.10672762 0.09691428 -0.41969168 0.6940978 0.6117488 -0.58092856 -0.32676232
-0.057859354 0.4293387 0.37085092 0.6340407 0.29489678 0.49942482 -0.4287074 0.037735052
0.27650926 -0.22012173 -0.2906259 0.2713098 0.0068728244 -0.49606392 0.29276326 0.48822114
-0.15284105 0.5105996 0.0002697662 -0.16364492 0.08635484 0.6548392 -0.3013426 0.5694183
-0.37961784 0.49640316 0.68369925 0.07146563 0.5169925 -0.16629766 0.35653925 -0.06643366
0.36448166 -0.45449775 0.40851003 -0.15840703 0.41502818 0.60233015 0.5875781 0.44527364
