experiments/gru_h{hidden_size}_l{num_layers}_20241123_234118/final_model.pth (torch, 310647 bytes, 7 tensors)

embedding.weight f4 [15345, 2]
00000000: 3f33 e03d 7550 8a3f 3bd3 93bf 5fff 973e
00000010: 1b23 633f 4f1f 363f bf82 8dbf 1fe1 5dbf
00000020: 9146 2d3e 8ad8 1fbf b633 35c0 4b15 da3f
00000030: af7c febe af25 593e 6b75 5fbf 7fd6 a2bf
00000040: 7d03 c1bf 2834 983f 702d e8bf 8d4d c2bf
00000050: 1deb 833f ea1a a43e 809e 0cbf 206d cfbf
00000060: 1486 e4bf 191a 8b3f f967 333f 30e3 8d3c
00000070: c689 a5be 3f06 9cbf 3117 be3f 2366 c23e
00000080: cae4 b53d 6bb3 3c3f 3790 bd3d f192 b3bc
00000090: 5285 493f ad54 cebe 411c 0840 52a9 4fbe
000000a0: 38ab d63f 93ff 2fbf 4228 61bf a924 bc3f
000000b0: 5e30 b4be 65d0 7d3f 0cd1 d13f 5f72 b3be
000000c0: 5195 ccbf a682 873f f7ea 9a3c c96f 9abe
000000d0: 4ad4 9ebd 2123 833f 0250 b0be d9a4 633f
000000e0: 52ed b73f 709b d23e e962 6abf a7ca 513f
000000f0: ad20 11c0 3e2d a8bf 45dc f3bf 6b07 d23f
00000100: 83c0 2cbf 8c06 de3f d73d a5bc 5e5b a7be
00000110: 0ddd 87bf 2d80 f33f 9de7 cc3e 3e3b a7bf
00000120: 85d1 02c0 d9b0 8a3f 1c62 4f3e cd46 c33e
00000130: a20c 3fbf 753f 9ebf b31a a63d e752 8f3f
00000140: d2e2 b4be b8a2 cfbe cfa1 0dbf 4b64 67be
00000150: be33 58bf 74dc 733f 2f3c 13bf b823 713f
00000160: 196c 483e 4536 54bf e244 0b40 fe3d b73e
00000170: 3939 db3e 4869 b93e fb18 82bd 01bc c23f
00000180: 12c2 ecbe e09f a83f d6d6 4cbe 2bcb 73bf
00000190: 4fbb 9e3f 6b52 90bf 67c5 bcbf e812 bf3f
000001a0: 0b84 d4bf 40d1 0f3f a2d7 833f 3051 653f
000001b0: 1c7c 6f3f d44e 603e 938f 16c0 1cba 5f3f
000001c0: 9f24 7c3e 4ce1 90bf 2f90 b5bf b6e7 953e
000001d0: bb82 6abf dc7d efbf c5c5 96bd 224d fc3f
000001e0: 5a90 753f 9337 10c0 aef3 3d3f 95f4 f6be
000001f0: 80c6 87be 8382 59bf 31de 58bf 5d28 763f
00000200: 61d1 403f 675b 943f 5df4 dd3e fc3d 96be
00000210: bb8e 253f d136 0abf 57b8 1ebf 22ba acbf
00000220: f1d1 133f aee9 89bf 138c a03e e0bb cabe
00000230: 29f8 063f bd5f 85bf 565d 3ebe 23b1 e9be
00000240: 71e6 30bd a238 81bf 1d3e df3d 5a69 61bf
00000250: cbb1 7fbf 9fd4 883f 22d9 18c0 1d17 d5bd
00000260: 5b01 abbf e5cd 603f 4c43 02bf feb0 233e
00000270: 6b4b 72bf 188e b83f 9fb9 31bf 0f74 a0bf
00000280: 0541 703f db51 88be afd1 e53f 99de 73bf
00000290: 8254 2ebe 2fec d63f a209 0c3f d1bf 39be
000002a0: 33fb 9b3f d31f ffbe ee77 f8be a813 11bf
000002b0: 5a40 303f 15b2 9dbf 8d38 9fbf 6eb9 d5bf
000002c0: c2be e2bd 66f3 9d3f a963 483f 1de3 bbbf
000002d0: de39 5c3f 3e83 b3bf f87e 0340 86b8 7ebf
000002e0: caf8 d0bf 87c7 b5bd b322 f03f a9ee 73bf
000002f0: 86c6 323f 4a34 13bf d93f f9be 6556 713f
00000300: 14e6 8a3f fa29 b93f 0fd8 ac3f fe17 193f
00000310: 0b97 b9bf b558 a83f d723 6e3f f1d3 6d3f
00000320: 3206 f4bf 03a7 493f 9a35 edbe ae4c bc3f
00000330: 018f 3b3f 3f46 93be 732c 2e3f 8b28 babe
00000340: dcb9 5bbf a06a 57bf 94b3 22be 68b9 643f
00000350: beaa b5bf 3f8e b0bf 5342 553f 6afd 1fbd
00000360: 8dae e0bd 6643 96be eaed 2e3f d16d 593f
00000370: f9cb 10bd b756 493e 4a04 3abe 1af2 e23f
00000380: 2ea4 e4bf b529 33c0 1463 6bbf 2bdf 8b3f
00000390: 402f cb3f 6447 68bf 5c96 713f 826d 5bbf
000003a0: d817 553e ba98 bcbf 0daf bbbe a274 263f
000003b0: bedd f7bf ffea 7f3f d677 b1bf 34a9 2d3f
000003c0: 9ad2 373f ae97 223f 5d25 abbe a85c a33f
000003d0: 278c 553e cab9 32be 9b06 c83f 63c9 fb3f
000003e0: 261a 963f cfb5 ffbe 7eee a1bf 4bfb 8d3f
000003f0: 8126 b6bf 93ae 2c3f b27f 733f 6504 353f
0.109472744 1.0805804 -1.1548837 0.2968702 0.8872544 0.71141523 -1.1055526 -0.8667163
0.1692145 -0.6243979 -2.8312812 1.7037748 -0.497045 0.21205781 -0.8728854 -1.2721709
-1.507919 1.1890917 -1.8138866 -1.5179917 1.0306126 0.32051784 -0.5492935 -1.6205177
-1.7853417 1.0867339 0.70080525 0.017320246 -0.32331675 -1.2189406 1.4850827 0.3796855
0.08881529 0.7371127 0.092560224 -0.021920653 0.78719056 -0.40298977 2.1267245 -0.20279434
1.6771002 -0.6874935 -0.87952054 1.4698688 -0.3519315 0.9914611 1.6391921 -0.35048196
-1.5983068 1.0586746 0.018910868 -0.3016341 -0.07755335 1.0245095 -0.3443604 0.8892341
1.43693 0.41134214 -0.91557175 0.8194985 -2.2676194 -1.3138807 -1.9051596 1.6408514
-0.6748125 1.7345748 -0.02017109 -0.32686895 -1.0614334 1.9023491 0.40020457 -1.3064954
-2.044038 1.083522 0.2025227 0.38139954 -0.7462865 -1.2363116 0.08110561 1.1197175
-0.353293 -0.40553832 -0.55325025 -0.22596852 -0.8445395 0.9525826 -0.5751371 0.9419513
0.19572486 -0.8289531 2.1760793 0.35789484 0.42817095 0.36213136 -0.06352421 1.5213624
-0.46241814 1.317379 -0.20003828 -0.95231885 1.2400912 -1.1275152 -1.4747742 1.4927645
-1.6602796 0.56178665 1.0300181 0.8957701 0.9354875 0.2190507 -2.352513 0.87393355
0.24623345 -1.1318755 -1.4184626 0.29278344 -0.9160573 -1.8710284 -0.0736194 1.9711039
0.9592339 -2.253392 0.7419995 -0.48233476 -0.2651863 -0.8496477 -0.8471404 0.9615534
0.75319487 1.1590394 0.43350497 -0.29344165 0.64670914 -0.53989893 -0.6200003 -1.3494303
0.5774222 -1.0774438 0.31356868 -0.39596462 0.5272241 -1.0419842 -0.18590292 -0.45642957
-0.043188516 -1.0095408 0.10900519 -0.8805138 -0.99880666 1.0689887 -2.3882527 -0.10404799
-1.3359789 0.8781417 -0.50883937 0.15985486 -0.9464633 1.4418364 -0.6942386 -1.2535418
0.9384921 -0.2662495 1.7954615 -0.9526153 -0.17024425 1.6790828 0.547022 -0.18139578
1.2186035 -0.49828967 -0.48529 -0.5667062 0.6884819 -1.2319971 -1.2439133 -1.6697214
-0.110715404 1.2339904 0.7827707 -1.4678684 0.860258 -1.4024427 2.0546246 -0.9950031
-1.6325924 -0.088759474 1.8760589 -0.9528604 0.6983417 -0.5750166 -0.48681524 0.9427245
1.0851464 1.4465935 1.3503436 0.59802234 -1.449922 1.3152071 0.9302344 0.9290152
-1.9064391 0.78770465 -0.46329957 1.4710901 0.7326508 -0.2876453 0.68036574 -0.36359057
-0.85830474 -0.8414707 -0.15888816 0.8934541 -1.4192731 -1.379341 0.8330433 -0.039060034
-0.10970793 -0.29348296 0.6833178 0.8493319 -0.035350773 0.19661985 -0.18165699 1.7730134
-1.7862604 -2.7994206 -0.91948056 1.092748 1.5873795 -0.90733933 0.94370055 -0.8571397
0.20809877 -1.4734108 -0.3665699 0.6502172 -1.9364545 0.9996795 -1.3864696 0.6783631
0.7180573 0.63512695 -0.33426943 1.2762651 0.20854245 -0.17453685 1.5627016 1.9670833
1.172673 -0.49943396 -1.2650907 1.1092314 -1.42305 0.6745388 0.9511672 0.7070983

gru.weight_ih_l0 f4 [6, 2]
00000000: 40a7 82b9 d9f9 64b8 fac8 a7bd 72e0 f8bb
00000010: 4329 1abc 2c42 81bb 32bf 83b8 9367 4fb8
00000020: 5c81 fc3c 6d1c 7639 8b6e 033e 0e17 673c
-0.00024920143 -5.4592125e-05 -0.0819263 -0.0075951153 -0.009409252 -0.003944656 -6.28218e-05 -4.9449107e-05
0.030823402 0.00023470978 0.12835138 0.014104618

gru.weight_hh_l0 f4 [6, 2]
00000000: 8eee 1c3e cf30 54be 0d69 46bf e87a 0d3f
00000010: 1f7d 4a40 a297 a93f f7e2 a3c0 380d 9b40
00000020: b5f4 d5bd 1e67 5e3e 11af d7be 4975 e3be
0.15325376 -0.20721744 -0.77504045 0.55265665 3.1638868 1.32494 -5.1214557 4.8453636
-0.10447065 0.21719024 -0.42125753 -0.4442542

gru.bias_ih_l0 f4 [6]
00000000: 8bfc 0a3f 7bee 24bd 12d2 b0bc 05b7 bdbe
00000010: 3d6e 8bc0 1393 25c0
0.542916 -0.040266495 -0.021584544 -0.37053695 -4.357207 -2.5871017

gru.bias_hh_l0 f4 [6]
00000000: 02c6 0bbf ce22 15bc a7e2 8cbe 8d9d bd3e
00000010: 3a09 0e3f 5edb 443f
-0.5459901 -0.009102536 -0.27516672 0.37034264 0.5548283 0.7689723

fc.weight f4 [15345, 2]
00000000: 1a9f 1640 cfd0 3dbf 728b 1e40 2de9 41bf
00000010: 717a 1240 7c80 3bbf e1cb 4abf d8dc 3fbc
00000020: 1b7d b7bf 6f26 10be ef4b 77bf 0d34 e9bd
00000030: b5f3 91bf 6b98 10be 68ee 9bbf 4eb2 11be
00000040: cb11 9cbf 9ac9 17be b6db bfbf 121e 1abe
00000050: 6805 80bf 1edd 08be dcb8 8ebf fbec f0bd
00000060: 5ca8 4fbf d178 b7bd d674 81bf 03ef 01be
00000070: 6e7e 3cbf 8eaa 9dbd f3df 3abf 84f5 b8bd
00000080: f1ed 94bf b55f d4bd 0223 7abf 70fd cabd
00000090: 5673 81bf c0bf edbd 0944 54bf 03ad e1bd
000000a0: 1d14 51bf 9487 debd ad1c 98bf b3d7 ecbd
000000b0: 1b31 40bf c480 aabd 3a4d 8dbf 8647 95bd
000000c0: f7d7 38bf 4c66 b8bd 0170 a6bf 3300 b9bd
000000d0: c8d7 62bf a8a2 cbbd f2d0 90bf f3a0 a1bd
000000e0: 96a4 46bf 1efe 7dbd bdf1 4fbf 421d 13bd
000000f0: baa9 40bf 1704 85bd 1143 7fbf f6a6 84bd
00000100: 910a 47bf d03f 53bd f253 86bf 86ee 9ebd
00000110: b970 6bbf 530e 94bd a854 6cbf cd65 5bbd
00000120: 7c04 5cbf 4427 68bd c0ef 6ebf c711 30bd
00000130: ebbf 3fbf be38 41bd e1a9 20bf 3916 92bd
00000140: 224a 74bf 3cba 82bd 399f 75bf 3c16 0cbd
00000150: 006a 2bbf f83f 19bd 93f9 92bf 4ae4 e4bc
00000160: 1799 37bf c4d4 19bd 8daf 18bf f9de 72bd
00000170: 0dfd 4fbf cd8a 22bd c3cc abbf 7901 5cbd
00000180: 8d39 54bf 8bce 9cbd 4340 17bf c7d6 30bd
00000190: a473 39bf 05e1 47bd 3623 69bf a0e4 66bd
000001a0: 2d45 75bf ca97 55bd 6858 39bf cdb2 05bd
000001b0: 4774 5ebf 574b 4ebd 8108 68bf 2add 86bb
000001c0: a98a 40bf e620 eabc aa09 54bf 9e38 18bd
000001d0: 3dfb 60bf b046 98bd 62ad 49bf c8cb 61bd
000001e0: be2c 4fbf ebab bdbc 6acb 2abf e1e5 e4bc
000001f0: 5c28 8ebf 65ea 80bd 1b25 5cbf 3386 51bd
00000200: 92cd 79bf 27c2 2dbd 2984 1bbf b2cb 98bb
00000210: e63c 28bf c51b 16bd 9ec7 2dbf f65a 91bc
00000220: e354 35bf 9ab5 51bd a031 65bf 4e3c 96bd
00000230: 637a 89bf 7d42 1bbd de44 3bbf aa34 45bd
00000240: 249f 1bbf fda7 8fbd f21e 83bf 7b80 5cbd
00000250: 0150 17bf d5b9 dabc 289f 3cbf 305a 26bd
00000260: 7151 4ebf 50f4 47bd 425b 9bbf fac1 13bd
00000270: 09ee 9cbf 8ac8 dcb9 afc2 85bf 9d44 3cbd
00000280: 604d 2dbf f4ef edbc 71f5 30bf a550 6cbd
00000290: b50e 11bf cd05 f2bc f956 87bf b5cc 44bc
000002a0: 4eca 54bf a16a 13bd 4e94 55bf a354 283d
000002b0: a8cb 21bf 3af2 1bbd 274a 13bf aaf5 e9bb
000002c0: 2dfd 9fbf c7fd d33b db29 56bf e811 48bd
000002d0: 725d 22bf dc35 023b 045c fabe 67cb 93bd
000002e0: 0d5f 51bf a0be aabc a442 0dbf 3a61 cc3b
000002f0: 2476 2fbf 5425 65bd 6f05 22bf 6978 273c
00000300: 0618 c6be 1c58 88bc ef23 39bf 87ad ef3c
00000310: 6e80 1dbf cf29 2c3c 0977 3bbf ba30 acbc
00000320: 2962 34bf 3fc1 2dbc d64b 95be 2a92 8bbc
00000330: 6151 d2be 96c0 8b3b 0d5b 7fbf 65ad 04bd
00000340: 335a 37bf 0724 a8bc dd1c 38bf 24cc c83c
00000350: 96e7 f7be 7300 e4bc a01d 22bf 8967 4fbc
00000360: b535 70bf b2db 2bbd c351 fabe 282d b6bc
00000370: 30f4 26bf b478 5c3c 7058 92bf 2915 d3bc
00000380: b6ab 67bf 5276 0abd dc03 26bf 9d41 3f3c
00000390: 858e 1bbf 7964 f1bc c77a fbbe 7e89 9dbc
000003a0: f95d fcbe af73 d5bc 23df 55bf 3bc7 b5bd
000003b0: 5036 56bf 10b1 c53c 930c 42be d21f 643c
000003c0: 6e81 33bf 183a 6f3b 0ae9 2ebf 0a89 0bbc
000003d0: ae85 41bf 4dcc 36bd 5ff0 20bf f2ef 38bc
000003e0: 4660 84bf 8a34 773c ea35 49bf 3ec8 3cbc
000003f0: 9b9d 51bf 1b44 89bc f750 68bf 1b17 32bd
2.3534608 -0.7414674 2.477261 -0.75746423 2.2887232 -0.73242927 -0.79217345 -0.011710368
-1.4335054 -0.14077161 -0.9660024 -0.11386881 -1.1402498 -0.14120643 -1.2182131 -0.14228174
-1.219293 -0.14822999 -1.4988925 -0.15050533 -1.000165 -0.133656 -1.1150165 -0.117639504
-0.8111627 -0.08958591 -1.011378 -0.12688832 -0.73630416 -0.07698546 -0.7299797 -0.090312034
-1.1635114 -0.10369817 -0.9770967 -0.099116206 -1.0113323 -0.11608839 -0.82916313 -0.110193275
-0.81671315 -0.10865703 -1.1883751 -0.11564579 -0.7507493 -0.08325341 -1.1039193 -0.07289033
-0.72204536 -0.090038866 -1.3002931 -0.09033241 -0.88610506 -0.099431336 -1.1313765 -0.07892027
-0.7759489 -0.062009923 -0.8122824 -0.035916574 -0.7525898 -0.06494921 -0.9971171 -0.06477158
-0.777505 -0.05157453 -1.0494368 -0.077603385 -0.91968876 -0.07229295 -0.92316675 -0.05356388
-0.8594434 -0.05667807 -0.9333458 -0.042985704 -0.7490222 -0.047173254 -0.62759215 -0.07133145
-0.9542562 -0.06383178 -0.9594608 -0.03420089 -0.6695862 -0.03741452 -1.1482414 -0.027940888
-0.7171797 -0.037556425 -0.5964287 -0.059294675 -0.812455 -0.039683152 -1.3421863 -0.053712342
-0.82900316 -0.076565824 -0.5908243 -0.043173578 -0.7244208 -0.04879858 -0.9106935 -0.056370378
-0.9580868 -0.05214671 -0.7240052 -0.03264122 -0.86896175 -0.05036482 -0.90637976 -0.0041157203
-0.7521158 -0.02858014 -0.82827246 -0.03716337 -0.8788336 -0.074353576 -0.78780186 -0.05512598
-0.80927646 -0.023153266 -0.66716635 -0.027941646 -1.1106067 -0.06294707 -0.8599412 -0.051153373
-0.975793 -0.042421486 -0.60748535 -0.0046629542 -0.65717924 -0.036647577 -0.67882717 -0.017743569
-0.7083265 -0.05119858 -0.89528847 -0.07335721 -1.0740474 -0.037905205 -0.7315196 -0.048145927
-0.60789704 -0.07014463 -1.0243819 -0.053833466 -0.5910645 -0.02669994 -0.73680353 -0.040613353
-0.8059302 -0.04881698 -1.2137225 -0.036073662 -1.2260143 -0.00042111083 -1.0450038 -0.045963872
-0.6769619 -0.029045083 -0.69124514 -0.057694096 -0.56663066 -0.029543782 -1.0573417 -0.012011697
-0.8312119 -0.03599036 -0.8342942 0.04109634 -0.6320138 -0.038072802 -0.5753502 -0.007139881
-1.2499138 0.0064694616 -0.83657616 -0.0488452 -0.63423836 0.0019868528 -0.48898327 -0.0721653
-0.8178566 -0.02084285 -0.5517981 0.0062371762 -0.68539643 -0.055943802 -0.6328954 0.010221579
-0.38690203 -0.016643576 -0.72320455 0.029257549 -0.61524093 0.010508015 -0.7322851 -0.021019328
-0.7046228 -0.0106051555 -0.2915942 -0.01703747 -0.41077712 0.0042649014 -0.9974831 -0.032391924
-0.7162201 -0.020524992 -0.7191904 0.024511404 -0.48418874 -0.027832245 -0.63326454 -0.012658962
-0.9383195 -0.041957565 -0.48890504 -0.022238329 -0.6521635 0.013456512 -1.1433239 -0.025766926
-0.90496385 -0.033804245 -0.6484964 0.011673358 -0.6076434 -0.029466854 -0.4911711 -0.0192306
-0.49290445 -0.026056139 -0.83543605 -0.08875891 -0.83676624 0.024132282 -0.18950109 0.013923602
-0.7011937 0.0036503132 -0.6832434 -0.008516559 -0.75594604 -0.04462843 -0.6286678 -0.011287676
-1.034188 0.01508821 -0.7859789 -0.011522351 -0.8188111 -0.016756108 -0.9074854 -0.043479066

fc.bias f4 [15345]
00000000: f73e 72c0 2430 5ac0 f1a0 88c0 7214 9f3f
00000010: d8ec aa40 76b4 a740 c756 9840 d46c 9140
00000020: 1e41 8f40 e911 8440 3301 9240 b032 8b40
00000030: c3a2 8f40 590c 8540 b074 8e40 81f9 8840
00000040: be65 7040 ff5e 7a40 fe29 7840 ae20 8140
00000050: 3c34 8240 1810 6240 c595 7840 06d6 6040
00000060: 68cc 7540 7dbe 4b40 4963 6340 0122 5640
00000070: 0b03 6040 dd42 5d40 a5a1 5e40 df8d 4940
00000080: 3a5d 5640 fc26 3e40 68ba 3f40 46fa 3e40
00000090: 3276 3c40 a328 3940 309b 4240 7cf0 4840
000000a0: 86f1 2d40 95e7 2c40 9f4c 3e40 bcef 1c40
000000b0: bc6a 3840 2315 3b40 82d7 2c40 ee56 0a40
000000c0: 349f 2340 41a2 3140 4d26 2740 0e50 1e40
000000d0: f1ef 1840 81ec 2040 98b9 1840 0e61 1540
000000e0: bd54 1d40 5805 1940 6857 1840 ede2 1b40
000000f0: e256 1840 575b 1d40 a047 0040 90e6 1040
00000100: f390 0840 0c9b 2140 e93b 1a40 3d10 1740
00000110: cdb0 1540 b50a 0940 e16f f13f 589c 1240
00000120: e608 1840 5089 ec3f efd5 1140 4d17 0440
00000130: f3ff 0140 4e3d c33f d2e6 cc3f bfc2 d83f
00000140: 17d7 0340 a911 0140 243c 0840 3c63 d33f
00000150: fa37 e73f 1d00 e23f a1cb fc3f 674b f23f
00000160: 85d8 a73f 2a0c d73f 3846 d93f 2c46 0040
00000170: 347d d43f 3960 ec3f 3cb2 cf3f 1550 cf3f
00000180: e2d4 fe3f 4f7c c83f f345 e73f 6a60 cc3f
00000190: b5c3 c83f eaa1 0040 6331 f93f c5cf a33f
000001a0: ebae d83f bfd1 c33f 29f2 e03f 3636 bc3f
000001b0: 43f7 a83f 5377 cd3f f995 ba3f 258e 823f
000001c0: f4a0 a63f e7bf b03f fe3f b63f a004 cc3f
000001d0: 5a2e db3f 26fc a93f e91b a33f 0d36 e73f
000001e0: b36b a73f dfd3 ae3f d930 a63f 875d b23f
000001f0: 5512 893f 96d6 a43f 643b a23f 3638 963f
00000200: 5ddb cf3f 60ed a33f 5508 a83f b2fc bb3f
00000210: 6c95 a23f 1512 753f 0b04 af3f ec71 c33f
00000220: 3c53 b53f 6fad a03f c38f 993f 6294 8d3f
00000230: 4713 a53f cbef c53f b60a 8e3f 13de aa3f
00000240: fa93 b63f b6fd b83f 035d ce3f 09dc c43f
00000250: 58cc 803f 5c2a a23f 6b26 8d3f b24f 4e3f
00000260: 9794 b23f 87ee af3f b8bf 463f 7032 9c3f
00000270: 10bd bb3f 0131 be3f b27c 813f 5c1b 9e3f
00000280: 0edf 673f 9640 b23f 8797 a43f dc51 8f3f
00000290: e759 8b3f a528 ae3f c6ff 933f 01ee 9b3f
000002a0: f662 c23f e00a b53f fabe b83f 3e8b 9a3f
000002b0: fcd6 963f 7c4d 843f dc26 453f b92b 953f
000002c0: d7af bc3f d327 bf3f b772 a23f 4490 8b3f
000002d0: fdde a93f f622 9d3f 02bb 9c3f b6c2 8d3f
000002e0: 38db b33f 8dd3 5e3f 5042 a53f f887 893f
000002f0: bb38 aa3f 4428 863f 35e4 813f 63c5 b13f
00000300: c8f6 663f 208b 893f 6b17 ab3f 382e b13f
00000310: cffe 513f a766 803f 7582 b93f fc89 9e3f
00000320: d92d 8d3f 81db 413f 6df8 9c3f badd b13f
00000330: a821 853f 3ce2 203f 0133 763f ec43 783f
00000340: 50f8 8d3f d598 ab3f d924 973f d6c3 943f
00000350: efc0 a13f 7279 b03f 0022 6a3f 0acc 8f3f
00000360: d6c5 7f3f 903a 893f 18a2 7a3f 0a66 853f
00000370: 520d 783f 7517 663f 2404 8d3f 6b02 673f
00000380: 24d1 853f a741 963f e2cc 913f bdb5 383f
00000390: f92b 203f 7651 383f 2e37 af3f 5334 a23f
000003a0: c8c3 6c3f 95fd 483f d1b0 9b3f d954 903f
000003b0: d844 943f 27f0 733f 6590 793f 58dc 933f
000003c0: f4a4 693f fe89 8f3f e516 813f a844 543f
000003d0: b329 5e3f 0d20 8b3f a134 363f 90cf 863f
000003e0: a0aa 093f 1548 4d3f 2a67 a03f 38a9 8a3f
000003f0: 6ab8 7a3f 3397 523f 5490 673f 1d38 023f
-3.785093 -3.4091883 -4.269646 1.2428114 5.3414116 5.240779 4.760593 4.5445347
4.476699 4.1271863 4.5626464 4.3499374 4.4886184 4.1577573 4.451744 4.280457
3.7562099 3.912048 3.877563 4.035239 4.0688763 3.5322323 3.8841412 3.513063
3.840601 3.1835015 3.552935 3.3458254 3.5001857 3.457206 3.478616 3.1492841
3.34944 2.9711294 2.9957523 2.9840255 2.944714 2.8931053 3.040722 3.139678
2.7178664 2.7016346 2.9734266 2.4521322 2.8815145 2.923165 2.7006536 2.1615558
2.556592 2.7755282 2.6117127 2.4736362 2.3896449 2.514435 2.3863277 2.3340487
2.458297 2.3909512 2.3803349 2.4357255 2.380303 2.4587 2.0043716 2.2640724
2.133847 2.5250883 2.4099066 2.360366 2.338916 2.1412785 1.8862268 2.2907925
2.375543 1.8479404 2.2786825 2.0639222 2.031247 1.5253084 1.6007941 1.6934432
2.060003 2.016703 2.1286707 1.6514659 1.8063958 1.7656285 1.9749643 1.8929261
1.3112952 1.6800587 1.6974554 2.004283 1.6600709 1.8466865 1.6226268 1.6196314
1.9908717 1.5662936 1.8068222 1.5966923 1.5684725 2.0098825 1.9468197 1.2797781
1.6928381 1.5298384 1.7573901 1.4704044 1.3200458 1.605204 1.4577018 1.0199629
1.3017869 1.3808564 1.4238279 1.5938911 1.712352 1.3280075 1.2742893 1.806337
1.3079742 1.3658408 1.2983657 1.3934792 1.070872 1.2877986 1.2674375 1.1735904
1.6238819 1.2806816 1.3127543 1.4686491 1.270185 0.95730716 1.3673109 1.5269141
1.4166026 1.2552928 1.1996998 1.1060908 1.2896508 1.5463804 1.1097019 1.3349022
1.4263909 1.4452426 1.6122135 1.5379649 1.0062361 1.2669177 1.1027349 0.80590355
1.3951596 1.3744668 0.7763629 1.2202892 1.4667072 1.4858705 1.0116179 1.23521
0.9057473 1.392596 1.2858742 1.1196856 1.0886811 1.3606154 1.1562431 1.2182008
1.518645 1.4143944 1.4433281 1.2073743 1.1784358 1.0336146 0.7701242 1.1653968
1.4741162 1.4934028 1.2691258 1.0903401 1.3271176 1.2276294 1.224457 1.1075046
1.4051275 0.8704155 1.2910862 1.0744619 1.3298563 1.0481038 1.0147768 1.3888363
0.9022031 1.0745583 1.3366522 1.384223 0.8202943 1.0031327 1.4492937 1.238586
1.1029617 0.7572556 1.2263314 1.389579 1.0400896 0.62845206 0.96171576 0.9697864
1.1091404 1.3406016 1.180812 1.1622264 1.2637004 1.3787062 0.9145813 1.1234143
0.9991125 1.0720997 0.97903585 1.0421765 0.96895325 0.8987954 1.1016889 0.90238065
1.045445 1.1738786 1.139065 0.7215231 0.62567097 0.719993 1.3688715 1.2672218
0.9248624 0.78511935 1.2163335 1.1275893 1.158351 0.9528832 0.97485954 1.1551619
0.91267323 1.1213987 1.0085112 0.8291726 0.8678238 1.0869156 0.71174055 1.0532093
0.5377598 0.80188113 1.2531483 1.0832891 0.97937644 0.8226196 0.904546 0.5086687
