experiments/gru_h2_l1_20241124_114418/final_model.pth (torch, 310583 bytes, 7 tensors)

embedding.weight f4 [15345, 2]
000000 ca 4e a5 3f c6 4c b2 3f 80 fa 22 c0 e8 14 93 be
       1.291467 1.3929679 -2.5465393 -0.28726888
000010 b4 2e b0 bf 81 5e 50 3f 0f 8c 46 3f 05 e7 33 3f
       -1.3764253 0.813942 0.7755746 0.7027438
000020 75 8c a3 be 2a 76 2a 3e 68 a8 1d bf eb b2 07 40
       -0.31943098 0.16646639 -0.6158509 2.1202953
000030 5f 9d 8e be be 8d bd 3e d2 2e 7b bf 02 66 9f 3e
       -0.2785444 0.37022203 -0.9811832 0.31132513
000040 1b 75 96 3f 74 ac 90 3f 8f b0 b3 3f db 14 54 3e
       1.1754488 1.1302629 1.4038256 0.2071108
000050 7e 3c c4 3e b1 7e a8 3f 18 35 66 bd 7c b0 9f 3f
       0.38327402 1.3163663 -0.056202978 1.2475734
000060 4c d9 6c bf e4 ca 93 3f 99 55 0f c0 38 17 f8 be
       -0.9251907 1.1546292 -2.2395995 -0.48455215
000070 e6 74 2e bf 78 0f 4b 3f 78 a8 77 bf 36 f6 28 3e
       -0.6814712 0.7932048 -0.9674144 0.16500172
000080 6b 94 19 40 d6 a3 26 3d de 2e 12 c0 1e f6 c1 bf
       2.3996837 0.04068359 -2.2841105 -1.5153234
000090 27 64 2a bf d9 08 cf 3f 06 f4 05 3f 0f bd 70 bd
       -0.6655907 1.6174575 0.52325475 -0.05877405
0000a0 d2 95 0f 3f 00 d5 90 be ee b8 fd 3e 45 40 29 3f
       0.5608798 -0.28287506 0.49555153 0.6611369
0000b0 fe a8 3a 3d 21 ed 4c 3f 3f b1 65 3f 6d 1d b6 bf
       0.04557132 0.8004933 0.8972358 -1.422773
0000c0 5f a3 66 3f 3d 64 00 bf 36 98 ef be c8 f1 fa bf
       0.90093035 -0.5015295 -0.46795815 -1.9605036
0000d0 dc 63 85 3f 2c 80 89 be dd df 10 3f 72 a9 14 bf
       1.04211 -0.268556 0.5659159 -0.58071053
0000e0 f3 b5 25 bf 96 62 d2 3e 9e 74 62 bd ac 22 8b 3e
       -0.6473076 0.4109084 -0.055286996 0.2717489
0000f0 69 b0 8f bd 31 f2 9a 3f 7c 27 97 bf be a9 2d 3f
       -0.070160694 1.2105161 -1.1808925 0.6783713
000100 e8 64 25 bf 98 d9 8f be 64 16 5b bd fd f6 7a bf
       -0.64607096 -0.28095698 -0.05348815 -0.98033124
000110 06 bd 68 3e 48 7a 97 3f d9 0b dd 3e 06 26 a9 be
       0.22728357 1.1834192 0.43173102 -0.33036822
000120 25 dc 7a 3f 53 67 25 bf a8 d9 da bf 52 63 75 3f
       0.97992164 -0.64610785 -1.7097673 0.95854676
000130 aa fe 15 bf 71 61 d0 bf 48 43 8a 3e 38 15 e2 3e
       -0.5859171 -1.6279737 0.27004457 0.44156814
000140 6f bf 3b bf 85 ae 33 3e 8b 92 07 bf ba 91 84 be
       -0.7333898 0.17547043 -0.5295798 -0.2589243
000150 d5 7e 1d 40 1c 3c 10 3e a3 e8 71 3f 0c cc 57 bf
       2.4608662 0.1408543 0.944956 -0.84295726
000160 00 6d 1f be e8 9f ee be e7 27 59 be 37 b4 9b 3f
       -0.15568924 -0.46606374 -0.21206628 1.2164372
000170 4a eb 61 3c 36 a0 74 3e 75 90 92 3f 5f c8 4b 3e
       0.013789007 0.2388924 1.1450335 0.19900654
000180 fb 88 7b 3d 78 a1 97 3e f8 59 bb bf 5d 1c f3 bf
       0.06140993 0.29615378 -1.4636831 -1.8993031
000190 59 ed d2 3e d3 5a c6 3d f0 d5 3d be 05 c0 24 bf
       0.41196707 0.09685292 -0.18538642 -0.643555
0001a0 0b ae e7 3e f0 b5 f8 3f de 38 71 be 90 07 e7 3f
       0.45249972 1.9430523 -0.2355685 1.8049183
0001b0 ed b3 0c bf c6 97 3f be 21 4f a0 3f 44 6d 94 bf
       -0.54962045 -0.1871024 1.2524148 -1.1595845
0001c0 1c b1 b0 3e 66 ba 1d bf 42 56 a9 3f fd 4c 99 3f
       0.34510124 -0.61612546 1.3229449 1.197662
0001d0 7e 2c 5d 3d 69 cc 8e 3f 5b 9d 1c 3f 4f fd 17 3d
       0.05399751 1.1156131 0.61177605 0.03710681
0001e0 5a 7b b5 be 10 06 48 bf ab 2a 83 be 54 4b 72 3d
       -0.35445672 -0.7813425 -0.2561849 0.05915387
0001f0 90 48 39 3f d0 ce d2 be bc cb 4d bf f4 a7 91 bf
       0.72376347 -0.4117341 -0.80389 -1.137938
000200 90 01 44 bf a4 51 a2 3e f2 f0 f6 bf a8 c8 04 c0
       -0.76564884 0.31702912 -1.9292281 -2.074747
000210 41 cf 4a bf d1 2a 15 3f ec 02 bf 3c 6b 5c f5 3e
       -0.79222494 0.5826846 0.023316823 0.47922072
000220 ea 25 80 3f b9 86 28 3e cf 84 af 3e 6e e7 16 be
       1.001157 0.16457643 0.34281012 -0.14736721
000230 63 cd de 3f ff 5a 45 3f fd c7 87 3e ea a5 c6 bf
       1.7406429 0.77091974 0.26519766 -1.5519383
000240 2b d6 68 3f 83 2d e8 be 86 3a 27 3e 4d 27 14 be
       0.90951794 -0.45347223 0.16330919 -0.14468117
000250 e1 f3 a4 bf 10 43 97 be b8 9e 35 c0 a8 4d 0a 3e
       -1.2886926 -0.29543352 -2.8378124 0.13506186
000260 70 bd 64 be e0 d0 02 bf 05 87 6d 3e 34 43 2e bf
       -0.2233789 -0.5109997 0.23196037 -0.68071294
000270 44 32 f0 bd c6 79 9c 3e af 3a ad 3f 58 65 dd 3e
       -0.117283374 0.30561656 1.3533534 0.43241382
000280 39 fc d2 3d 2f 9e 1a bf dc b2 86 bf bd f5 a4 3f
       0.10302014 -0.6039762 -1.0523334 1.2887493
000290 b3 ea 5d 3c ad cb 1c 3e 0b 2b 75 bf fe 0f 06 bf
       0.013544726 0.15312071 -0.95768803 -0.5236815
0002a0 7c a5 05 40 2e 09 07 3f 23 1d 86 3f b1 95 28 bf
       2.0882254 0.5274838 1.0477642 -0.6585341
0002b0 42 4c 83 bf 72 10 e4 3e 5d 60 60 3f 46 3a 2d be
       -1.0257647 0.44543797 0.8764704 -0.16916761
0002c0 f1 d0 83 3e bb 8c 10 c0 25 3f 38 3f f5 b7 19 bf
       0.25745347 -2.2585895 0.7197135 -0.6004632
0002d0 9d 43 04 40 4d 56 20 3f 17 57 82 3f 17 89 0d c0
       2.0666268 0.62631685 1.0182828 -2.2114923
0002e0 da aa 2b 3f cd 40 94 bf aa 06 6d bf 06 ec b0 3f
       0.67057574 -1.1582276 -0.92588294 1.3822029
0002f0 df 21 cc be 85 ed 16 bf 17 ea ba bf dc e6 29 3d
       -0.39869592 -0.58956176 -1.4602689 0.04147993
000300 aa 49 23 bf 1c 12 46 bd f8 0d 5a bf cd 3d a4 bf
       -0.6378428 -0.048357114 -0.85177565 -1.283136
000310 58 b7 41 c0 b0 28 04 40 d8 40 a4 3e 71 bb 9a 3e
       -3.0268154 2.0649834 0.32080722 0.3022113
000320 2d b0 90 bf ec ea 43 be cb da 97 be 62 4c 96 3e
       -1.1303765 -0.19132584 -0.29659113 0.2935515
000330 8d d4 ce 3e 85 b2 b6 3f 1a ea d2 be 73 8f 88 3f
       0.40396538 1.427323 -0.4119423 1.0668777
000340 53 59 d1 3e ae 09 90 bd 5c bc 78 be 33 52 53 3f
       0.4088846 -0.07033096 -0.24290603 0.825473
000350 63 57 99 3d c2 ca 78 be 0d ad 5e bf f5 70 94 3f
       0.07487371 -0.24296096 -0.86982805 1.1596972
000360 a2 b7 50 3f 3b 92 32 3f 78 d2 fb 3e a6 05 93 bf
       0.815302 0.6975438 0.49184012 -1.1486099
000370 a6 75 d2 be 46 ac bf 3e 0a 6c f4 be 70 ea d3 bf
       -0.41105384 0.37436122 -0.47738677 -1.655592
000380 38 ba 2e bf 90 b4 17 3e 92 e3 22 3f ed 69 5c be
       -0.682529 0.14814973 0.63628495 -0.21524782
000390 d5 97 53 bf 10 30 8e 3f ab 6b b7 bf 21 d9 1a 3e
       -0.8265355 1.1108418 -1.4329733 0.1512189
0003a0 38 13 50 3e 4e 33 52 3f e8 b9 5d 3f 38 6f 60 bc
       0.20319831 0.82109535 0.86611795 -0.013698392
0003b0 c0 71 f4 3e de 20 1d 3f a5 02 ee 3f 15 bb ce bf
       0.47743034 0.61378276 1.8594557 -1.6150843
0003c0 cf f3 bc 3f 17 13 14 3e ad 15 4e 3d fa dd 29 3f
       1.4761904 0.14460407 0.05031364 0.66354334
0003d0 0f 64 66 3e 98 7c c4 3f 7a 22 73 bc 28 c7 3f 3f
       0.22499107 1.5350523 -0.014839763 0.74913263
0003e0 8b df 22 bd 08 2a e2 3e 21 ea 8a bf 70 f1 ba 3f
       -0.03976397 0.44172692 -1.08527 1.4604931
0003f0 39 6b 5c 3e 3f 19 06 bf 73 d0 45 3f 9b be 8b 3f
       0.21525277 -0.5238227 0.77271193 1.0917543

gru.weight_ih_l0 f4 [6, 2]
000000 c0 07 c1 bd 92 1e 35 bb 65 c0 d8 3b 05 44 47 3c
       -0.09425306 -0.002763663 0.006614732 0.012162213
000010 4f 44 fd bb 04 72 b8 3c f5 c6 1e bd fc 41 0b 3d
       -0.0077290903 0.022515304 -0.03876396 0.033998474
000020 7b c6 15 3d bd a0 11 bd c4 33 7c 3d 72 96 50 bd
       0.03656624 -0.035553683 0.061572805 -0.050924726

gru.weight_hh_l0 f4 [6, 2]
000000 c7 98 e7 3d 4c 63 b5 be cd 33 b1 3e 03 6f fa 3e
       0.11308437 -0.3542732 0.34609833 0.4891282
000010 16 40 bb be 87 ad c9 bf 77 56 de c0 53 5a ac c0
       -0.3657233 -1.5756081 -6.948055 -5.386026
000020 14 5b ac 3e 96 95 bc 3f a9 98 58 3f d8 75 84 3d
       0.33663237 1.473315 0.8460794 0.064677894

gru.bias_ih_l0 f4 [6]
000000 0c 01 b6 3f 43 ba 9b 3e 3e 3e 52 bd da b1 26 3e
       1.421907 0.30415544 -0.05132889 0.16278782
000010 b2 03 18 40 cc 02 02 40
       2.3752255 2.0314207

gru.bias_hh_l0 f4 [6]
000000 ec 0e 2f 3f 47 65 3d 3f fa f3 a4 bc 7c 73 a8 be
       0.68382144 0.7398266 -0.020135868 -0.32900608
000010 74 1c 51 40 b6 e8 2b 40
       3.2673616 2.6860785

fc.weight f4 [15345, 2]
000000 45 53 49 c0 e3 7f 91 be f4 78 8c c0 1c 8a f1 be
       -3.1457074 -0.28417882 -4.389765 -0.47175682
000010 46 ba 89 c0 cf 20 e9 be bb fa 40 3f e6 86 b4 3d
       -4.3039885 -0.45532843 0.75382584 0.08814792
000020 b9 ec 40 40 c3 25 08 3c 83 8c 26 40 25 45 b4 bc
       3.0144484 0.008309784 2.6023262 -0.022005627
000030 47 df 05 40 17 17 94 3c fb 2b 0b 40 dc af 17 3b
       2.0917528 0.018077416 2.1745594 0.0023145592
000040 7b 04 05 40 62 71 ce 3c c9 df 12 40 e6 81 c5 bb
       2.0783985 0.02520055 2.2949088 -0.006027448
000050 21 c9 09 40 bd 1e b6 3d f3 5f 22 40 63 2b 02 3d
       2.152901 0.088925816 2.5371063 0.031779658
000060 e3 4a 08 40 48 8c cf 3d c7 18 20 40 bf fb e8 bc
       2.1295707 0.101341784 2.5015123 -0.028440354
000070 00 00 eb 3f 15 46 ed 3c 1a 4c d3 3f b8 a9 68 3c
       1.8359375 0.028964082 1.6507599 0.01420062
000080 21 b8 10 40 97 5f 3c 3d e4 24 c7 3f 9e aa 14 3d
       2.2612383 0.0459896 1.5558133 0.036295526
000090 e4 3d d7 3f e5 d8 5e 3d 36 90 e0 3f 5d f8 42 3d
       1.6815763 0.054406065 1.754401 0.04760014
0000a0 e3 af c7 3f 22 54 99 bb b4 37 da 3f 5f 4b 6e 3d
       1.5600551 -0.004679219 1.7048249 0.05817735
0000b0 72 58 e0 3f f3 4f ca 3c 87 d7 ec 3f a0 6d 9d 3d
       1.7526991 0.024696326 1.8503274 0.07686925
0000c0 b6 23 ff 3f fa 7a 87 3c 03 3f e3 3f af c7 17 3d
       1.9932773 0.016538132 1.7753605 0.037055667
0000d0 73 00 03 40 41 67 4c 3d ce d3 e6 3f 21 a9 b4 3b
       2.0469024 0.049903158 1.8033388 0.005513326
0000e0 4d c8 00 40 dc 90 51 bc 55 2f ec 3f 52 de ea 3c
       2.0122254 -0.012790885 1.8451945 0.028670464
0000f0 9c 53 07 40 74 a2 92 3d e7 ec c4 3f 76 13 96 3b
       2.114478 0.07159892 1.5384797 0.0045799566
000100 20 c6 ab 3f c9 29 75 3d 66 6e ab 3f 0b 9d 91 3d
       1.3419838 0.059854303 1.3393066 0.07110032
000110 35 05 03 40 aa e7 21 3d 32 f1 c9 3f 77 32 ae 3d
       2.0471928 0.039527573 1.5776732 0.08505719
000120 c6 ba c8 3f 1c 08 64 3d 8b a0 db 3f 1f b9 5c 3c
       1.5681999 0.055671796 1.7158369 0.013471871
000130 49 4a c4 3f 36 7c 70 3d 1c f6 be 3f 2f 1a 92 bc
       1.533517 0.058712207 1.4918857 -0.017834751
000140 4f d1 9c 3f dc 54 1e bd ed 51 86 3f 17 6e d9 3d
       1.2251376 -0.038655147 1.0493752 0.10616701
000150 b6 09 af 3f 8e 7a 18 3d c5 b7 9a 3f e5 da 8d 3d
       1.3674839 0.037226252 1.2087332 0.069265164
000160 33 a5 b0 3f b9 b4 29 3d a9 fe 8e 3f a5 a5 a4 3d
       1.3800415 0.041432116 1.1171466 0.08039407
000170 60 bb 94 3f 97 92 78 3d f9 4f b6 3f bc b6 7c 3d
       1.1619682 0.060686674 1.4243156 0.061697707
000180 c0 ec 67 3f 68 84 ce 3c ea 74 9b 3f 97 64 cd 3c
       0.90595627 0.02520962 1.2145054 0.025072379
000190 82 ef cf 3f 3a 0e 7c 3d be 64 ad 3f 72 7f ad 3d
       1.6244967 0.061537005 1.3546369 0.08471574
0001a0 c9 89 84 3f 26 e7 8a 3d 0a f5 d3 3f 43 71 93 3d
       1.0354549 0.06782369 1.6559155 0.07199337
0001b0 50 f7 90 3f 31 d7 8a b9 bd 3a c7 3f 20 90 aa 3d
       1.1325474 -0.0002648174 1.55648 0.08328271
0001c0 c1 70 c8 3f 09 dc 81 3d c4 ff a6 3f 49 ac 7e bd
       1.565941 0.063407965 1.3046803 -0.062176023
0001d0 c0 30 87 3f ea 69 3a 3d 03 b9 ad 3f 0c 90 ba 3d
       1.0561752 0.045511164 1.3572086 0.09109506
0001e0 b3 80 c4 3f ee 46 03 3e e5 60 9e 3f 6b a3 bd 3c
       1.5351776 0.12820026 1.237332 0.023149213
0001f0 45 6b 9a 3f e8 de c2 bb 08 c2 95 3f 72 b5 1c 3d
       1.2063986 -0.0059469827 1.1699839 0.038258977
000200 66 e0 ab 3f 58 a6 06 3e 96 8a c7 3f f4 79 25 3c
       1.3427856 0.13149393 1.5589168 0.010099877
000210 76 e9 c3 3f e8 a6 97 3d 39 d9 ca 3f 39 54 38 3d
       1.5305622 0.07404882 1.5847541 0.045002196
000220 85 78 ce 3f 99 c6 c8 3d 43 6f 7a 3f b0 72 ad 3c
       1.613053 0.098035045 0.9782602 0.021172851
000230 7e 18 a4 3f 9f 0b b7 3d 52 c2 35 3f 2a c0 81 3d
       1.2819974 0.089377634 0.70999634 0.063354805
000240 a6 77 ab 3f e8 d1 be 3d 81 7a 8f 3f a4 c1 ba 3d
       1.3395889 0.0931738 1.120926 0.09118965
000250 84 8f 1d 3f b6 33 9f bb 9f fb 74 3f 51 98 78 3d
       0.6154711 -0.0048584593 0.95696443 0.060692135
000260 a2 ad 75 3f 09 4e 57 3d bd fd 09 3f ff 19 33 3d
       0.9596807 0.052564654 0.539028 0.043725964
000270 26 a2 87 3f 5e 03 ec 3c c1 b3 99 3f 2c 15 02 3e
       1.0596359 0.0288102 1.2007982 0.12703389
000280 05 09 97 3f ca 97 1f bc fa 12 85 3f 80 60 a5 bc
       1.1799628 -0.009740779 1.0396416 -0.020187616
000290 46 f4 04 3f 7e 7e dc 3d 6a d2 80 3f d5 7a 18 3e
       0.5193523 0.10766314 1.0064213 0.14890607
0002a0 3e 77 5f 3f 25 5f 86 3c 1b e7 f4 3e eb 7f cb 3d
       0.87291324 0.01640279 0.4783257 0.09936508
0002b0 b5 83 a5 3f d7 34 65 3d 6f ee 68 3f b9 af c8 3d
       1.2930819 0.055958595 0.9098882 0.097991414
0002c0 db f9 af 3f c7 37 d6 3d 5c d9 a0 3f e5 ca ad 3c
       1.3748125 0.104598574 1.2566333 0.021214912
0002d0 d3 dc 35 3f 1e 0a 28 bc a9 12 43 3f 77 fe 3c 3e
       0.71040076 -0.010256318 0.7620035 0.18456446
0002e0 b5 c9 a2 3f 37 d7 28 3e 68 a7 59 3f c1 f4 5d 3d
       1.2717806 0.16488348 0.85021067 0.054188494
0002f0 aa bc 69 3f 1c 22 d2 3d b6 55 2b 3f 8f b1 f3 3c
       0.91303504 0.10260412 0.6692766 0.029747752
000300 9e d1 85 3f 0b 5c c8 3d 43 1e 8f 3f fc 26 92 3c
       1.0454595 0.09783181 1.118111 0.017840855
000310 cd b7 75 3f 40 36 8c 3e 34 a3 8e 3f 08 34 2c 3c
       0.9598358 0.2738514 1.1143556 0.010510452
000320 06 85 45 3f 6b 92 1c 3d f1 49 07 3f 9e 93 2a 3d
       0.771561 0.038225573 0.528472 0.041644685
000330 55 d9 8e 3f 62 40 53 3d dc 23 4d 3f 70 00 82 3d
       1.1160074 0.051575072 0.8013284 0.0634774
000340 de c4 47 3f 60 9a 50 38 3c 36 33 3f 3f 83 c0 3d
       0.7803477 4.9734837e-05 0.7000463 0.09400033
000350 a8 d7 82 3f fe e0 13 3e a0 2d fe 3e 7b 5f 12 bd
       1.0222063 0.14441296 0.49644184 -0.03573559
000360 b8 5d 42 3f e2 8b c8 3d 50 12 97 3f ab 62 61 3d
       0.75924253 0.097923055 1.1802464 0.055025738
000370 c5 5a a1 3f 8f 51 10 3e a3 f7 41 3f 8f cf 0a 3d
       1.2605826 0.14093612 0.7576849 0.03388935
000380 d4 f4 84 3f 81 15 ee 3c 3f 30 59 3f e6 53 a0 3d
       1.0387216 0.029062988 0.8483924 0.07828502
000390 6f 72 95 3f f4 67 bc 3d 1f d6 26 3f a7 1a 21 bd
       1.1675547 0.09199515 0.6517047 -0.03933206
0003a0 44 f2 b2 3f 55 5b 19 3e ac ba a6 3f ad 3e 6f 3d
       1.3980184 0.14976247 1.3025718 0.05840938
0003b0 83 e2 38 3f 12 cb c1 bc 71 7b 6e 3f f5 4c 79 bc
       0.7222063 -0.023656402 0.93157107 -0.015216102
0003c0 bd 0d a4 3e 48 26 b9 3d a8 72 56 3f 8a 22 62 3d
       0.3204173 0.09040505 0.837687 0.05520872
0003d0 06 0b 2e 3f 73 76 8a 3d ab c8 aa 3f 5c cf 4f 3d
       0.6798557 0.06760874 1.3342489 0.050734863
0003e0 71 f5 99 3e 79 03 29 3d c9 5b 52 3f 65 ef ef 3d
       0.3007007 0.041263077 0.82171303 0.11715583
0003f0 1f cb b3 3e 3a f1 dd 3d 14 1d 88 3f 36 22 60 3d
       0.35115907 0.10837026 1.0633874 0.054720126

fc.bias f4 [15345]
000000 90 2d 5c c0 0a ea 23 c0 2a 7f 58 c0 00 6f a6 3f
       -3.440281 -2.5611596 -3.3827615 1.3002625
000010 b5 32 7a 40 db a7 6f 40 77 48 7f 40 dd 65 6f 40
       3.909345 3.74462 3.988798 3.7405922
000020 6f de 6c 40 ab b9 60 40 b7 2d 63 40 96 b1 44 40
       3.7010763 3.5113323 3.5496652 3.073339
000030 8e 5f 4f 40 ff 0b 39 40 1f 6b 5c 40 de 84 5c 40
       3.2402072 2.8913572 3.4440382 3.4456096
000040 4b da 30 40 d1 31 58 40 d8 da 52 40 af b9 4b 40
       2.7633235 3.3780406 3.2946072 3.1832082
000050 20 8f 57 40 0b 45 46 40 97 69 39 40 ce 46 37 40
       3.3681107 3.097964 2.8970697 2.8636966
000060 e5 dc 2c 40 ad 1d 34 40 20 e4 20 40 ff ac 2d 40
       2.7009823 2.8143113 2.5139236 2.7136838
000070 04 67 18 40 49 6b 21 40 60 70 0a 40 21 59 2b 40
       2.3812876 2.5221732 2.1631088 2.677315
000080 d9 48 31 40 ea b9 2d 40 5d c1 ff 3f 91 e6 18 40
       2.7700713 2.7144723 1.9980885 2.3890727
000090 9d 76 13 40 16 24 0b 40 05 ab 13 40 a7 51 12 40
       2.3041146 2.1740775 2.3073132 2.2862337
0000a0 d1 c9 1c 40 83 6f 27 40 7b 5c 13 40 59 b3 15 40
       2.449818 2.6161811 2.3025196 2.3390715
0000b0 77 c0 0d 40 1d 2e 19 40 6f fe 18 40 65 5c 07 40
       2.2148721 2.3934395 2.3905294 2.1150143
0000c0 a8 15 21 40 07 eb 0d 40 1f c4 e9 3f 5d 66 01 40
       2.5169468 2.21747 1.8262976 2.0218728
0000d0 b7 a6 10 40 99 4e d4 3f 97 d8 0b 40 b7 9f d8 3f
       2.2601755 1.6586486 2.1850946 1.6923741
0000e0 1c 33 db 3f 26 55 fd 3f f3 3f 09 40 14 87 f9 3f
       1.7124972 1.979161 2.1445282 1.9494348
0000f0 b5 d3 d3 3f 49 21 fa 3f 89 89 f1 3f db d0 01 40
       1.6548983 1.9541408 1.8870097 2.0283725
000100 97 0e e8 3f 54 2f cd 3f 7c 9e d3 3f 9a 38 c6 3f
       1.8129452 1.6030068 1.653274 1.5486023
000110 1e 90 b6 3f ac 47 04 40 78 3c e4 3f 38 7e 0e 40
       1.4262731 2.0668745 1.7830954 2.2264538
000120 fc b6 cc 3f dc f4 df 3f bc 5f 0d 40 78 d2 f3 3f
       1.5993342 1.74966 2.2089682 1.9048605
000130 ae d7 ef 3f 88 02 0b 40 71 f6 e5 3f cd ca c4 3f
       1.8737695 2.1720295 1.7965833 1.537439
000140 28 33 d0 3f d5 a0 d8 3f 77 eb 07 40 d5 9f d1 3f
       1.6265612 1.6924082 2.1237466 1.6376902
000150 d5 bd de 3f eb 4c 04 40 4c d5 af 3f bc 6c d3 3f
       1.7401682 2.0671947 1.3736968 1.6517558
000160 98 76 98 3f 6f 13 a9 3f 6d db e1 3f 9d 6b db 3f
       1.1911192 1.3209056 1.7645088 1.7142216
000170 2e 28 9a 3f 9c 9b d1 3f 08 50 cb 3f 4c 7b eb 3f
       1.2043512 1.6375613 1.5883799 1.8397002
000180 40 ee b8 3f 1d a5 b2 3f b4 51 ad 3f ea 6a 9f 3f
       1.4447708 1.3956639 1.3540559 1.2454503
000190 34 64 d5 3f a8 af ef 3f 4b fb 9d 3f 71 b0 c4 3f
       1.6671205 1.8725481 1.2342314 1.5366346
0001a0 64 20 c5 3f 49 38 c8 3f ca ce a2 3f 0c 73 dd 3f
       1.540051 1.5642177 1.2719357 1.7300735
0001b0 bb 3f be 3f c3 de 82 3f 9a e8 7c 3f 4b ee b8 3f
       1.4863199 1.0224231 0.9879242 1.4447721
0001c0 ab 88 99 3f af 5b ae 3f 15 73 88 3f 61 de c0 3f
       1.1994833 1.362173 1.066012 1.5067865
0001d0 73 23 4d 3f b9 a2 6b 3f 59 d1 b8 3f cf 89 9d 3f
       0.80132216 0.9204517 1.4438888 1.2307681
0001e0 3e 4f e3 3f c5 f1 a2 3f 57 84 bf 3f 3f d1 4d 3f
       1.7758558 1.2730032 1.4962262 0.8039741
0001f0 6f 9b dc 3f 5e ec a5 3f c9 92 d7 3f aa 78 80 3f
       1.7234935 1.2962759 1.684167 1.0036824
000200 b5 18 aa 3f 17 f5 a1 3f 1d f5 a0 3f 9f 81 99 3f
       1.328879 1.265292 1.2574803 1.1992682
000210 1c 2a 91 3f 3b 24 85 3f 54 75 43 3f 7a 6c 9d 3f
       1.1340976 1.0401682 0.76350904 1.229873
000220 b7 a9 b6 3f 5e 42 b2 3f ba d1 a2 3f 8a 38 9f 3f
       1.4270543 1.3926504 1.2720253 1.2439129
000230 69 88 a8 3f 0f 39 c5 3f 13 49 78 3f a6 9e a6 3f
       1.3166629 1.5408038 0.969865 1.3017166
000240 ec d8 b9 3f b6 bf 99 3f 25 7f ae 3f c5 64 8d 3f
       1.4519324 1.201163 1.3632551 1.1046377
000250 7a 6d 9a 3f af 5a 94 3f 8c 9c 64 3f 0e d7 64 3f
       1.206466 1.1590174 0.8930137 0.8939065
000260 b8 60 88 3f 24 6a 92 3f ad c6 ce 3f 9e f5 34 3f
       1.0654516 1.1438642 1.6154381 0.7068728
000270 06 53 8b 3f 0a 2e ba 3f 50 af 4a 3f 68 51 7a 3f
       1.0884712 1.45453 0.79173756 0.97780466
000280 09 32 42 3f a4 d6 8b 3f 64 bb 75 3f 74 11 59 3f
       0.758576 1.0924878 0.9598906 0.84792256
000290 96 2a c2 3f e8 6e 83 3f a6 1c 32 3f ee 51 b8 3f
       1.5169246 1.0268221 0.69574964 1.4400003
0002a0 82 ee 43 3f c1 ec 2c 3f 90 8c 89 3f 59 ae 60 3f
       0.7653581 0.6754876 1.0746021 0.87766033
0002b0 51 48 64 3f b9 dd ae 3f e5 0f 55 3f ff ea 63 3f
       0.89172846 1.3661414 0.8322738 0.8903045
0002c0 41 dd 90 3f 09 36 70 3f cc 51 91 3f ae c4 9d 3f
       1.1317521 0.9383245 1.1353087 1.2325647
0002d0 d4 08 9f 3f c2 ee 76 3f 36 55 58 3f 7a cb ba 3f
       1.2424569 0.96458066 0.8450502 1.4593346
0002e0 1e b2 2b 3f 35 b2 85 3f 2b c2 8b 3f 63 b4 68 3f
       0.6706866 1.044501 1.091863 0.9090025
0002f0 54 86 9f 3f be ec 76 3f 78 71 98 3f ef 65 87 3f
       1.2462869 0.9645499 1.1909628 1.0577983
000300 a4 68 a5 3f 65 63 45 3f 63 41 4f 3f 67 bb b3 3f
       1.2922559 0.7710479 0.8095915 1.4041566
000310 00 db 77 3f 54 12 aa 3f 7d 85 89 3f 62 0f 69 3f
       0.9681854 1.3286843 1.0743862 0.910391
000320 53 ee 88 3f cf 6f ad 3f fd e0 9b 3f 85 65 82 3f
       1.0697731 1.3549746 1.2178036 1.0187231
000330 a0 73 76 3f fb 9d 82 3f 2f 44 9f 3f 44 4a 8d 3f
       0.9627018 1.0204462 1.2442683 1.1038289
000340 2e a6 96 3f b0 9c 82 3f f5 b6 6a 3f 33 a1 56 3f
       1.1769464 1.0204067 0.9168542 0.8383972
000350 ed f3 93 3f 9d cd 89 3f 5f e9 89 3f 36 71 59 3f
       1.1558815 1.0765873 1.0774344 0.8493837
000360 38 1a 15 3f 15 99 65 3f f2 a8 3c 3f 4c 98 81 3f
       0.5824313 0.8968671 0.7369529 1.0124602
000370 32 b5 9f 3f 59 5b 8e 3f 3d bf 16 3f 03 d4 43 3f
       1.2477171 1.1121627 0.58885556 0.7649538
000380 2d 46 60 3f 4e be 79 3f e4 bb 69 3f f1 b2 a7 3f
       0.8760708 0.97556007 0.91302323 1.3101484
000390 d0 25 34 3f 8c b2 59 3f 44 c6 78 3f 43 81 91 3f
       0.703702 0.85038066 0.9717753 1.1367573
0003a0 98 85 4a 3f 96 ea 87 3f 6d a2 45 3f 0c ed 46 3f
       0.791101 1.0618465 0.7720097 0.77705455
0003b0 2d 99 47 3f 5d 2c 57 3f 5c 1f 63 3f 79 c7 48 3f
       0.779681 0.8405207 0.88719726 0.7842937
0003c0 98 6d a9 3f 29 b0 89 3f b5 5a 13 3f 05 7f b1 3f
       1.323657 1.0756885 0.5756028 1.3866888
0003d0 ff ac 6a 3f db 78 94 3f c6 25 83 3f bd ab 96 3f
       0.9167022 1.1599382 1.0245903 1.177116
0003e0 f5 d9 65 3f f8 69 15 3f b0 85 89 3f 12 04 41 3f
       0.897857 0.5836482 1.0743923 0.75396836
0003f0 0e 57 86 3f 87 ca 52 3f 8b 25 40 3f 74 ff a5 3e
       1.0495317 0.8234028 0.75057286 0.32421458
