experiments/lstm_h2_l1_20241126_102334/final_model.pth (torch, 311216 bytes, 7 tensors)

embedding.weight f4 [15345, 2]
000000 b4 70 1a bf fd 3e bb bf a5 8a a1 3f 15 48 60 3f
       -0.6032822 -1.4628597 1.2620436 0.8760999
000010 2c ba f4 3f d7 24 4f 3e ff 26 89 3e c1 dd d8 be
       1.9119315 0.20228897 0.26787564 -0.42356685
000020 0b 82 06 bf e3 3d fd 3f 57 b4 21 3f 51 fb 3e 40
       -0.5254218 1.9784511 0.631658 2.9840891
000030 ec ce ef bd c9 7c 49 40 50 f2 8d bb ae d3 4c 3f
       -0.11709389 3.1482413 -0.0043318644 0.800105
000040 0c 21 e2 bc a2 52 90 3e cc 98 fe 3e df af 70 40
       -0.027603649 0.28188044 0.4972595 3.7607343
000050 63 52 91 3f e8 5c 57 40 94 58 dd 3e 26 23 fc 3f
       1.1353267 3.3650455 0.43231642 1.9698226
000060 bf e4 d5 3e 23 7d 2c 40 1c 36 8a bf 77 ca 1c 40
       0.41776082 2.6951377 -1.0797763 2.4498575
000070 4b c7 16 40 3c d1 45 3f 00 58 19 40 fe 19 65 3f
       2.3559139 0.7727239 2.395996 0.89492786
000080 36 64 76 c0 79 17 b6 bf a7 1f c5 bf b5 06 ee be
       -3.8498664 -1.4225913 -1.5400285 -0.46489492
000090 1a ee 04 c0 d6 c4 90 3f 86 71 9a be 43 1f de 3f
       -2.0770326 1.131007 -0.30164737 1.735329
0000a0 40 93 70 3f 58 6f 21 40 ff d8 da bf 58 3c 06 40
       0.93974686 2.522421 -1.7097472 2.097433
0000b0 3e be c1 3f 6f 42 d0 3f 2b 7c 66 c0 1d 53 83 bf
       1.5136182 1.6270274 -3.6013286 -1.0259739
0000c0 fe 32 de bf 06 1d 97 be 7a 99 79 bf 8b 6a 26 3f
       -1.7359312 -0.2951433 -0.9749981 0.6500632
0000d0 8c 7d cd 3e 12 b3 da 3f 5a ae d4 bd ed 8c 1b 3f
       0.40134847 1.7085898 -0.103848174 0.6076191
0000e0 ed 2e 85 3f ec 21 93 3f 6e 5d c3 3f 82 ef f1 3e
       1.0404946 1.1494727 1.5262887 0.47253042
0000f0 71 71 1c 3e 5d b2 56 40 44 79 8f 3f ff 7d 22 40
       0.1527765 3.3546364 1.1208882 2.5389402
000100 d5 a6 9b bd a1 16 e1 3f 52 1c a3 bf d2 13 a8 be
       -0.0760018 1.7585031 -1.2743018 -0.32827622
000110 eb 46 87 3f cd b3 1a 40 93 8e ad bf e6 b8 15 bf
       1.0568517 2.4172242 -1.3559135 -0.5848526
000120 07 ec e7 bf 59 55 06 40 43 9a 84 3f 24 a2 ad 3f
       -1.8118905 2.0989592 1.0359577 1.3565106
000130 20 da b3 3f e6 8b 24 40 6b be 55 3f ef 53 a4 3f
       1.4050941 2.5710387 0.8349368 1.2838115
000140 74 e8 11 40 ff e0 8d 3f 30 5e 11 40 45 b3 d5 3f
       2.2798128 1.1084288 2.2713737 1.6695334
000150 9a 01 02 40 18 45 b8 3f c6 f8 96 bf 6d 56 dd be
       2.0313478 1.4396086 -1.179467 -0.4323
000160 b2 29 14 3e d8 9c ab 3e d5 76 10 3d 0b 46 0f 40
       0.1446903 0.335181 0.035269577 2.23865
000170 02 49 8a 3c c1 2a d6 be 9a 14 6d bf 2d ab 35 bf
       0.016880516 -0.41829494 -0.9260956 -0.7096432
000180 d9 52 06 c0 d8 e0 2d 3f f3 60 a2 bf 58 fb 29 bf
       -2.0988066 0.6792121 -1.2685837 -0.66399145
000190 a6 0e dc bf 9e 57 20 bf fc d2 25 be f3 8a fe 3f
       -1.719197 -0.62633693 -0.16193765 1.9886154
0001a0 c4 b4 d7 3f 54 5b 3f 3f f1 1c 0a 40 18 a2 94 3f
       1.685204 0.7474873 2.1580164 1.1611967
0001b0 96 16 a7 3f 2a cf 24 3e 0e 90 10 40 47 89 2d 3f
       1.3053768 0.16094652 2.2587924 0.67787594
0001c0 40 1f 9e 3e 7c 22 20 bf 4e b6 04 bf f3 80 47 3e
       0.30883217 -0.6255262 -0.51840675 0.19482784
0001d0 b3 43 90 3f 30 9b 14 40 42 90 1c 3f bc 76 4b be
       1.127066 2.321972 0.6115762 -0.19869512
0001e0 d9 9c b5 bf 48 61 a3 bf ec 79 4b bf a0 d8 26 3e
       -1.4188491 -1.2764063 -0.79482913 0.16293573
0001f0 1d 7d ba bf 71 8e 05 bf fa a7 a8 be ed 6b f2 3e
       -1.4569432 -0.52170473 -0.32940656 0.47347966
000200 cf 02 e6 bf cb 1e 7b be 7e 53 5b be 89 5d 60 3f
       -1.7969607 -0.24523465 -0.21418568 0.87642723
000210 a0 9c ef 3e c4 4e e3 3f 5f 95 db 3f c9 76 90 3f
       0.46799183 1.7758412 1.715496 1.128625
000220 84 7a 23 bf b1 aa 0f c0 78 5f 54 c0 6c 0b 0d bf
       -0.6385882 -2.2447932 -3.318327 -0.55095553
000230 77 a2 89 bf 26 35 eb bd d0 a1 04 3f fc 49 d5 3f
       -1.0752705 -0.11484747 0.51809406 1.6663203
000240 e5 8e 0a c0 4c b6 2e bf c5 9b 6e 3f f9 bd 32 3f
       -2.1649716 -0.6824691 0.93206435 0.69821125
000250 d3 4d 09 3f 0a 86 65 bf 66 f6 5a 3d 14 7a 19 3f
       0.53634375 -0.8965765 0.05345764 0.599519
000260 34 81 58 bf c5 c8 a7 bd ac f1 96 bf 2a 4e 36 be
       -0.8457215 -0.081925906 -1.1792502 -0.17803255
000270 0a 04 ad 3f 50 18 12 40 f1 bc 6d bf 2e 45 db bf
       1.3516858 2.282734 -0.92866427 -1.7130487
000280 82 4e ab bd cc b5 00 bf fe f4 b1 bf ff 0e 2b bf
       -0.083645836 -0.502774 -1.3902891 -0.6681976
000290 09 f1 10 c0 54 5e c6 bf 36 c5 be be 41 03 c8 bf
       -2.2647116 -1.5497537 -0.37259835 -1.5625993
0002a0 fa 53 e1 3f d4 07 2c 40 90 8e ff bf f3 9d 29 bf
       1.7603753 2.6879778 -1.9965382 -0.66256636
0002b0 2e a5 1a bf 19 4f 1a 3e d6 1e b6 bf c2 50 b3 3f
       -0.60408294 0.15069236 -1.422816 1.400902
0002c0 70 01 72 bf ca 14 8a 3f 58 76 30 3f 65 6d b1 3f
       -0.94533443 1.0787594 0.6893058 1.386151
0002d0 8d e4 11 bf 63 83 f2 bf c2 db a4 be b8 7c 08 3e
       -0.56989366 -1.8946346 -0.32198912 0.13328826
0002e0 a6 82 d7 be da 8b 20 c0 2a 3b 14 c0 57 01 ca 3f
       -0.42091864 -2.5085359 -2.316111 1.5781659
0002f0 6d 27 27 bf d4 17 e2 bf 0c 4e 5b bf 75 4b 6b 3f
       -0.65294534 -1.7663522 -0.85665965 0.91912013
000300 32 73 0f 3f 3f 6d ea 3f 0f 1b 52 3f 57 bd 93 bf
       0.5603515 1.8314589 0.8207254 -1.1542157
000310 1a 28 d1 bf f6 56 35 bf ab 86 7e bf 01 6c 02 bf
       -1.6340363 -0.70835817 -0.99424237 -0.5094605
000320 11 86 45 3f dd 84 7a 3f e2 f7 1d bf 00 f2 af 3d
       0.77157694 0.97858983 -0.61706364 0.0859108
000330 63 90 82 bf cb ff 49 3f 43 7c 54 bf b7 ab 48 3e
       -1.0200313 0.78905934 -0.8300211 0.19596754
000340 5a e5 ab bf 83 17 67 be 0f f3 62 3f f2 4f 91 be
       -1.3429368 -0.22567563 0.8865213 -0.28381306
000350 36 25 5e c0 eb f5 53 3f af 54 23 3e f1 1c c2 bf
       -3.4710212 0.82797116 0.15950273 -1.5165082
000360 fa ab 35 bf ff 58 af bf 42 9f 59 bf 8f bf a2 bf
       -0.7096554 -1.3699034 -0.85008633 -1.2714709
000370 7c e7 00 bf c7 4b 09 40 b3 92 ff 3e dc a6 23 3f
       -0.5035322 2.14525 0.4991661 0.6392648
000380 fd f8 33 3f a0 2a ea 3c 25 74 85 3e 18 29 3a 3f
       0.703018 0.028584778 0.26065174 0.72718954
000390 4b d5 86 3f ab ee 9d 3c 30 39 bf 3d e1 db a8 3f
       1.0533842 0.019278845 0.093370795 1.3192102
0003a0 41 91 89 be 96 ad 56 bf 6e fc be bc c8 9b 02 3f
       -0.26868632 -0.8385862 -0.023313727 0.51018953
0003b0 07 30 0f bf fe de c1 3f 7e 64 fc 3d 7c 90 cb bf
       -0.5593266 1.5146177 0.12323855 -1.5903468
0003c0 7f 0c 37 bf ad a5 ab bf c7 04 50 be f4 d7 fe be
       -0.7150344 -1.3409935 -0.20314322 -0.49774134
0003d0 29 5d a3 3e ed ac 67 3f b5 5f c2 3f e9 17 9f 3f
       0.31907013 0.9049824 1.5185457 1.2429172
0003e0 5f a2 8f 3d d8 35 93 3f b9 98 a8 3f 30 0f be 3f
       0.07013392 1.1500807 1.3171607 1.4848385
0003f0 9b af e7 3e 30 78 12 3f cb b0 c7 bf 27 50 1d 40
       0.45251164 0.5721464 -1.5600828 2.458017

lstm.weight_ih_l0 f4 [8, 2]
000000 0d 21 2c bf c5 0b d0 bf a6 43 ad bf 25 f6 52 be
       -0.6723793 -1.6253592 -1.353627 -0.20601709
000010 f1 c6 10 bf e2 cc 0b c0 a1 10 5d bf d4 55 b0 bf
       -0.5655356 -2.18438 -0.863535 -1.3776193
000020 4d e7 c0 be 31 b0 2e bf 4e 42 52 bf cf bf e4 bc
       -0.37676468 -0.68237597 -0.8213242 -0.027923493
000030 6e b5 57 bf 4f 30 dd bf 7f 31 a0 bf 3b 99 81 be
       -0.84261215 -1.7280368 -1.2515105 -0.25312218

lstm.weight_hh_l0 f4 [8, 2]
000000 90 f0 7c bf e6 85 c3 be 3b ab ae 3e 2c c1 3f 3e
       -0.9880457 -0.38188094 0.34115013 0.18726033
000010 4a 85 8c bf 25 98 cd 3b 8b 1c 86 bf 69 41 8c bf
       -1.0978177 0.0062742406 -1.0477461 -1.0957462
000020 da b8 cc 3e 1b e8 b1 3e 56 d2 db be d4 1b db be
       0.3998478 0.34747395 -0.4293391 -0.4279467
000030 dc 75 c1 3f 09 01 91 3f 4d 6a a1 3f 76 fd b2 3f
       1.5114093 1.1328441 1.2610565 1.39836

lstm.bias_ih_l0 f4 [8]
000000 b9 b0 de 3f 72 a8 03 40 22 fe 39 3c bc e6 31 bf
       1.7397681 2.057156 0.011352094 -0.694927
000010 32 78 dd 3f 33 d9 ca 3f 67 d1 0a 40 77 81 46 40
       1.7302306 1.5847534 2.169031 3.101652

lstm.bias_hh_l0 f4 [8]
000000 87 3a 03 40 0b 69 f9 3f 98 83 8a bf 42 be 49 bf
       2.0504472 1.9485182 -1.0821409 -0.78805935
000010 6e dd d8 3f 05 78 bd 3f 05 ff ea 3f 43 b3 08 40
       1.6942575 1.4802252 1.8359076 2.1359413

fc_out.weight f4 [15345, 2]
000000 fa 1c 74 c0 78 64 86 c0 76 c7 80 c0 89 9e 65 c0
       -3.8142686 -4.1997643 -4.0243483 -3.5878012
000010 ad 4c 83 c0 1f 78 85 c0 07 4b 03 3f 2f 03 ae 3f
       -4.10311 -4.170913 0.5128636 1.3594722
000020 27 89 4f 40 6a 1f 43 40 78 6b 0a 40 31 52 33 40
       3.242746 3.0487924 2.1628094 2.8018916
000030 5f 06 22 40 8a 81 32 40 1f 7f 29 40 2e bb 0a 40
       2.5316389 2.7891564 2.6483839 2.1676745
000040 b8 05 0c 40 bf 70 0e 40 c7 03 2e 40 88 e2 18 40
       2.187849 2.2256315 2.7189806 2.3888264
000050 d8 8e 38 40 0d 67 02 40 e1 c9 3c 40 b6 36 0c 40
       2.8837185 2.0375397 2.9498217 2.1908393
000060 b0 ec 25 40 37 9a 0d 40 ab a2 07 40 bc b9 13 40
       2.5925713 2.2125375 2.1193035 2.3082113
000070 59 39 0c 40 78 35 17 40 e2 ab 09 40 99 c4 f7 3f
       2.1910002 2.3626385 2.151116 1.9356872
000080 a4 0e eb 3f 23 d5 da 3f 36 51 0d 40 7a b0 be 3f
       1.8363843 1.7096294 2.2080817 1.4897606
000090 05 4b 1b 40 3a ba c2 3f 59 7e 07 40 cb 56 c3 3f
       2.4264538 1.5213082 2.1170866 1.5260862
0000a0 b8 5c c5 3f 2c f4 15 40 ea ac 04 40 46 9f 13 40
       1.541892 2.343028 2.0730538 2.3065963
0000b0 58 b5 e0 3f 5e d9 2b 40 a0 9e fd 3f 96 25 fa 3f
       1.7555342 2.685142 1.9814034 1.954272
0000c0 52 a0 c4 3f 59 c3 13 40 00 dc 13 40 17 12 08 40
       1.5361426 2.308798 2.3103027 2.126104
0000d0 3d 65 f9 3f 05 37 0c 40 1c 20 ba 3f e8 fb ea 3f
       1.948402 2.1908581 1.4541049 1.8358126
0000e0 0e 4e f8 3f 9a 87 d7 3f b8 43 53 3f bb 86 f8 3f
       1.939882 1.6838257 0.82525206 1.9416116
0000f0 87 f6 d2 3f 1f b5 ef 3f 78 a8 e9 3f 07 62 ea 3f
       1.6481484 1.8727149 1.8254538 1.8311166
000100 a4 0f 92 3f ca 0e 0a 40 6f 54 ea 3f 81 87 da 3f
       1.1411023 2.1571527 1.8307017 1.7072603
000110 ca 84 f6 3f 04 c7 ec 3f 86 0b 0a 40 a9 a0 db 3f
       1.9259274 1.8498235 2.1569533 1.7158405
000120 09 1f ca 3f da cb ca 3f 4c fc 8e 3f da a4 ea 3f
       1.5790721 1.584346 1.1170745 1.8331559
000130 a8 86 fa 3f 07 0c 02 40 ae 96 ad 3f 24 30 0e 40
       1.9572344 2.031984 1.3561609 2.2216883
000140 38 06 b4 3f 30 7d e8 3f 61 83 ff 3f fc 08 d4 3f
       1.4064398 1.8163204 1.9961969 1.6565242
000150 67 d6 e7 3f aa 3b 92 3f 55 52 d7 3f fa a4 ab 3f
       1.8112305 1.1424458 1.6822001 1.3409722
000160 c7 6e d7 3f 50 af 4f 3f ed 4c b1 3f 44 3a 99 3f
       1.6830682 0.8112688 1.3851601 1.1970906
000170 2a 0c e5 3f 4c 25 9a 3f d2 cc ca 3f 77 73 ca 3f
       1.7894337 1.2042632 1.5843756 1.5816487
000180 a2 59 fe 3f 1c 66 d5 3f 17 ec b3 3f c5 86 bc 3f
       1.9871104 1.6671786 1.4056424 1.4728628
000190 d1 a1 61 3f 37 03 c7 3f c8 07 9b 3f fc 89 9c 3f
       0.8813754 1.5547856 1.211175 1.222961
0001a0 3e a2 c8 3f 7e 63 b2 3f 4e d3 68 3f 29 85 f7 3f
       1.5674512 1.3936613 0.90947425 1.9337512
0001b0 37 63 8f 3f 20 12 77 3f cc b6 73 3f b5 54 ae 3f
       1.1202153 0.9651203 0.952008 1.36196
0001c0 98 e4 06 40 74 fc 87 3f 8c d0 25 3f fc 29 98 3f
       2.1077023 1.0623918 0.6477134 1.1887813
0001d0 f9 0c 91 3f 89 09 d8 3f 0c b1 cc 3f 46 c5 97 3f
       1.1332084 1.687791 1.599153 1.1857078
0001e0 ac 63 df 3f 97 9a 94 3f 7f 32 31 3f 69 d7 95 3f
       1.7452292 1.1609677 0.69217676 1.1706363
0001f0 e4 5b 91 be e4 22 cd 3f c8 f3 a2 3f 33 99 75 3f
       -0.2839042 1.6026273 1.2730646 0.9593689
000200 ca a7 c3 3f e6 55 e2 3f 07 7f 82 3f 01 04 84 3f
       1.528558 1.7682464 1.0195016 1.0313722
000210 3b d0 60 3f 96 7b ec 3f ea fb ca 3f 73 4c 2f 3f
       0.87817734 1.8475215 1.5858128 0.6847603
000220 84 6e 7b 3f 2b d6 87 3f 71 cd 8b 3f 89 d4 7f 3f
       0.9821551 1.0612234 1.0922071 0.9993368
000230 02 26 af 3f 9e bf e2 3f 46 08 4f 3f 00 97 d7 3f
       1.3683474 1.7714727 0.80872 1.6842957
000240 78 0b 85 3f 4f a8 ba 3f 83 1a 75 3f bf 21 91 3f
       1.0394125 1.4582614 0.9574358 1.1338423
000250 84 9d 1d 3f 8b b6 c2 3f 2f ad b1 3f 43 7b 86 3f
       0.61568475 1.5211958 1.3880976 1.0506366
000260 af 7a be 3f 46 4a 37 3f cc a4 69 3f 36 69 a6 3f
       1.488119 0.7159771 0.91267085 1.3000858
000270 07 14 35 3f 42 4a 90 3f 22 d3 a1 3f c3 4e 87 3f
       0.70733684 1.1272662 1.2642558 1.0570911
000280 35 db c3 be 15 a9 b7 3f ce f3 b4 be b6 0b f0 3f
       -0.3825318 1.4348475 -0.35342258 1.8753574
000290 7c b8 6e 3f 12 93 69 3f 34 c3 44 3f 95 05 5d 3f
       0.9325025 0.91240036 0.76860356 0.8633664
0002a0 03 ad 7b 3f d2 44 a9 3f 9d 93 ad 3e 9a a7 9e 3f
       0.9831087 1.3224127 0.33901682 1.2394898
0002b0 31 a2 50 3f d2 05 b7 3f 53 c2 89 3f 1b d7 fb 3e
       0.81497484 1.4298651 1.0762428 0.4918755
0002c0 b9 bc 75 3f a2 8c 03 3f eb 25 0c bf 46 5e b5 3f
       0.9599109 0.51386464 -0.5474536 1.4169395
0002d0 f1 f6 79 3f 06 0b 9f 3f f5 05 63 3f 17 fd 72 3f
       0.9764243 1.2425239 0.88680965 0.94917434
0002e0 42 3c ba 3f 53 2a 89 3f 82 da a8 3f 19 04 51 3f
       1.4549639 1.0716041 1.3191683 0.8164688
0002f0 84 92 fc 3e 01 44 38 3f 65 ff c2 3f 65 96 a2 3f
       0.49330533 0.71978766 1.523419 1.2702147
000300 60 94 d3 3d cd bf 20 3f d1 44 f4 bd d4 94 a2 3f
       0.10331035 0.62792665 -0.11927188 1.2701669
000310 85 24 70 3f b1 b4 72 3f 55 e5 ca be b8 c4 94 3f
       0.93805724 0.94806963 -0.3962809 1.1622534
000320 bb 3d bd 3f f1 fe 09 3f 97 f2 c0 bd f8 f8 a9 3f
       1.4784464 0.53904635 -0.0942127 1.3279104
000330 15 e0 8b 3f 86 76 17 3f 78 6b 50 3f 69 ab c1 3f
       1.092776 0.5916523 0.81413984 1.5130435
000340 88 1d da 3e bf cc e2 3f a0 70 26 be 4e f0 89 3f
       0.42600656 1.7718734 -0.162539 1.077646
000350 9a ae 42 3f 1f d6 b3 3f db 03 de 3e 68 c9 00 3f
       0.7604767 1.404972 0.43362316 0.5030732
000360 77 76 7b 3f 77 93 56 3f 34 db 74 3f e8 0f 8e 3f
       0.9822764 0.83818763 0.9564698 1.1098604
000370 a0 7f bc 3e 4d e6 16 3f b5 c1 ae 3f f4 e1 86 3f
       0.3681612 0.5894516 1.3652865 1.0537705
000380 b3 b9 88 3f 9c 23 8c 3f 49 3f 8d be 16 1b bc 3f
       1.0681671 1.0948367 -0.27587345 1.4695766
000390 b5 e0 2f 3f 68 b6 6b 3f 46 fe a1 be ec 6c b5 3f
       0.6870225 0.92075205 -0.31639308 1.4173865
0003a0 18 9c 3c be 09 34 3e 3f b2 de 02 3f 1e 8d 3b 3f
       -0.1841892 0.7429815 0.51121056 0.732622
0003b0 61 2f 6e 3f 1a 7c 52 3e 94 3e a4 3f 0e a3 56 3e
       0.93041044 0.20555153 1.2831597 0.20960638
0003c0 50 e0 11 3e 96 e3 88 3f 16 62 5b 3f 08 85 71 3f
       0.14245725 1.0694454 0.8569654 0.94343615
0003d0 7d 7b a5 3f 56 20 0d 3f fe 22 ac 3f f0 4f a6 3e
       1.2928311 0.55127466 1.3448179 0.32482862
0003e0 cf ca 7b 3f 76 af 13 3f 8e be 74 3f f6 c8 8a 3f
       0.98356336 0.5768961 0.95603263 1.0842578
0003f0 44 b2 f2 3e 81 1c 8a 3f 3d 0c 3a 3f 99 81 b6 3e
       0.4740163 1.0789949 0.72674924 0.3564575

fc_out.bias f4 [15345]
000000 a9 93 26 c0 e9 3d ea bf 07 59 c1 bf a0 6b f0 3e
       -2.6027625 -1.8300143 -1.5105294 0.4695711
000010 84 3b f9 3f e3 14 17 40 08 36 f1 3f 77 0d 0a 40
       1.9471288 2.3606498 1.8844614 2.1570718
000020 44 58 13 40 91 ed e9 3f a3 95 eb 3f 28 54 cb 3f
       2.3022623 1.8275625 1.840504 1.5885057
000030 5d 01 cd 3f ca 24 e8 3f 03 52 dc 3f 09 a1 ee 3f
       1.6016041 1.8136227 1.7212528 1.8642894
000040 c5 4c 0b 40 1f 98 02 40 a5 d3 f5 3f 4c be 03 40
       2.1765606 2.0405347 1.9205214 2.0584898
000050 e3 58 e7 3f aa 3c b3 3f 06 8a 93 3f 6f 5d cd 3f
       1.8074001 1.4002888 1.1526496 1.6044139
000060 74 74 c8 3f e5 6b 94 3f f6 96 a5 3f 74 e1 ea 3f
       1.5660539 1.1595427 1.2936695 1.8350053
000070 5c e9 be 3f 85 4a ff 3f ca ec b0 3f 46 3c a4 3f
       1.4914966 1.9944617 1.3822262 1.2830894
000080 18 2d bd 3f f3 c0 a9 3f dd 3a 7d 3f 46 d6 6d 3f
       1.4779387 1.3262008 0.98917943 0.9290508
000090 11 31 b1 3f 0b 06 b8 3f b1 2c 32 3f 72 64 5a 3f
       1.3843099 1.4376844 0.69599444 0.8530952
0000a0 3c 7a 82 3f 36 1e 63 3f 93 e0 b0 3f 5c 28 9e 3f
       1.0193553 0.88717973 1.3818535 1.2356067
0000b0 29 3a cf 3f 13 6a b9 3f b4 25 a0 3f 67 18 7d 3f
       1.6189624 1.4485496 1.2511506 0.9886536
0000c0 cb 33 36 3f 97 6b 7e 3f 49 91 a9 3f 04 f9 b7 3f
       0.7117278 0.9938292 1.3247463 1.4372869
0000d0 85 ce 82 3f 5a 0c 70 3f 81 52 bb 3f aa d2 a4 3f
       1.0219275 0.93768847 1.4634553 1.287679
0000e0 75 69 47 3f 36 b2 b9 3f ea 38 7b 3f eb 6e 83 3f
       0.7789529 1.4507511 0.9813372 1.0268224
0000f0 a6 d0 66 3f a7 8d bf 3f de 43 c5 3f 87 2c ac 3f
       0.9016212 1.4965104 1.5411336 1.3451089
000100 8b ed 1f 3f c2 4e b8 3f 3d 17 5c 3f f1 c7 a1 3f
       0.62471837 1.4399035 0.8597296 1.2639142
000110 81 e3 ad 3f ca 63 94 3f a8 77 0e 3f 53 14 6f 3f
       1.3585054 1.1592953 0.5565133 0.9339039
000120 de 44 5b 3f f7 37 86 3f 5b 9b 85 3f f0 98 6a 3f
       0.8565196 1.0485829 1.0438036 0.91639614
000130 79 84 83 3f 8c 7a 6f 3f c2 a7 9e 3f 0d c9 73 3f
       1.0274802 0.93546367 1.2394946 0.95228654
000140 24 67 a2 3f 3e fc 85 3f 29 be a2 3f 03 ec b3 3f
       1.2687726 1.0467603 1.2714282 1.40564
000150 d7 45 4c 3f f1 e9 87 3f 72 3d 44 3f d1 42 9d 3f
       0.7979407 1.0618268 0.7665626 1.2286016
000160 dc d6 9b 3f 8c 13 9d 3f 1b f5 2f 3f 09 4a 46 3f
       1.2174945 1.227159 0.68733376 0.7745672
000170 09 ac f7 3e 35 29 1a 3f 37 81 95 3f a2 f2 9a 3e
       0.4837344 0.60219127 1.1680058 0.3026324
000180 0c 97 a9 3f b5 df 89 3f 37 04 40 3f 12 2e a6 3f
       1.3249221 1.0771395 0.7500643 1.298281
000190 93 01 45 3f 62 7e 86 3f 70 3a 72 3f bb 0c df 3e
       0.7695553 1.0507319 0.9462042 0.435644
0001a0 de d5 f0 3e 72 a4 73 3f 4e 7f cf 3e f8 c2 91 3f
       0.47038168 0.951728 0.40526813 1.1387625
0001b0 36 65 59 3f d0 24 25 3f a9 69 99 3f ac e6 9e 3e
       0.8492006 0.64509296 1.198537 0.31035364
0001c0 2e 57 f0 3e a7 78 22 3f 41 7c 72 3f 08 a7 55 3f
       0.46941513 0.6346535 0.94720846 0.83457994
0001d0 ca fd 9d 3f 33 b8 83 3f 3c e5 81 3f 37 7b 75 3f
       1.2343075 1.0290588 1.0148082 0.95891136
0001e0 06 c7 58 3f cd 9f 21 3f e6 50 2c 3f 4c 30 12 3f
       0.84678686 0.6313446 0.6731094 0.57104945
0001f0 bf 84 40 3f 7d 02 f9 3e 68 41 3e 3f 2a 13 9a 3f
       0.75202554 0.4863471 0.7431855 1.2037098
000200 da f0 70 3f b6 68 fc 3e 0e 2b af 3e cb e9 5b 3f
       0.9411751 0.49298638 0.34212536 0.85903615
000210 73 5f ea 3e 66 02 77 3f cd b9 98 3f 39 0d 23 3f
       0.45775947 0.96488035 1.1931702 0.6369205
000220 82 5e 27 3f 13 99 5f 3f 29 9b 04 3f 4b da 68 3f
       0.6537858 0.8734295 0.51799256 0.9095809
000230 58 aa 81 3e 43 48 66 3e 83 1e 62 3e 69 5f c1 3d
       0.25325274 0.22488503 0.22081952 0.09442026
000240 77 cc 1f 3f a4 fe c1 3e 6d 82 2e 3e 21 67 e0 3d
       0.62421364 0.37889588 0.17041941 0.1095717
000250 1e 4e 3e 3e 5d 06 81 3e fb 6b b4 3f 77 8e 98 3e
       0.18584487 0.25200167 1.4095453 0.29796192
000260 c0 2f 49 3f ae 6d 6b 3f 9b ee cf 3e 54 8e 49 3f
       0.78588486 0.9196423 0.4061173 0.787328
000270 12 b1 2e 3f 41 e1 e9 3e 8a b0 bb 3e 82 bc 5a 3f
       0.6823894 0.45679668 0.36658126 0.8544389
000280 ca ad 74 3e b9 67 8c 3f 7e ba 60 3f 12 e4 0d 3f
       0.2389442 1.0969154 0.87784564 0.5542613
000290 27 9c 71 bc b7 c6 3d 3f 02 8a ce 3e 23 cc 73 3f
       -0.014746702 0.7413134 0.40339667 0.9523336
0002a0 86 6f b7 3d 30 41 5c 3e a2 25 84 3e 3c 62 9f 3f
       0.08956818 0.21509242 0.25809962 1.2451854
0002b0 a7 90 85 3e cc 67 51 3f ff c1 82 3f 1a dc 8c 3e
       0.26086923 0.81799006 1.0215453 0.27511674
0002c0 dc b9 dd 3e 48 4d f9 3e e6 b1 a5 3e 08 07 18 3f
       0.43305862 0.48691773 0.32362288 0.5938573
0002d0 a7 5f 81 3f af 02 08 3f 96 1b f2 3d 0c 19 87 3e
       1.0107316 0.53129095 0.11821668 0.26386297
0002e0 0c 77 53 3f 17 23 0f 3f 0a cb 2b 3f be 4b 34 3f
       0.82603526 0.5591292 0.6710669 0.70428073
0002f0 0c 98 3b 3f 6b dc 62 3f 39 91 5a 3f e5 6f 43 3f
       0.7327888 0.8861758 0.8537784 0.7634261
000300 ac a2 22 3f 92 5d 1f 3f dd d8 44 3f cd 8a bd 3e
       0.6352947 0.6225215 0.7689341 0.3701996
000310 3b 64 74 3f 55 dd 77 3f 15 24 2f 3f 53 a8 98 3f
       0.9546544 0.968221 0.6841443 1.1926368
000320 cc f5 26 3f 61 ad 1e 3f 88 17 4a 3f 57 94 ea 3e
       0.65218806 0.61983305 0.78942156 0.458163
000330 33 21 60 3f 0e 7b bf 3e 1d 2a 33 3f f9 f0 02 3f
       0.8755066 0.3739857 0.69986135 0.51148945
000340 ba d5 01 3f bf 86 2e 3f 74 4c 06 3f 21 f5 fd 3e
       0.50716746 0.68174356 0.5246041 0.4960108
000350 30 50 5a 3e 00 56 3a 3f 02 a6 fe 3e c5 22 2a 3f
       0.21319652 0.72787476 0.4973603 0.66459304
000360 29 03 af 3d 5e b1 ce 3e 98 5d 02 be 59 37 8c 3e
       0.085455246 0.40369695 -0.12731016 0.27385977
000370 72 9d 4e 3f b8 fb 7b 3e f0 b5 97 3e 8b dc 46 3e
       0.8070899 0.24607742 0.29630995 0.19420068
000380 b7 10 59 3f 1d 65 16 3f fd fe 05 3f eb 4f 5a 3f
       0.8479113 0.58748037 0.52342206 0.85278195
000390 03 2c 62 3f 9d 4a 71 3f 5a 9f 20 3f 55 e7 72 3f
       0.88348407 0.94254476 0.6274315 0.94884235
0003a0 96 37 a5 3e 86 14 b8 3d 07 e2 b4 3c c6 b7 7b 3f
       0.3226897 0.089882895 0.022080434 0.9832729
0003b0 72 38 01 3f 69 04 d4 3e 26 89 3d 3e 77 9c 57 3f
       0.50476754 0.41409615 0.18509349 0.8422312
0003c0 cb e4 14 3f ec 2e 5e 3f 85 f0 5d 3f c5 79 5b 3d
       0.5816161 0.8679035 0.8669513 0.053582925
0003d0 ac 26 23 3f 12 8f 79 3f fe 9c 4b 3e 07 0d e5 3e
       0.63730884 0.9748393 0.19884107 0.44736502
0003e0 55 8b d3 3e 4f 5b 5e 3f 3c 7c 56 3e f4 6a 60 3f
       0.4131724 0.86858076 0.20945829 0.876632
0003f0 9f 35 1e 3f 6e cf 08 3f 80 9f 89 3e 0d e4 b3 3e
       0.6180057 0.5344151 0.268795 0.35134926
