experiments/lstm_h2_l1_20241124_101627/final_model.pth (torch, 310839 bytes, 7 tensors)

embedding.weight f4 [15345, 2]
000000 d6 5f 44 3f 7b 28 48 bf 8e 39 df bf ba 6c b4 3e
       0.76708734 -0.7818677 -1.7439439 0.35239202
000010 9b f3 98 3f 2b 44 14 3f ee ee 1b bf 69 6f 92 3f
       1.1949342 0.57916516 -0.6091145 1.144025
000020 39 69 88 3d 80 7f c1 bf 2b 8d a8 3f 24 1f 01 c0
       0.06660695 -1.5117035 1.3168081 -2.0175257
000030 63 62 c1 3f 20 68 d9 bf 71 3f 9f 3f ac 1c 6f 3f
       1.510815 -1.6984901 1.2441236 0.93403125
000040 42 78 d9 3c 3c 04 cd be f0 d6 3d 40 73 1f 96 bf
       0.026546601 -0.40042293 2.9662437 -1.1728348
000050 70 f0 d4 3f 9a 71 36 c0 87 ba de 3f 84 34 f3 be
       1.6635876 -2.8506837 1.7400674 -0.47501004
000060 3b 63 9f 3f b1 10 0c c0 45 7c 22 40 08 a2 2e 3e
       1.2452158 -2.1885188 2.5388348 0.17053998
000070 92 da 35 3f 26 7d 2b c0 0c d3 e1 3f 5c 6d ca bf
       0.71036637 -2.6795135 1.7642531 -1.5814624
000080 c0 71 33 c0 db 1b b6 3f a4 34 8a be 0a 18 92 3f
       -2.8038177 1.4227251 -0.26993287 1.1413586
000090 42 80 5d bf d8 7f 9e bf 52 c3 17 3f b8 85 3e bf
       -0.8652383 -1.2382765 0.5928241 -0.7442279
0000a0 98 ea 6e 3f 35 23 19 c0 0e 9f af 3f 27 1c 17 be
       0.9332671 -2.3927739 1.3720415 -0.14756833
0000b0 83 5d e3 3f bb db b7 bf 51 d8 37 c0 0b bf 01 40
       1.7762913 -1.4363931 -2.872578 2.0272853
0000c0 3d d0 37 c0 0b 5d c2 bf 5a 46 b4 3d 48 32 06 bf
       -2.8720849 -1.5184644 0.08802481 -0.52420473
0000d0 00 4a 49 3f 47 aa a8 bf 70 d2 56 bf e5 4f 87 bf
       0.7862854 -1.3176965 -0.8391485 -1.0571257
0000e0 30 99 03 3f 93 99 aa bf 84 81 c8 3f b5 0b 83 be
       0.5140562 -1.3328117 1.5664525 -0.2559487
0000f0 8f 3c b7 3f 94 4d fd bf e4 a5 84 3f 18 3a 1c c0
       1.4315356 -1.97893 1.0363126 -2.4410458
000100 51 91 f8 3e fb fa cf bf 0a cf 69 bf 34 da 74 3f
       0.48548368 -1.6248468 -0.9133154 0.9564545
000110 7d fe 00 40 33 be 9f bf 34 a5 a8 bf 96 38 40 3e
       2.0155327 -1.2479919 -1.3175416 0.18771586
000120 f6 ab 81 be dc ed f1 be 0d e7 01 40 44 3c 01 bf
       -0.25326508 -0.47251785 2.0297272 -0.50482583
000130 aa 74 09 40 04 b5 d8 bf af 48 46 3e eb e8 d5 bf
       2.1477456 -1.6930242 0.19363664 -1.6711706
000140 bd 15 60 3f 6a 4a 11 c0 5d 51 8d 3f 9f 89 42 c0
       0.8753317 -2.2701669 1.1040455 -3.0396497
000150 98 38 36 40 44 cd 0a bf 50 7c f7 be 61 6a 1f 3f
       2.8472042 -0.5421946 -0.4833703 0.62271696
000160 03 83 74 bf de 0a 03 bf 2f 23 ce 3e cb fa c9 bf
       -0.9551241 -0.51188457 0.40261218 -1.5779661
000170 7d 52 62 be 4b bf 1c 3f aa 92 2f c0 2b 5f 38 bf
       -0.2210178 0.6122939 -2.7433267 -0.72020215
000180 fd f2 68 3e 94 f7 92 3f 25 a1 36 3f 30 bd fd 3f
       0.22748943 1.1481805 0.7133964 1.982336
000190 03 6c 10 c0 e9 35 a1 be 90 58 00 40 dd f1 74 be
       -2.2565925 -0.31486443 2.0054054 -0.23920389
0001a0 95 a5 d6 3f 1b b6 3b bf 51 e3 38 3f 2e 0c 21 c0
       1.6769282 -0.73324746 0.7222186 -2.5163684
0001b0 9d 04 ea be 8f ff c7 bf 72 71 d9 3f fd 74 a1 bf
       -0.45706645 -1.5624865 1.6987746 -1.2613827
0001c0 49 5d 1f bf 84 af 43 bf 2f 3a 6c 3e 41 69 97 3f
       -0.62251717 -0.7643969 0.2306907 1.1828996
0001d0 dc 5e 1f 40 88 2a 9a bf d3 2b 41 3e 88 1d df 3f
       2.4901648 -1.204423 0.18864374 1.7430887
0001e0 04 e4 30 bf 24 b3 66 3f 2a 5d 3d bf 0e 03 80 be
       -0.69097924 0.90117097 -0.7397028 -0.2500233
0001f0 41 4a 31 3d 84 a5 a8 3f d1 ed 1d bf 9a 63 2d c0
       0.043283705 1.3175511 -0.61691004 -2.7092042
000200 0b ca 9e bd 63 ab 96 3e 09 a5 03 bc 52 94 27 be
       -0.077533804 0.29427633 -0.008034953 -0.16365173
000210 26 f7 b3 3f 1d f2 99 bf 3b 98 8b 3f 4f b9 99 bf
       1.4059799 -1.2027012 1.0905832 -1.2009677
000220 59 f4 25 c0 75 d5 91 bf da ae 89 bf fc 9b f5 3f
       -2.5930388 -1.1393267 -1.0756485 1.9188228
000230 13 f0 71 bf 58 3b 3b 3f fd 34 69 3f 65 de 6e bf
       -0.9450695 0.73137426 0.9109648 -0.933081
000240 26 72 2c bf 62 cb d1 3f fe 6c 97 3f 8f 49 47 ba
       -0.67361677 1.6390193 1.1830137 -0.00076022086
000250 a5 cc ac 3f 3f 6c 77 bd 07 9a 1f bf ad b4 ab bf
       1.3499953 -0.060405966 -0.623444 -1.3414513
000260 f9 4b ab bf d0 fa 74 be 93 db 27 3f d2 9a f2 bd
       -1.338256 -0.23923802 0.6556942 -0.11845936
000270 5d 3f 90 3f e4 4d 28 c0 d5 23 fd bf 80 6d 1a 3f
       1.1269337 -2.629754 -1.977656 0.60323334
000280 bf 8a b7 bf 26 b6 85 bf 16 da 84 bf 16 1b b0 be
       -1.4339217 -1.0446212 -1.0379055 -0.34395665
000290 5a 4e 17 c0 e5 2f c0 3d 2b b5 94 bf 2a 5e a7 3f
       -2.3641572 0.09384135 -1.1617788 1.3075612
0002a0 6e 59 cd 3f 43 69 12 c0 d2 72 91 bf 4f 54 00 40
       1.6042917 -2.2876747 -1.1363165 2.0051458
0002b0 ad b8 51 3e 6d 2a 7c 3f 67 a4 ba 3f a0 49 4d bf
       0.20480604 0.98502237 1.4581422 -0.8019047
0002c0 c4 77 3b 3f c0 cc 08 bf 0a f3 91 3f ff 64 40 be
       0.7322962 -0.53437424 1.1402295 -0.18788527
0002d0 12 6a 8b be c2 da 3b 40 b3 a1 5a 3f 94 34 e9 3f
       -0.27229363 2.935227 0.85402983 1.821917
0002e0 ea 8d eb bf ac e5 18 3f 8a 89 6b 3f f4 29 12 40
       -1.8402684 0.5972545 0.9200674 2.2838106
0002f0 8a 21 30 c0 34 e0 7f bd 96 20 ad 3f 37 22 47 bf
       -2.752047 -0.062469676 1.352557 -0.7778658
000300 9c fa 97 3f 08 5b 80 bf 79 d1 82 bf 3b 6c e8 3f
       1.1873355 -1.002778 -1.0220176 1.8158029
000310 d3 86 a7 bf e7 19 3b 3f d1 d2 a4 be ac cf 37 3f
       -1.308802 0.730864 -0.3219209 0.7180126
000320 27 55 ce 3e 4b e3 dc be 5b 46 d5 bf 3c 64 dd bc
       0.4029934 -0.4314216 -1.6662096 -0.027025335
000330 2c da 2d 40 cf 2f e8 3f 76 13 76 3e bf 12 f0 3d
       2.7164412 1.813959 0.24030861 0.117223255
000340 bd b9 74 bf ad 58 81 bc 76 4f 03 c0 8c 02 c4 bf
       -0.95595914 -0.015789354 -2.051725 -1.5313277
000350 6d 7c 92 be 08 1a a7 be ee 62 ed bf a9 ee cf bd
       -0.28610554 -0.32637048 -1.8545816 -0.10152943
000360 1e 11 a2 bf 62 fe 58 bd dd 47 79 bf 6b 89 96 3f
       -1.2661474 -0.052976973 -0.9737528 1.1760687
000370 69 fe b5 3f e1 c3 2c 3f 16 94 c2 be 6a 27 05 bf
       1.4218265 0.6748639 -0.38003606 -0.52013266
000380 25 f6 93 bf f6 70 8a bf 97 f9 bf 3d 2d 81 34 3f
       -1.1559492 -1.0815723 0.09373777 0.70509607
000390 28 60 0d bf 2d 7e 95 bf bf bb f2 3f d7 50 6f be
       -0.5522485 -1.1679131 1.8963546 -0.23370682
0003a0 ea 07 10 bf 8a 4e 10 3e eb 6c 0f 3e 13 28 d3 bd
       -0.56262076 0.1409246 0.14006393 -0.10310378
0003b0 1b f4 80 3f 80 7a 75 bf 22 a4 5b be f5 9e b6 3f
       1.0074495 -0.95890045 -0.2144933 1.426726
0003c0 70 fb a7 be f6 9f 9c 3e 63 36 18 bf 87 d6 9e 3c
       -0.3280902 0.3059079 -0.5945799 0.019389404
0003d0 a3 95 c8 3f 93 05 0b bf 0e 1a 52 be ac 1e 10 c0
       1.5670666 -0.5430538 -0.20517752 -2.251872
0003e0 9a 01 46 3f 22 00 24 c0 1c 7e af 3f 4a bb 9f bf
       0.77346194 -2.562508 1.371036 -1.2479031
0003f0 e6 db 01 be 98 0e 8e bf 90 a4 5c be 99 f3 3d bf
       -0.12681541 -1.1098204 -0.2154715 -0.74199826

lstm.weight_ih_l0 f4 [8, 2]
000000 a4 78 c6 bf df 23 cb 3f a6 ac f5 be 6f 86 0e 3f
       -1.5505567 1.5870322 -0.47983283 0.5567388
000010 14 a9 e8 bf 2a 14 dc 3f d3 ba ba bf ab b9 8b 3f
       -1.8176599 1.7193654 -1.4588264 1.0916036
000020 3b a8 76 bf b6 66 61 3f 45 cb 6d be 05 b4 5d 3e
       -0.9635045 0.8804735 -0.23222072 0.21650703
000030 ce 43 c8 bf 13 0e b5 3f b9 81 1c bf d2 b6 11 3f
       -1.5645692 1.414492 -0.6113544 0.56919587

lstm.weight_hh_l0 f4 [8, 2]
000000 26 ae 26 bf 21 06 8f be 7e c5 f8 be d5 18 02 bf
       -0.6510948 -0.27934363 -0.48588175 -0.5081914
000010 4d a7 83 bf 1c 64 58 bf 12 75 ca bf 64 44 b9 be
       -1.0285431 -0.84527755 -1.5816977 -0.3618499
000020 af 65 cd 3d 1b 74 45 3e 0f c7 78 3e 1d 6d 94 3e
       0.1002916 0.19282572 0.24294685 0.28989497
000030 5b 13 9c 3f 9f e9 1f 3f ad 8b 30 3f ea 16 a2 3f
       1.2193407 0.6246585 0.6896313 1.2663243

lstm.bias_ih_l0 f4 [8]
000000 f2 5c 13 40 ff ae 38 40 73 b6 ee bd 82 d4 93 bf
       2.302548 2.885681 -0.11655893 -1.1549227
000010 00 09 eb 3f 53 44 e5 3f 94 25 f4 3f ea 91 3b 40
       1.8362122 1.7911476 1.9073968 2.930781

lstm.bias_hh_l0 f4 [8]
000000 cc 3b cb 3f b2 55 0f 40 ed 05 2c bd e3 19 ce be
       1.5877624 2.2396054 -0.04199784 -0.40254125
000010 b4 ef 90 3f 51 ca de 3f 2e 98 29 40 87 00 31 40
       1.1323152 1.7405492 2.6499133 2.7656572

fc_out.weight f4 [15345, 2]
000000 5d 8d 3c c0 63 49 61 c0 86 7c 62 c0 85 e5 74 c0
       -2.9461281 -3.5201042 -3.5388503 -3.8265088
000010 de 14 24 c0 2d cb 63 c0 60 9f 7e 3f 5a 91 60 3f
       -2.5637736 -3.5592759 0.99461937 0.8772179
000020 e7 5c 23 40 9b 6f 5f 40 d2 5d 38 40 2e d3 33 40
       2.5525453 3.4911869 2.8807263 2.8097644
000030 27 6e 41 40 1a ed 17 40 41 8e 30 40 aa f8 24 40
       3.0223482 2.3738465 2.7586825 2.5776772
000040 bc bb 16 40 2f f7 08 40 01 77 31 40 2e 86 16 40
       2.3552084 2.140087 2.7728884 2.3519397
000050 97 d7 ec 3f 76 d1 16 40 b6 e4 2d 40 31 e1 09 40
       1.8503293 2.3565345 2.7170844 2.1543696
000060 59 13 02 40 ba 8e 22 40 ef 2b 2a 40 31 5b 20 40
       2.032431 2.5399613 2.6589315 2.505566
000070 64 33 00 40 b8 b2 19 40 29 c2 fd 3f 0b e6 02 40
       2.0031366 2.4015331 1.9824878 2.0452907
000080 bd 4d 24 40 a5 ab f8 3f 61 01 04 40 f4 29 e1 3f
       2.5672448 1.9427382 2.0625842 1.7590928
000090 20 27 c9 3f a5 3d 0a 40 ec 2d 1d 40 fb 62 f8 3f
       1.5715065 2.1600125 2.4559278 1.9405206
0000a0 44 09 14 40 03 c2 01 40 c9 9e e6 3f f3 5a f8 3f
       2.3130655 2.0274665 1.8017207 1.9402755
0000b0 d7 74 15 40 4f d3 94 3f df a5 26 40 f1 9e f7 3f
       2.3352563 1.1626986 2.603874 1.934538
0000c0 dc 60 1c 40 0c 8c 8d 3f 29 54 e7 3f f9 dc 08 40
       2.4434118 1.1058364 1.8072559 2.138487
0000d0 cb c6 0a 40 df be e6 3f ae 58 95 3f 18 ca cd 3f
       2.1683834 1.8026999 1.1667688 1.6077299
0000e0 25 5b cf 3f d6 75 18 40 05 f7 a6 3f 50 98 ee 3f
       1.619969 2.3821921 1.3044134 1.8640232
0000f0 43 79 ce 3f cb eb e6 3f 75 0e 21 40 77 ef de 3f
       1.6130756 1.8040708 2.5165074 1.7416829
000100 08 65 1b 40 09 85 c5 3f d7 0c 07 40 a9 98 cc 3f
       2.4280415 1.5431224 2.1101587 1.5984088
000110 22 67 d3 3f b5 fd b4 3f 77 31 d9 3f 4e 12 94 3f
       1.6515849 1.4139925 1.696822 1.1568086
000120 d0 b3 b6 3f 21 d1 f0 3f 97 bd f3 3f fd 8f 91 3f
       1.4273624 1.8813821 1.9042233 1.1372067
000130 79 99 02 40 0c 54 c3 3f 7c fd 55 3f 4b bc f0 3f
       2.0406172 1.5260024 0.8358991 1.8807462
000140 cc 8b 1c 3f 70 58 8a 3f 58 e9 f7 3f 9c 99 6e 3f
       0.61150813 1.0808239 1.9368086 0.9320314
000150 11 b6 df 3f d4 b9 fa 3f a8 ea e4 3f f3 df 7e 3f
       1.7477437 1.958796 1.7884111 0.9956047
000160 e0 3a 12 40 91 dc 8d 3f 44 84 03 40 c5 bf 12 3f
       2.2848434 1.1082937 2.0549479 0.5732387
000170 cb 30 fe 3f 31 43 a6 3f 5c 62 bc 3f 5b 59 fb 3f
       1.985864 1.2989255 1.4717517 1.9636644
000180 b2 e2 8d 3f a2 41 03 40 60 26 a0 3f fa aa a5 3f
       1.1084807 2.050881 1.2511711 1.2942803
000190 44 1e c6 3f 03 45 be 3f a8 e0 74 3f 2e 22 da 3f
       1.5477986 1.4864811 0.956553 1.7041681
0001a0 11 c4 9a 3f 77 41 9d 3f b7 b2 cc 3f fc 50 ca 3f
       1.2091085 1.2285603 1.599204 1.5805964
0001b0 0e 98 16 3f 20 e1 a6 3f 18 bc ad 3f f2 cd 2e 3f
       0.5882577 1.3037453 1.3573027 0.68283
0001c0 43 a9 92 3f d8 87 e7 3f b6 90 b9 3f 80 e1 7f 3f
       1.1457905 1.8088331 1.4497287 0.9995346
0001d0 21 ed 0e 40 3e 41 72 3f 1d e1 e8 3f 55 74 ba 3f
       2.2332232 0.946308 1.8193699 1.4566752
0001e0 26 f1 b0 3f 80 0d b4 3f ec d6 bc 3f 21 bd 49 3f
       1.3823593 1.406662 1.4753089 0.7880421
0001f0 2b 46 86 bf a3 83 ec 3f 1b 72 e4 3f 44 f9 8e 3f
       -1.0490164 1.8477672 1.7847322 1.116982
000200 22 01 43 3f 0c e3 94 3f b0 ab ab 3f e8 87 8e 3f
       0.76173604 1.1631789 1.341177 1.1135225
000210 fc 9a b2 3f 37 15 57 3f b1 27 c4 3f 2b 63 5b 3f
       1.3953547 0.84016746 1.5324613 0.85698193
000220 d0 78 b5 3f 85 98 de 3f 03 f0 2a 3f c6 54 91 3f
       1.4177494 1.7390295 0.6677248 1.1353996
000230 93 c6 9b 3f 16 0c 9b 3f 7c 6a f6 3f 81 23 6e 3f
       1.2169975 1.2113063 1.9251246 0.93022925
000240 11 7e 39 3f b8 e7 bd 3f 93 fc c6 3f 81 98 64 3f
       0.7245799 1.483634 1.554583 0.892952
000250 d0 c0 b0 3f a1 67 96 3f 25 02 69 3f 67 ae cf 3f
       1.3808842 1.1750375 0.910189 1.6225098
000260 c5 2f 95 3f 21 00 2e 3f 3b 1e 5b 3f 59 b4 98 3f
       1.1655203 0.67968947 0.85593003 1.1930038
000270 0f 7d 6c 3f d6 e1 d2 3f 48 4b c3 3f 48 6d 6a 3f
       0.92378324 1.647517 1.5257349 0.91573
000280 37 db f6 be 74 20 77 3f d2 de 30 be b5 0c 34 3f
       -0.48214123 0.96533895 -0.17272499 0.7033189
000290 93 58 67 3f 74 60 d1 3f c7 56 97 3f bb 2a d8 3f
       0.9036953 1.635756 1.1823357 1.688804
0002a0 7d d3 e2 3f 95 c2 d6 3e d0 32 6f 3f 82 98 ce 3e
       1.7720791 0.4194533 0.9343691 0.4035073
0002b0 69 20 bd 3f 09 00 23 3f 93 9c 75 3f a6 60 8b 3f
       1.4775516 0.6367193 0.9594204 1.088887
0002c0 60 71 87 3f 5f 1c ea 3e 96 e9 b8 3d 87 6c 36 3f
       1.0581474 0.4572477 0.09028928 0.7125935
0002d0 31 30 63 3f cf 89 73 3f 2e 3f 40 3f b4 ba e1 3e
       0.8874541 0.95132154 0.75096405 0.44087756
0002e0 91 6b b7 3f 7d df 2a 3f f5 e3 0a 3f c3 8a db 3f
       1.4329702 0.66747266 0.54254085 1.7151722
0002f0 b4 49 14 3f 62 74 9d 3f 6f 49 b9 3f d9 47 16 3f
       0.5792496 1.2301142 1.4475535 0.5870338
000300 98 b4 92 bc da 65 cb 3f d9 d1 0b 3f 59 bf d0 3f
       -0.01790838 1.5890458 0.5461708 1.6308395
000310 a9 15 9c 3f 21 86 41 3f f6 ec 95 3f b9 e1 07 3f
       1.219411 0.7559529 1.171294 0.530788
000320 c4 d8 1e 3f d4 39 a5 3f 0a 18 1a 3f 68 c2 68 3f
       0.6204951 1.2908273 0.6019293 0.9092164
000330 5b f9 c9 3f 9d eb 34 3f 66 73 63 3f 23 21 9e 3f
       1.5779222 0.7067202 0.8884796 1.2353863
000340 15 62 82 3f c1 30 8a 3f 82 73 23 bf 47 f5 33 3f
       1.0186182 1.0796129 -0.63848126 0.7029614
000350 30 40 fb 3e b3 3b 8e 3f 25 15 31 be 16 c0 21 3f
       0.4907241 1.1111969 -0.17293222 0.63183725
000360 b3 1a 9a 3f 1f 39 e2 3e eb 21 95 3f 6f 25 8c 3e
       1.2039398 0.44184205 1.1650976 0.2737231
000370 a7 03 43 3f 61 f5 53 3f 7b f6 52 3f c6 9b 2d 3f
       0.7617745 0.82796293 0.8240735 0.67815816
000380 d5 97 4c 3f 6f df 02 3f 1c d7 08 3e 9c c2 19 3f
       0.7991918 0.5112218 0.13363308 0.60062575
000390 5d cd a7 3f 0a 7d 44 3f 55 aa 42 3f 36 c4 48 3f
       1.3109547 0.76753294 0.76041156 0.78424394
0003a0 8a b2 26 3e 2a 2a cf 3e 42 25 4c 3f 34 d4 a1 3f
       0.16279045 0.40461856 0.7974435 1.2642884
0003b0 0d b3 31 3e 40 00 d2 3f 16 0e 91 3f af 8a 08 3e
       0.17353459 1.6406326 1.1332424 0.13334154
0003c0 1f 46 44 3f a3 1e 0d 3f b5 93 93 3f 9b 20 f7 3e
       0.76669496 0.5512487 1.1529452 0.48267063
0003d0 34 9d a7 3f fa 71 00 3f 52 d0 32 3f 50 a3 2d 3f
       1.309485 0.50173914 0.6984912 0.6782732
0003e0 c4 e6 a9 3f eb f4 e7 3e c9 5e b5 3f f0 27 06 3f
       1.3273549 0.45304045 1.4169551 0.5240469
0003f0 1f 28 2d 3f 16 a9 a4 3f 7a ed 1e 3f a1 c2 84 3f
       0.67639345 1.2864101 0.6208111 1.0371896

fc_out.bias f4 [15345]
000000 b7 c2 f0 bf c2 56 de bf c3 c1 45 c0 25 8a 11 3f
       -1.8809422 -1.7370226 -3.0899513 0.56851417
000010 ef bd 09 40 15 9e ec 3f 35 ea f2 3f dc e6 e3 3f
       2.1522176 1.8485743 1.8977724 1.7804828
000020 ce f4 12 40 75 2e ec 3f 37 6f 18 40 00 27 ea 3f
       2.2961917 1.8451678 2.381788 1.8293152
000030 d2 e9 e2 3f ba 75 a7 3f c8 c1 ea 3f 09 d5 f8 3f
       1.7727606 1.3082802 1.8340387 1.9440013
000040 7a 12 be 3f ae 97 fd 3f 09 00 02 40 c9 8e c4 3f
       1.4849389 1.9811914 2.0312521 1.5356075
000050 60 62 c4 3f 3e 59 f1 3f da e2 01 40 53 95 94 3f
       1.5342522 1.885536 2.029471 1.160807
000060 9a eb f8 3f ae 8f c3 3f 36 34 ba 3f e0 2c 0f 40
       1.94469 1.5278223 1.4547184 2.237114
000070 76 b8 9a 3f d2 b7 de 3f f9 d6 bf 3f d1 ce 77 3f
       1.2087543 1.7399848 1.498748 0.9679995
000080 03 e5 86 3f 24 cb 92 3f a5 15 c7 3f 27 ce d7 3f
       1.0538639 1.1468244 1.555348 1.6859788
000090 92 8d a1 3f 99 29 c0 3f 5c db 90 3f 8b 54 bb 3f
       1.2621329 1.5012695 1.1316943 1.4635175
0000a0 34 4e 05 40 5f 9b bd 3f 7c e5 55 3f d4 c2 be 3f
       2.0828981 1.481304 0.8355329 1.4903207
0000b0 54 28 84 3f 6f 61 ca 3f 23 6c 87 3f bf b0 46 3f
       1.0324807 1.5810984 1.0579876 0.77613443
0000c0 af 60 6c 3f 33 d5 ab 3f 38 bc 86 3f 31 7a a4 3f
       0.9233503 1.3424438 1.052619 1.284979
0000d0 5e 20 af 3f ce 7b 4e 3f 75 bb cf 3f 6a ac cc 3f
       1.3681753 0.8065766 1.6229082 1.5990117
0000e0 be 64 67 3f 63 1e 95 3f d4 cb 61 3f 52 b6 33 3f
       0.90388095 1.1649898 0.8820164 0.70200074
0000f0 18 90 7e 3f a8 a7 a8 3f aa e0 e7 3f d9 36 69 3f
       0.9943862 1.3176165 1.8115437 0.91099316
000100 81 3b c0 3f 61 f0 91 3f 72 fc a1 3f 8e f5 94 3f
       1.5018159 1.1401483 1.2655165 1.1637437
000110 7d 7b 1b 3f 41 dd b7 3f 12 b5 94 3f 52 81 5c 3f
       0.60735303 1.4364396 1.1617758 0.8613483
000120 f4 6b 9b 3f 2f 7f 80 3f 34 1c 59 3f f9 ba 56 3f
       1.214232 1.0038813 0.8480866 0.8387905
000130 df 0e b3 3f 89 9f 94 3f 8f 73 39 3f bf 75 63 3f
       1.3988913 1.1611186 0.72441953 0.8885154
000140 ea 39 d2 3f 58 03 e8 3f 93 3b 32 3f 1c ee eb 3e
       1.6423924 1.812602 0.69622153 0.460801
000150 5e 7f 87 3f 2c 58 bf 3f d8 34 80 3f 2f 24 65 3f
       1.0585744 1.4948783 1.0016127 0.89508337
000160 d1 17 a2 3f 6f 02 b7 3f b1 33 81 3f 77 4c b0 3f
       1.2663518 1.4297618 1.00939 1.3773335
000170 96 27 69 3f c9 2f eb 3e 03 98 4c 3f 5f 36 67 3f
       0.9107603 0.45934895 0.7991945 0.9031734
000180 a7 19 31 3f 79 b2 20 3f 28 45 3d 3f a5 27 70 3f
       0.6917977 0.6277233 0.7393365 0.9381049
000190 f5 8f 4c 3f df b6 69 3f c2 b4 10 3f 5c c8 20 3f
       0.7990716 0.91294664 0.56525815 0.62805724
0001a0 d5 c7 25 3f 19 6d d1 3f 73 b4 51 3f a4 67 c8 3f
       0.64758044 1.6361419 0.8191597 1.5656629
0001b0 c7 5b 88 3f 9c 88 95 3f 89 b9 56 3f ef 76 8a 3f
       1.0653008 1.1682315 0.83876854 1.0817546
0001c0 0e 2c 94 3f ed 68 87 3f 98 20 23 3f 24 89 2d 3f
       1.1575944 1.0578896 0.6372161 0.67787385
0001d0 84 98 b6 3f d4 d9 f5 3e 02 42 f3 3e 29 8a 92 3f
       1.4265294 0.48017752 0.47511297 1.1448413
0001e0 f6 08 61 3f 23 4f 5f 3f ef 86 46 3f 97 8d 4f 3f
       0.879043 0.8723013 0.7754964 0.81075424
0001f0 1b 78 42 3f ee 8c 2b 3f 0a 77 03 3f 6a 88 4c 3f
       0.75964516 0.67011917 0.51353514 0.7989565
000200 2c 76 82 3f b0 70 8d 3f 64 86 43 3f 6a c8 f3 3e
       1.0192313 1.1050014 0.7637694 0.4761384
000210 2f a0 22 3e 19 9c b6 3e 49 b6 90 3f 01 58 f8 3e
       0.15881418 0.35665968 1.1305629 0.48504642
000220 92 77 37 3f 33 f7 34 3f 01 3a 0a 3f ea 5f aa 3f
       0.71666825 0.70689696 0.53994757 1.3310521
000230 83 cc 4c 3f 8a 30 3c 3f b0 66 6c 3f 07 57 57 3f
       0.7999956 0.73511565 0.9234419 0.8411717
000240 a2 86 6c 3f 84 65 e6 3e e5 8f 33 3e 35 ea 38 3f
       0.92392933 0.44999325 0.1753536 0.7223237
000250 0b ae 84 3f e7 6e 17 3f 23 65 86 3f c4 de f3 3e
       1.0365614 0.591536 1.0499614 0.47630894
000260 73 d5 8d 3f 5d 78 dc 3e 0d 15 14 3f 13 52 16 3f
       1.1080765 0.4306058 0.5784462 0.58718985
000270 04 1a 45 3f 1e 87 81 3f 7e 7e 53 3f d0 d2 0a 3f
       0.7699282 1.011936 0.82614887 0.54227924
000280 ef 70 09 3f d5 f2 30 3f f7 a1 85 3f 41 e3 e2 3e
       0.5368795 0.6912053 1.0440053 0.44314006
000290 ef 2b 03 3f 57 49 4c 3f 68 01 98 3e 58 2e eb 3e
       0.5123891 0.7979941 0.29688573 0.45933795
0002a0 58 6b 8e 3f 6b f2 12 3f ca 8e 61 3f 06 65 1c 3f
       1.1126509 0.5740115 0.88108504 0.6109165
0002b0 90 76 11 3f 95 24 81 3f a8 7c 05 3f 1e 03 97 3f
       0.56821537 1.0089289 0.52143335 1.1797826
0002c0 af 21 ce 3e e4 b2 44 3f af 54 87 3f d4 a6 8a 3f
       0.40260074 0.76835465 1.0572718 1.0832162
0002d0 53 82 6c 3f ad 0d 4d 3f 31 29 52 3f b4 97 88 3e
       0.9238636 0.8009899 0.82094103 0.2667824
0002e0 94 8f 1f 3f 30 36 9c 3d 54 63 29 3f df 29 f8 3e
       0.6232846 0.07627523 0.6616719 0.48469445
0002f0 af 5a cf 3e be e0 64 3f a2 0d 07 3f e2 5d 6f 3f
       0.40498874 0.8940543 0.5275518 0.9350263
000300 0c 3f c2 3e ee 6a f5 3e bc ae 37 3f ae 9c 96 3f
       0.37938726 0.47933143 0.71751 1.1766565
000310 d6 c7 1f 3f 22 15 58 3f 75 d9 b5 3e 03 af 01 3f
       0.624143 0.84407246 0.3551747 0.5065767
000320 22 4f 4e 3f ab 86 b3 3e 82 b8 b5 3e 96 67 24 3f
       0.805895 0.3506368 0.3549233 0.6422056
000330 03 79 8f 3f 67 2e a2 3e a3 8b 87 3f fb 1f 2c 3e
       1.1208805 0.31676027 1.0589489 0.16809075
000340 18 59 f0 3e 84 d7 75 3f ce a6 3c 3e 5e 9a 23 3f
       0.46942973 0.96031976 0.18423006 0.6390742
000350 df e3 3a 3f ea ba 11 3f f8 b2 56 3f 02 89 63 3f
       0.73003954 0.56925833 0.83866835 0.8888093
000360 81 50 c0 3e 35 0d 03 3f 0d 96 a8 bc ca b1 41 3f
       0.3756142 0.5119203 -0.020579362 0.7566191
000370 13 13 bd 3e 73 e2 4e 3f 0e 1f 6b bd f4 db 63 3e
       0.36928615 0.80814284 -0.057402663 0.22251874
000380 7a a4 9a 3d d1 e1 1f 3f 2a b5 93 3f b7 14 65 3f
       0.07550903 0.62453943 1.1539662 0.89484733
000390 1a 22 86 3f 5b 66 01 3f 6e 12 83 3f a4 c9 e9 3e
       1.0479157 0.5054681 1.0239999 0.45661652
0003a0 bc 61 a2 3e f7 eb ff 3e 71 0f 04 3e 93 55 6d 3f
       0.3171519 0.49984714 0.12896515 0.927087
0003b0 a2 60 2f 3e b0 da 61 3f 23 2a 43 3f c5 e5 fa 3d
       0.17126706 0.88224316 0.7623617 0.12250856
0003c0 a0 ee b8 3e a4 6e 31 3f b4 8e f6 3e 28 8d 8b 3f
       0.36119556 0.6930945 0.4815575 1.0902452
0003d0 59 97 16 3f f4 02 07 3f 1c 41 58 3f 7c 22 d7 3e
       0.5882469 0.5273888 0.8447435 0.42018497
0003e0 56 72 45 3e 17 ff 6e 3e 45 17 4b 3f 5e c7 40 3f
       0.19281897 0.23339497 0.7933238 0.7530421
0003f0 8e 0e 3d 3f 83 82 04 3e d7 c7 97 bc aa 10 03 3f
       0.73850334 0.12940411 -0.018527908 0.511973
