experiments/lstm_h2_l1_20241123_221616/final_model.pth (torch, 310839 bytes, 7 tensors)

embedding.weight f4 [15345, 2]
0.40842003 0.15932152 -0.35076308 0.422031 0.20822819 0.9362587 1.5994661 0.072818115
0.16180608 -1.5978903 -0.6855475 -2.438134 -0.95920926 -1.6830689 -0.9523488 0.58588636
0.5033831 -0.35893303 -1.5571185 -1.8967696 -0.2168862 -3.2681384 -0.37475616 -1.560967
-0.6303731 -2.1136901 -0.83796173 -1.1593752 -1.3875074 -1.6027344 -0.8727952 -2.3977492
1.6696764 4.088771 -0.8011245 2.9674258 0.29549903 0.7663512 0.09896146 -1.1833243
-0.94639975 -1.6499295 0.13178535 -1.1645154 -1.5219045 -1.3042725 2.5711868 3.5422907
1.4063528 0.952826 0.7005999 -0.325363 -0.6484614 -0.91233665 0.5485922 -0.4526319
-0.5450686 -1.1148235 -1.6872227 -0.005004732 -2.411168 -0.90823036 -1.8715527 -1.537889
-0.7281544 -1.0634274 0.6236406 1.4825424 -1.9078958 -1.3152239 0.5801832 0.90770614
0.97052574 -1.1032563 -1.5796299 -0.6758376 -1.1785835 -1.9899838 -1.0549362 -0.6067398
-1.5564033 -1.301134 -1.5149812 -2.3919969 -1.3926085 -1.9059095 1.2438953 0.20434307
0.24648099 -0.115533926 -1.1137842 -0.8308921 0.5715145 0.3950896 2.4263065 0.9570214
-1.5967386 1.7068874 1.3431892 1.5879577 0.30034602 2.1248176 -0.99037135 -0.8838466
-0.6306628 -1.3198403 -0.16420534 -2.6851442 -0.6805295 0.30472523 -1.5412155 -1.1541866
0.66766864 -0.09489041 -0.14304529 0.38877466 -1.6232777 -1.8834321 0.54707915 0.18156224
1.8998064 1.3081346 -1.5989372 0.276377 0.14917628 0.78254384 -0.98509616 -0.8216716
-0.035209753 1.0149976 -0.0723501 1.1539954 -1.5171438 -0.7516331 -0.8129354 -0.98545355
0.73304224 1.7200708 1.7415451 0.5570206 1.5701855 1.4308774 -1.3953985 -0.51068604
1.4271727 1.3051772 -1.8197604 0.3873879 0.037015684 -0.27518526 -0.76410794 0.22223295
0.27092203 0.19343843 -0.24828602 0.27082264 -2.314471 -1.2922552 1.7711043 1.9428704
0.71216315 0.6987652 0.22138058 1.2702614 1.0911889 1.6607218 2.7304437 1.1797507
-1.9896656 -1.4073651 1.3842148 1.0792621 0.64715886 0.0888924 -0.5316727 -1.2483873
1.0140874 -0.63221496 -0.3575677 -1.7737637 2.9398515 0.4771417 0.6658096 0.5894298
0.41500592 1.4027348 0.69887555 0.14017981 0.94189644 1.3688977 -0.12566468 -1.2181922
0.73516774 -2.841456 0.3628134 0.47794262 0.49502805 1.3006259 0.47008523 2.4655433
-1.326253 -0.028710114 -0.013168039 1.4070729 1.144651 -1.9190328 2.352054 -0.29463747
0.53336096 1.6211643 0.029404515 1.2231262 -0.26616055 0.480756 -0.79578555 0.96739995
-0.12823308 1.4188519 0.4132113 2.966091 -0.67910165 -0.5259699 -1.3098743 1.5697334
0.3099124 0.09695966 -0.4687291 1.0447904 0.20814827 0.010553668 0.8120016 0.15782674
0.04704139 1.706287 1.3904749 0.9456488 -0.019735165 -1.4783684 1.8725796 0.46840766
-0.91266644 1.7544993 2.326017 1.6517642 0.033520095 -1.7022742 -0.94831693 -1.6055256
-1.4287148 -1.6534843 -1.5584898 -1.4071356 0.9970926 -0.5150903 0.8462344 -0.34056917
00000000: 6e1c d13e 2e25 233e 3897 b3be 7214 d83e
00000010: c539 553e a6ae 6f3f 4ebb cc3f aa21 953d
00000020: 7eb0 253e ab87 ccbf 0a80 2fbf 630a 1cc0
00000030: bd8e 75bf cd6e d7bf 22cd 73bf a6fc 153f
00000040: b7dd 003f 12c6 b7be a94f c7bf 59c9 f2bf
00000050: 6a17 5ebe 2e29 51c0 0ae0 bfbe c4cd c7bf
00000060: 2260 21bf b346 07c0 a984 56bf 6866 94bf
00000070: d899 b1bf 6726 cdbf 826f 5fbf b974 19c0
00000080: f5b7 d53f 36d7 8240 7f16 4dbf 4eea 3d40
00000090: a64b 973e 982f 443f 4eac ca3d 2c77 97bf
000000a0: 4147 72bf e430 d3bf bdf2 063e d70e 95bf
000000b0: c4cd c2bf 67f2 a6bf 538e 2440 e4b4 6240
000000c0: 5e03 b43f 68ec 733f 845a 333f fb95 a6be
000000d0: 9101 26bf e58e 69bf 8a70 0c3f 5ebf e7be
000000e0: 9e89 0bbf 89b2 8ebf eaf6 d7bf bcfe a3bb
000000f0: 9450 1ac0 c981 68bf 0a8f efbf 8cd9 c4bf
00000100: 5468 3abf 641e 88bf e9a6 1f3f f3c3 bd3f
00000110: ee35 f4bf 4259 a8bf e386 143f 6e5f 683f
00000120: 6074 783f 8137 8dbf 5031 cabf b103 2dbf
00000130: d3db 96bf cab7 febf 2608 87bf 4d53 1bbf
00000140: 3938 c7bf 8f8b a6bf e7ea c1bf 7a16 19c0
00000150: ff40 b2bf d8f4 f3bf f637 9f3f 4f3f 513e
00000160: 8365 7c3e 0d9d ecbd 7b90 8ebf 58b5 54bf
00000170: c64e 123f 2f49 ca3e 9b48 1b40 5bff 743f
00000180: ee61 ccbf 497b da3f a0ed ab3f 3342 cb3f
00000190: f4c6 993e 03fd 0740 fa88 7dbf c543 62bf
000001a0: 1e73 21bf 87f0 a8bf 7225 28be 67d9 2bc0
000001b0: 2e37 2ebf f204 9c3e 8d46 c5bf 63bc 93bf
000001c0: 55ec 2a3f e755 c2bd 777a 12be 790d c73e
000001d0: 90c7 cfbf 4e14 f1bf 610d 0c3f 74eb 393e
000001e0: db2c f33f f470 a73f f9a9 ccbf 4981 8d3e
000001f0: abc1 183e cb54 483f 432f 7cbf 1259 52bf
00000200: 1a38 10bd 71eb 813f 4a2c 94bd 1fb6 933f
00000210: c531 c2bf 076b 40bf 891c 50bf af46 7cbf
00000220: a8a8 3b3f 482b dc3f f3ea de3f e798 0e3f
00000230: d7fb c83f fe26 b73f 6b9c b2bf 52bc 02bf
00000240: 98ad b63f 0c10 a73f e9ed e8bf b557 c63e
00000250: c29d 173d 15e5 8cbe 949c 43bf 0991 633e
00000260: 4bb6 8a3e b914 463e b13e 7ebe 44a9 8a3e
00000270: 4b20 14c0 9e68 a5bf 8cb3 e23f faaf f83f
00000280: 5350 363f 47e2 323f 97b1 623e ed97 a23f
00000290: 14ac 8b3f 8892 d43f 97bf 2e40 1202 973f
000002a0: 5dad febf 8a24 b4bf f32d b13f 4325 8a3f
000002b0: 34ac 253f 380d b63d b41b 08bf 28cb 9fbf
000002c0: 9ecd 813f d7d8 21bf 1d13 b7be b00a e3bf
000002d0: 8726 3c40 eb4b f43e 7f72 2a3f dfe4 163f
000002e0: a87b d43e d08c b33f 82e9 323f 4c8b 0f3e
000002f0: 2020 713f 0a38 af3f 3eae 00be b9ed 9bbf
00000300: f433 3c3f 6ada 35c0 aec2 b93e e5b4 f43e
00000310: 5174 fd3e e97a a63f 03af f03e 76cb 1d40
00000320: a9c2 a9bf 7931 ebbc c2be 57bc f71a b43f
00000330: ed83 923f dea2 f5bf 0e88 1640 b9da 96be
00000340: 588a 083f 5082 cf3f bde1 f03c 668f 9c3f
00000350: 3246 88be a725 f63e 9ab8 4bbf 86a7 773f
00000360: 884f 03be f09c b53f 6e90 d33e 6fd4 3d40
00000370: 9bd9 2dbf f7a5 06bf f6a9 a7bf 06ed c83f
00000380: d7ac 9e3e c992 c63d 43fd efbe b1bb 853f
00000390: d224 553e 4be9 2c3c 56df 4f3f 559d 213e
000003a0: 79ae 403d 9d67 da3f 15fb b13f 0a16 723f
000003b0: a4ab a1bc 2d3b bdbf b0b0 ef3f 21d3 ef3e
000003c0: 82a4 69bf 6f93 e03f 76dd 1440 026d d33f
000003d0: 5e4c 093d 1fe4 d9bf e6c4 72bf dd81 cdbf
000003e0: 20e0 b6bf 60a5 d3bf 987c c7bf 051d b4bf
000003f0: 7641 7f3f f5dc 03bf d1a2 583f 155f aebe

lstm.weight_ih_l0 f4 [8, 2]
0.38735592 0.60759866 1.2339917 1.2753766 1.0365294 1.2555449 1.1153823 1.7956102
-0.19819348 -0.24872562 0.7894627 0.8975893 0.47280672 0.7476332 1.5124699 1.6316208
00000000: 8453 c63e 968b 1b3f 71f3 9d3f 8a3f a33f
00000010: ffac 843f b2b5 a03f d9c4 8e3f 8ed6 e53f
00000020: 3bf3 4abe eeb1 7ebe 3a1a 4a3f 6ac8 653f
00000030: b913 f23e e464 3f3f 9d98 c13f f3d8 d03f

lstm.weight_hh_l0 f4 [8, 2]
-0.6276183 0.8404858 0.070348665 -0.74773145 0.3785234 -1.568969 1.0387622 -0.38714883
0.6037824 -1.0085241 0.31368148 -0.15869144 -0.5974939 1.488967 -0.52314174 1.6073716
00000000: 98ab 20bf 142a 573f f612 903d 546b 3fbf
00000010: d2cd c13e fad3 c8bf 29f6 843f 5f38 c6be
00000020: 7c91 1a3f 5117 81bf dc9a a03e 0280 22be
00000030: 5cf5 18bf 7896 be3f 9eec 05bf 5abe cd3f

lstm.bias_ih_l0 f4 [8]
2.6516418 1.8060284 -0.90368885 -0.105202615 -1.867349 0.6720573 2.408771 2.1355195
00000000: 80b4 2940 f02b e73f 2758 67bf 7874 d7bd
00000010: 4b05 efbf f20b 2c3f 4e29 1a40 5aac 0840

lstm.bias_hh_l0 f4 [8]
2.51701 2.2923043 -0.8418882 -1.0699885 -1.7211597 1.8181032 2.8245993 1.7572067
00000000: b116 2140 1db5 1240 fc85 57bf 62f5 88bf
00000010: f64e dcbf 9bb7 e83f 3cc6 3440 26ec e03f

fc_out.weight f4 [15345, 2]
3.7799268 -2.2038794 4.0786934 -2.4667897 4.1747513 -2.791222 -1.1097163 0.6512554
-2.9798942 2.5979674 -2.745018 2.6940637 -2.1769621 3.0693204 -2.4480953 2.6406112
-1.9864608 2.0541596 -2.4253204 2.5614676 -2.079601 2.6649237 -2.2820957 2.3417332
-2.0996149 2.546783 -1.911252 2.5276968 -2.1019492 2.582734 -1.766015 2.1957314
-2.0712073 2.4916668 -2.2745154 1.8316114 -2.0071855 2.057802 -2.0497131 2.0761886
-2.269648 2.2759733 -1.9787558 1.7663536 -1.7879467 2.2584834 -1.3058753 2.216734
-1.766912 1.8236786 -2.1326945 1.7333851 -1.5878162 2.030742 -1.6232896 1.3919818
-1.5274682 2.7765613 -1.5677748 1.5672424 -1.8162012 1.4293672 -1.8491589 2.3321803
-1.4431732 1.890402 -1.1334116 2.0077085 -1.4024556 1.8223757 -1.6264412 1.8599597
-1.0269067 2.237357 -1.9153519 1.5467669 -2.2979708 1.4774073 -1.7576818 0.9707755
-1.9554187 0.4438357 -0.8056682 1.6399841 -1.1750522 1.9512761 -1.019411 1.3162429
-1.1325402 2.0782056 -1.0374864 2.0792894 -1.1542275 1.4886457 -1.1655862 2.1945343
-1.0425242 2.330889 -1.5537113 0.63884777 -1.380978 1.1693244 -0.5913554 2.0263014
-1.2451807 1.4587098 -1.5895249 1.1324315 -1.1083407 1.3282924 -1.347348 0.97682244
-0.93072826 1.4052769 -1.4267005 0.7349413 -1.4188054 1.5531008 -1.8569983 0.9548525
-1.4289012 1.3906289 -0.6538345 0.9733939 -1.5335467 -0.6016819 -0.56749964 2.0081685
-1.2880977 0.9084888 -0.54906994 1.7177752 -1.0709409 1.7443671 -0.81144947 1.1892971
-1.2870772 1.1182967 -0.95995724 1.3211045 -1.4740897 0.9093152 -0.92573434 1.7528148
-1.3846657 1.5608042 -1.6898788 1.1115963 -1.4952794 1.4912239 -1.7493314 0.8639222
-1.2456087 1.3158892 -1.5270338 1.320313 -0.45123643 1.233584 -1.3146225 1.3652934
-1.0944152 -0.081363134 -0.8398082 0.6402643 -1.015183 1.4293641 -1.118996 1.2533815
-0.6542206 1.6885077 -0.696308 0.7438479 -0.4945382 1.0786998 -0.970964 1.0653869
-0.93783456 1.1423283 -0.7622144 0.46844763 -1.5436088 0.7264206 -1.2284641 -0.053236257
-1.3211844 1.1802127 -0.6304413 0.47031808 -1.0294791 0.1788983 -1.1550819 1.2779666
-1.4790133 -1.2122278 -0.9150059 1.0359659 -0.69459945 0.47761577 -0.9434804 0.5474331
-1.4140296 1.2692645 -0.69659626 0.513422 -0.67127126 0.82011235 -0.9012778 1.2071539
-0.5322951 0.97874075 -1.375194 -0.13235669 -0.7881101 0.97509915 -0.83434147 0.3097526
-0.5612013 1.6864407 -1.3470021 1.0439392 -1.4385896 0.11552823 -0.6811605 0.28984615
-1.0859591 0.87168145 -0.6225807 0.06477745 -0.6005817 1.0441555 -1.2004725 0.44557774
-1.467877 0.35738483 -1.324244 0.28128678 -1.1871461 1.0120339 -0.548358 1.427968
-0.89659137 0.88495094 -0.7928609 1.2362652 -0.7087802 0.5918284 -1.3727044 -0.18835713
-0.63820654 1.3760023 -0.9659104 1.1457162 -0.95780164 0.7945753 -1.189439 0.8346213
00000000: 52ea 7140 5c0c 0dc0 a884 8240 e2df 1dc0
00000010: 9097 8540 62a3 32c0 2f0b 8ebf adb8 263f
00000020: 96b6 3ec0 1945 2640 60ae 2fc0 8a6b 2c40
00000030: 5953 0bc0 bf6f 4440 98ad 1cc0 c6ff 2840
00000040: 5944 febf 5a77 0340 7338 1bc0 16ef 2340
00000050: 2f18 05c0 1c8e 2a40 db0d 12c0 f5de 1540
00000060: 1760 06c0 7efe 2240 e8a3 f4bf c9c5 2140
00000070: 5686 06c0 844b 2540 c80c e2bf dd86 0c40
00000080: a98e 04c0 7877 1f40 a991 11c0 3e72 ea3f
00000090: ba75 00c0 07b3 0340 802e 03c0 46e0 0440
000000a0: ea41 11c0 8ca9 1140 df47 fdbf e017 e23f
000000b0: 70db e4bf fe8a 1040 ec26 a7bf f8de 0d40
000000c0: 2c2a e2bf 4d6e e93f 117e 08c0 90df dd3f
000000d0: 903d cbbf adf7 0140 f4c7 cfbf 762c b23f
000000e0: 1484 c3bf 2eb3 3140 d8ac c8bf 669b c83f
000000f0: 4879 e8bf 81f5 b63f 3db1 ecbf 7142 1540
00000100: e6b9 b8bf b1f8 f13f a213 91bf 4c7e 0040
00000110: aa83 b3bf 9b43 e93f 3a2f d0bf 2913 ee3f
00000120: ae71 83bf db30 0f40 402a f5bf 75fc c53f
00000130: f411 13c0 af1b bd3f b8fb e0bf be84 783f
00000140: 294b fabf 6f3e e33e 4540 4ebf 00eb d13f
00000150: 1c68 96bf 6ac3 f93f 0f7c 82bf a67a a83f
00000160: 14f7 90bf 5201 0540 5bcc 84bf 1413 0540
00000170: babd 93bf f18b be3f ee31 95bf 4073 0c40
00000180: 6f71 85bf 492d 1540 03e0 c6bf 878b 233f
00000190: e3c3 b0bf 6cac 953f 1163 17bf ecae 0140
000001a0: 1562 9fbf 01b7 ba3f 8d75 cbbf 84f3 903f
000001b0: 1cde 8dbf 7c05 aa3f e675 acbf 0911 7a3f
000001c0: 3544 6ebf 1de0 b33f 1f9e b6bf 1d25 3c3f
000001d0: 6a9b b5bf 02cc c63f 1fb2 edbf 3771 743f
000001e0: 3ce6 b6bf 2100 b23f b361 27bf 5830 793f
000001f0: 424b c4bf d307 1abf a847 11bf d585 0040
00000200: 63e0 a4bf b992 683f d98f 0cbf 0fe0 db3f
00000210: 9714 89bf 6c47 df3f 27bb 4fbf e33a 983f
00000220: f2be a4bf 5924 8f3f c2bf 75bf f419 a93f
00000230: f9ae bcbf e2c8 683f edfc 6cbf 3c5c e03f
00000240: ba3c b1bf 6fc8 c73f f34d d8bf ca48 8e3f
00000250: 5165 bfbf 6de0 be3f 17ea dfbf 012a 5d3f
00000260: 1b70 9fbf 0f6f a83f d875 c3bf 0400 a93f
00000270: 7608 e7be 15e6 9d3f 8d45 a8bf efc1 ae3f
00000280: cc15 8cbf b7a1 a6bd acfd 56bf 5ce8 233f
00000290: 84f1 81bf 67f5 b63f 433b 8fbf ce6e a03f
000002a0: 007b 27bf 0521 d83f 3e41 32bf d16c 3e3f
000002b0: 1c34 fdbe d612 8a3f 1991 78bf 995e 883f
000002c0: ed15 70bf d037 923f 7c20 43bf 5ed8 ef3e
000002d0: f994 c5bf b3f6 393f 503e 9dbf 430e 5abd
000002e0: 921c a9bf 3611 973f 9a64 21bf 88cd f03e
000002f0: f9c5 83bf 1e31 373e b9d9 93bf 6994 a33f
00000300: 4f50 bdbf 482a 9bbf d43d 6abf 889a 843f
00000310: 45d1 31bf 0e8a f43e ee87 71bf 9324 0c3f
00000320: ecfe b4bf 4277 a23f 2254 32bf a06f 033f
00000330: 6fd8 2bbf e2f2 513f 24ba 66bf 0584 9a3f
00000340: 7e44 08bf c18e 7a3f 5b06 b0bf 8388 07be
00000350: 95c1 49bf 19a0 793f 6797 55bf e597 9e3e
00000360: e3aa 0fbf 4add d73f 916a acbf cd9f 853f
00000370: b423 b8bf 119a ec3d 8960 2ebf b766 943e
00000380: b500 8bbf 8426 5f3f 7361 1fbf 0aaa 843d
00000390: b9bf 19bf e3a6 853f 15a9 99bf c422 e43e
000003a0: 65e3 bbbf 25fb b63e d480 a9bf d204 903e
000003b0: 67f4 97bf 548a 813f 3161 0cbf a8c7 b63f
000003c0: 0387 65bf 258c 623f eff8 4abf f03d 9e3f
000003d0: 9f72 35bf 1182 173f c7b4 afbf b1e0 40be
000003e0: 8161 23bf d820 b03f e745 77bf d4a6 923f
000003f0: 7d32 75bf 4969 4b3f 8a3f 98bf bea9 553f

fc_out.bias f4 [15345]
-2.797604 -2.2018938 -2.0300157 0.6555146 2.57104 2.0979385 2.0790837 2.037817
2.6580918 1.9851465 2.0459998 2.0474944 1.792033 1.9048483 1.694298 2.0503926
1.5974165 1.7785105 1.8387554 1.7553058 1.4235742 1.9175389 1.6305518 2.0038643
1.8619262 1.6451331 1.758201 2.0859337 1.1745346 1.8473587 1.6729391 1.0284178
1.5653275 1.7112321 1.5231844 1.2750669 1.3557249 1.1740539 0.9338073 1.5526851
1.5355225 1.8671585 1.3330091 1.8909173 1.1952646 1.1986356 1.4650445 0.95512116
0.97676784 1.5131135 1.4261109 1.5456573 1.3094416 1.2076567 1.2464097 1.3412544
1.4115049 1.3225573 0.98713344 1.0027095 1.1011206 1.8182992 1.7481107 1.2880648
1.420382 1.4538922 1.0233457 1.554011 1.1654844 1.2514075 1.093002 0.9831423
0.6736215 0.66318357 0.6524899 0.83537495 0.8479283 0.6192612 1.4808314 0.76854277
1.3602699 1.2735963 0.8879209 0.9167815 0.915924 1.4069827 1.4031122 0.9691232
0.8497011 1.1227578 0.77543306 1.1285793 0.6231043 1.3721367 1.2575366 0.5581926
1.391937 0.8970942 1.246892 0.96118087 0.3310871 1.1782713 1.1916474 0.6816247
1.1877143 0.8671399 0.817208 0.96922076 0.7036567 0.43932632 0.7803112 1.2729024
0.7191622 1.1446521 0.94380087 0.56498677 0.37233692 0.7832154 0.29717022 0.6915482
0.6256798 0.5799242 1.0836959 0.76385695 0.70232445 0.6142445 0.718522 0.54410005
0.5194859 0.95566326 0.5698392 0.7534314 0.3825435 1.066749 1.237529 0.46300453
0.6383647 0.8222958 0.3141517 1.1364342 0.840746 0.32585263 0.6812696 0.29693964
0.65247893 0.8703528 0.51486754 0.13433741 1.3025347 0.5122559 0.390743 1.1946833
0.5778466 0.8848298 0.8898795 0.7446461 0.12102047 0.52056646 0.3088218 0.5109025
1.0791266 0.8691508 1.1980878 0.18001288 0.8294072 0.5535934 0.42967245 0.4946253
0.87122655 0.28924364 0.65872806 0.7006515 0.51133716 0.6265778 0.7829877 1.0396353
0.773981 0.77616 0.72461987 0.051296815 1.2049611 0.7055271 0.35903147 0.3757172
0.5681462 1.0919966 0.41805866 0.8096281 0.973144 0.62068117 0.49260175 0.3019319
0.63784325 0.7511843 0.37092146 0.84625 1.1693848 0.303937 0.55022895 0.9906358
0.49666524 0.6122603 1.0496845 0.37646642 0.47656536 0.2739322 0.1990361 0.36487713
0.4710359 0.5502177 0.7457631 0.24446529 0.7207937 0.89150244 1.0541428 0.9047948
0.8776405 0.9029001 0.042088617 0.6826053 1.1363316 1.1641833 0.35610196 0.44335106
0.17778605 0.5123334 0.8188642 0.37475318 0.30015188 1.078003 0.5713652 0.5178005
1.1182007 0.68300354 0.9068635 0.651324 0.79678434 0.8763582 0.9286676 0.40253156
0.1727558 0.6201659 0.31338492 0.3332984 0.45785934 0.5223963 0.898624 0.93638134
0.72627836 0.7249016 0.57438195 0.40736258 0.92089194 0.9779259 0.70046884 0.29187417
00000000: f20b 33c0 d4eb 0cc0 c7eb 01c0 cecf 273f
00000010: eb8b 2440 a044 0640 b50f 0540 986b 0240
00000020: 2d1e 2a40 4819 fe3f a9f1 0240 260a 0340
00000030: 5661 e53f 12d2 f33f c2de d83f a239 0340
00000040: 2578 cc3f 3ba6 e33f 565c eb3f dcad e03f
00000050: ae37 b63f ea71 f53f ecb5 d03f 503f 0040
00000060: 9953 ee3f b993 d23f bb0c e13f f07f 0540
00000070: 2657 963f 4076 ec3f de22 d63f 32a3 833f
00000080: a75c c83f a709 db3f b5f7 c23f 6435 a33f
00000090: 6588 ad3f 6647 963f ff0d 6f3f 63be c63f
000000a0: 008c c43f 0dff ee3f 0ba0 aa3f 9409 f23f
000000b0: 6efe 983f e46c 993f 9486 bb3f d282 743f
000000c0: 750d 7a3f b4ad c13f cd8a b63f 19d8 c53f
000000d0: c89b a73f 7f94 9a3f 5a8a 9f3f 39ae ab3f
000000e0: 31ac b43f 8f49 a93f c7b4 7c3f c958 803f
000000f0: 85f1 8c3f 07be e83f 17c2 df3f 4fdf a43f
00000100: 14cf b53f 2419 ba3f fefc 823f d5e9 c63f
00000110: 982e 953f 1f2e a03f 7de7 8b3f 37af 7b3f
00000120: 7572 2c3f 66c6 293f 9409 273f 22db 553f
00000130: d411 593f e787 1e3f e28b bd3f 38bf 443f
00000140: 531d ae3f 3405 a33f c94e 633f 31b2 6a3f
00000150: ff79 6a3f 0218 b43f 2e99 b33f 7518 783f
00000160: 0386 593f 87b6 8f3f c882 463f 4975 903f
00000170: c383 1f3f 2da2 af3f f6f6 a03f b6e5 0e3f
00000180: fe2a b23f f7a7 653f 289a 9f3f f30f 763f
00000190: 4084 a93e 98d1 963f e787 983f f57e 2e3f
000001a0: 0607 983f e1fc 5d3f 8b34 513f da1e 783f
000001b0: d822 343f 61ef e03e 7ac2 473f 77ee a23f
000001c0: 041b 383f f683 923f ef9c 713f f9a2 103f
000001d0: f2a2 be3e ce80 483f b226 983e 4e09 313f
000001e0: 8d2c 203f ea75 143f 8cb6 8a3f 218c 433f
000001f0: 89cb 333f 213f 1d3f 0ff1 373f 244a 0b3f
00000200: 07fd 043f 59a6 743f fbe0 113f e1e0 403f
00000210: bedc c33e 3b8b 883f 5a67 9e3f ee0e ed3e
00000220: de6b 233f fa81 523f 7ed8 a03e ad76 913f
00000230: 213b 573f 28d6 a63e af67 2e3f 7908 983e
00000240: dc08 273f 71cf 5e3f 5cce 033f bf8f 093e
00000250: 75b9 a63f 3423 033f 770f c83e 62eb 983f
00000260: c1ed 133f 3584 623f 25cf 633f 20a1 3e3f
00000270: 95d9 f73d d843 053f e41d 9e3e 82ca 023f
00000280: d220 8a3f ab80 5e3f f15a 993f 4c55 383e
00000290: 0854 543f 4cb8 0d3f 07fe db3e 873f fd3e
000002a0: b408 5f3f be17 943e 67a2 283f e65d 333f
000002b0: fee6 023f 6767 203f e271 483f c512 853f
000002c0: 9e23 463f 6cb2 463f b080 393f 9c1c 523d
000002d0: 2a3c 9a3f 6d9d 343f f9d2 b73e 015e c03e
000002e0: 0872 113f 8bc6 8b3f c90b d63e ca43 4f3f
000002f0: f71f 793f f6e4 1e3f 4c36 fc3e d196 9a3e
00000300: b249 233f 9d4d 403f 6be9 bd3e d7a3 583f
00000310: 67ae 953f a19d 9b3e cedb 0c3f 4f9a 7d3f
00000320: e84a fe3e 17bd 1c3f 105c 863f 35c0 c03e
00000330: 6000 f43e d740 8c3e 1fd0 4b3e 2dd1 ba3e
00000340: 9e2b f13e 11db 0c3f 55ea 3e3f 1c55 7a3e
00000350: f085 383f 8139 643f 27ee 863f a2a0 673f
00000360: 0cad 603f 7624 673f 1d65 2c3d 39bf 2e3f
00000370: 5073 913f f503 953f ff52 b63e e9fe e23e
00000380: 8c0d 363e 4828 033f 16a1 513f a6df bf3e
00000390: 82ad 993e 01fc 893f fd44 123f 938e 043f
000003a0: 3321 8f3f 52d9 2e3f 3528 683f 2bbd 263f
000003b0: 0ffa 4b3f 0359 603f 29bd 6d3f 9e18 ce3e
000003c0: e5e6 303e 31c3 1e3f fd73 a03e 16a6 aa3e
000003d0: 8a6c ea3e c4bb 053f 390c 663f b0b6 6f3f
000003e0: 61ed 393f 2793 393f b20a 133f d491 d03e
000003f0: 93bf 6b3f 5a59 7a3f ed51 333f 8870 953e
