experiments/gru_h2_l1_20241125_115117/final_model.pth (torch, 311152 bytes, 7 tensors)

embedding.weight f4 [15345, 2]
00000000: c8b7 68bf bf90 bf3f deac 6cbf 3c76 21bd
00000010: ef7f 533e a4b4 a7bf 8d07 da3f 0b72 4c40
00000020: ec74 cabf 138e 2d3e 7a2c f6bf a96c 63bf
00000030: 8e2f 2bc0 33fb 653f 6318 2540 b90a 45be
00000040: 7524 f83f 1cb8 3ebf d364 f6bf 672f 95bf
00000050: 7900 44c0 8c05 733f 0964 fbbf 5b8d 0d3e
00000060: 8cf0 a2bf 440e 08c0 4c4c b9bf 7842 60bf
00000070: 8fdc dabf 27f5 98bf 0a05 febf 1390 6abf
00000080: ce80 5a40 bea5 703e d072 af3f 4a73 6b3f
00000090: c242 263f f7f4 12bf ee07 a9bf 7a54 44be
000000a0: 32c8 18c0 9d65 153e 131f 4d3f 43ff 13c0
000000b0: 1f90 f3bf 811d 29bf 50e5 1c40 cbc1 fa3f
000000c0: 4383 3040 3074 2b3f 15ad a5bc d000 10bf
000000d0: ffff eabf 580b 6d3e 548a ec3e b47b b1bf
000000e0: 9c28 2ebf 8482 a5be 1584 d0bf 88c5 be3e
000000f0: 0e59 18c0 3541 4d3d 7162 04c0 56f1 55bf
00000100: 840e 4fbf 7120 f8bf 2fe4 6b40 b68c 0f3f
00000110: 5b64 cdbf 8927 b6bf 1ec8 8f3f f691 613f
00000120: 97ae c6be 0476 bdbf 29c4 9ebf c626 cabf
00000130: 23a4 23c0 b278 813e 2da9 50bf 4d1b fbbf
00000140: c0b6 eabf 51b6 9abf f116 1bc0 8171 27bf
00000150: 011f 02c0 ba50 46bf 0999 b93f 646b 2bbf
00000160: 544e b23f df60 9f3f fb20 cbbf 5d63 0dbf
00000170: 1f03 cb3f c863 0d40 17ce ed3f 4684 bd3f
00000180: d9fb 743e b741 a73c f072 1f40 4c62 49bf
00000190: 90e2 4740 c6b8 2cbd a9e0 e2bf bdc6 56bd
000001a0: c2d0 ccbf 5ba1 27be f43e 1cc0 a972 903e
000001b0: d47a 183e 973f b7bf 33c0 b8bf 7cdd c6bf
000001c0: ffc4 1e3f b024 e43e a0d0 e73e 3516 f6be
000001d0: e83d dabf 421e d2bf 3a6c eb3f 15db f03d
000001e0: 4f45 e23f 0838 0640 ffe1 05be 08cf f8bf
000001f0: 9c26 0e40 e24f b83f 99ef e3bf ecb7 6bbe
00000200: 61cd 363f d93b b33f 1710 8f3f f883 863e
00000210: 28f9 14bf c349 51c0 3dd2 f3bf 9935 8cbe
00000220: ebb9 973f e157 0a3f af45 1140 4333 aabe
00000230: 13fa c23f f711 80bf da14 eabf 1d79 543e
00000240: 96c5 1b3f c0fd ac3f 1e00 32bf 2f5b c3bf
00000250: 1863 9b3f 1edf 87bf 6e4f 8ebe d077 bc3f
00000260: 1f8a 2240 3345 4a3f d11a c1be a454 c0be
00000270: a211 eebf 709b acbf ee69 2840 0e4f cbbd
00000280: fd1e ee3f a6b8 09bf 2640 0040 e058 993c
00000290: f15e 1c40 7bfe 5cbf a88a c63f 6016 f03f
000002a0: 8393 4fc0 a59b 983f 2365 813f 2532 6a3f
000002b0: e4d7 77be bb97 b13f 8068 03bf bd6d 4ec0
000002c0: 2323 d53e f368 74be 8df8 a2bf 6009 e1bf
000002d0: 726d a23f cd4c a73f 50ca de3f a9b3 343f
000002e0: 7a85 0740 4cb4 c43f c7c3 0f40 d9a1 f03e
000002f0: ce67 0840 3ad1 2740 e5cb b13e 5112 6abf
00000300: 1883 bfbf 6de8 a4bf 144c c23f f293 35bf
00000310: 7dc6 2a40 e0c8 303f 54dd 0240 d0f7 15bf
00000320: 60b0 91be a293 18c0 3fe5 fa3f bdda 2f3f
00000330: bb79 dfbf 5431 a03f bce4 aa3f 9bcc b5be
00000340: 5391 b43f 3962 3d3f faa6 dd3f 641a 21bf
00000350: e2af a83e e7ef 8ebf f6f2 ea3f c549 073e
00000360: f601 f83f 753e 453e 1c68 913f 8e0f 98be
00000370: 609b 2cbf a5fa 81bf ea19 1d3f ba7c c73f
00000380: 2df9 8fbe 7d88 57bf aa08 2cbf ee11 49bf
00000390: 1cc0 e6be 4b4c 8fbf c17a bcbf 5468 713a
000003a0: 0ba2 8c3f 5a95 f53f 399a 0540 dcd4 1ebf
000003b0: edfb 53bf 21f2 19be e5a3 9d3f 1edc b53f
000003c0: 5741 f13e 0553 0e40 651e 3d40 7e60 14c0
000003d0: 3c7b 4abf 9991 5dbe 3040 e9bf b891 49bf
000003e0: 97a5 9cbf 163d 17c0 9d51 04bf 1453 e7bf
000003f0: 5d65 5bbf 8970 303f e46d ea3d b27e 57bf
-0.9090543 1.4966048 -0.92451274 -0.039419398 0.20654272 -1.3102002 1.7033554 3.1944606
-1.5816932 0.16948728 -1.9232323 -0.8883768 -2.6747775 0.89836425 2.5796134 -0.19242372
1.9386126 -0.7449968 -1.9249519 -1.1655091 -3.0625288 0.9493034 -1.9639903 0.13823454
-1.2729659 -2.1258707 -1.4476409 -0.87601423 -1.7098559 -1.1949815 -1.9845288 -0.9162609
3.4141116 0.23500726 1.3706913 0.9197279 0.64945614 -0.57405037 -1.3205545 -0.1917285
-2.387219 0.14589544 0.8012554 -2.312455 -1.9028357 -0.66060644 2.4514961 1.9590391
2.7580116 0.66974163 -0.020224134 -0.5625124 -1.8359374 0.23148859 0.46199286 -1.3865876
-0.68030715 -0.32326138 -1.6290308 0.3726008 -2.3804355 0.050111014 -2.0685084 -0.83571374
-0.80881524 -1.93849 3.6858022 0.5607408 -1.6046251 -1.4230815 1.1232946 0.88113344
-0.38805076 -1.480164 -1.2403613 -1.5793083 -2.556893 0.25287396 -0.8150814 -1.9617707
-1.8337021 -1.2086889 -2.4232752 -0.6540757 -2.0331423 -0.7746693 1.4499828 -0.6696074
1.3930154 1.2451438 -1.586944 -0.5522974 1.5860327 2.2092152 1.8578519 1.4805992
0.23924197 0.020417077 2.4913902 -0.78665614 3.1232033 -0.0421684 -1.7724811 -0.052435625
-1.6001208 -0.16370146 -2.4413424 0.2821248 0.14890605 -1.4316281 -1.4433655 -1.5536342
0.6201934 0.4455924 0.45276356 -0.48063818 -1.7050142 -1.6415484 1.8392403 0.117605366
1.7677401 2.0971699 -0.13074492 -1.9438181 2.2211065 1.4399378 -1.7807494 -0.2301938
0.71407133 1.4002639 1.1176785 0.2627256 -0.5819268 -3.270127 -1.9048535 -0.27384642
1.1853613 0.5404034 2.2698781 -0.33242235 1.5232567 -1.0005482 -1.8287613 0.20749326
0.6084837 1.3514938 -0.6953143 -1.5262202 1.2139616 -1.0614965 -0.27794975 1.4724064
2.5396802 0.7901184 -0.37715772 -0.37564576 -1.8599131 -1.3484936 2.6314654 -0.09927188
1.8603207 -0.53797376 2.0039153 0.018719137 2.4432948 -0.86325806 1.5511065 1.8756828
-3.2433784 1.1922499 1.010899 0.91482764 -0.2420345 1.387443 -0.5133133 -3.225448
0.4162837 -0.2386816 -1.2732102 -1.7580986 1.268965 1.3070313 1.7405491 0.7058664
2.1175218 1.5367522 2.2463243 0.4699848 2.1313357 2.6221452 0.34725872 -0.914342
-1.4961882 -1.2883431 1.5179467 -0.7092887 2.6683648 0.6905651 2.0447588 -0.58581257
-0.28454876 -2.3840108 1.960121 0.68693143 -1.7459024 1.2515054 1.3351054 -0.35507664
1.410685 0.73978 1.7316582 -0.62930894 0.32946688 -1.1166962 1.8355396 0.13211735
1.9375598 0.19262107 1.1359897 -0.29699367 -0.67424583 -1.0154616 0.61367667 1.5584939
-0.28119794 -0.8419264 -0.6720072 -0.78542984 -0.45068443 -1.1195158 -1.4724962 0.00092089665
1.0986952 1.9186203 2.087538 -0.6204355 -0.82806283 -0.15033771 1.2315642 1.42078
0.47120163 2.223817 2.9549801 -2.3183894 -0.7909429 -0.21637572 -1.8222713 -0.78737974
-1.2238034 -2.3631034 -0.5168703 -1.8072228 -0.85701543 0.68921715 0.11446741 -0.84177697

gru.weight_ih_l0 f4 [6, 2]
00000000: 88d3 8d3f a0e2 0b3e 123b 2c3f 59cf 483e
00000010: 4765 68bf e3bb 46bf 6a08 a1bf 2146 39bf
00000020: d184 053f 2d1a a33e ccf6 1fbf 6061 8fbe
1.1080179 0.1366067 0.67277634 0.19610347 -0.90779537 -0.7763044 -1.2580693 -0.72372633
0.52155787 0.31855908 -0.6248596 -0.2800398

gru.weight_hh_l0 f4 [6, 2]
00000000: eb4d 5abf 8bd9 a03f d25a 1bbf 919f 913e
00000010: aff1 99bf b422 903f 511b 5bbf 5613 053f
00000020: ff31 fabe 3f2b 36bd 3b0a e13e eac7 1e3e
-0.85275143 1.2566389 -0.60685456 0.28442052 -1.2026881 1.126059 -0.85588557 0.5198263
-0.4886627 -0.044474836 0.43953118 0.15505949

gru.bias_ih_l0 f4 [6]
00000000: cae7 ed3c 7e6b 8f3e 3fa0 e1bf fa22 17c0
00000010: e0ab e43f 8403 ccbf
0.02904119 0.28011698 -1.7627028 -2.3615098 1.7864952 -1.5938573

gru.bias_hh_l0 f4 [6]
00000000: 0c68 e83e 4c52 833f 95ca eebf de9f cebf
00000010: aaa4 7d3f 16f9 abbf
0.4539188 1.025949 -1.8655573 -1.6142538 0.9907938 -1.343539

fc_out.weight f4 [15345, 2]
00000000: ca57 48c0 cefd 0040 d14c 4ac0 1802 0f40
00000010: 80f0 43c0 6556 1e40 a218 c33e 1c18 cdbe
00000020: 6b26 0c40 f617 2ec0 95ae 1840 2e95 1bc0
00000030: 8577 1540 f043 efbf eda4 2b40 df27 16c0
00000040: c6c9 2040 c675 09c0 eadc f63f f13a 00c0
00000050: f68a 1e40 6462 d3bf fc05 3540 2085 b5bf
00000060: 13b3 0f40 4ebe ccbf b71b 1a40 da78 c2bf
00000070: 4407 d63f b491 21c0 8efc db3f 6af3 0cc0
00000080: ab4f 1340 4c50 c5bf 6ce4 0f40 bd4b 11c0
00000090: 226e ac3f 7978 08c0 a92c 1d40 d7d3 cebf
000000a0: bbd6 af3f c3f3 15c0 61f9 c63f cc3d d1bf
000000b0: 1f89 bb3f 3b80 d0bf 34b3 d33f 2515 0cc0
000000c0: 69b1 f13f a2d4 ecbf 5dab c23f 5200 01c0
000000d0: 9e2a f03f 355b bfbf 658c 9b3f 6678 fdbf
000000e0: a4b2 c43f 1ab2 bebf 4f9f d13f ee96 b4bf
000000f0: 8865 1640 5ae9 87bf 24bd f13f fde1 ecbf
00000100: c048 b43f 91a2 eabf 00a8 0840 e7c9 9fbf
00000110: 409b 6f3f 48d5 cebf 9206 d33f f8c8 6ebf
00000120: ef32 da3f 5ddd d0bf 1c57 b73f 4c63 91bf
00000130: ee2d c63f 4208 a5bf f3e5 703f 20b6 b9bf
00000140: f991 d73e 17f6 c0bf ec20 983f 59b6 c8bf
00000150: 77f7 db3f d6d9 34bf 6e08 a93f c55e afbf
00000160: 173a e13f 1627 9fbf ca2a d83f 9217 8dbf
00000170: 0726 cb3f a485 acbf 3b09 8a3f bd81 6bbf
00000180: 8d04 cf3f c7db b6bf b12d c33f f6c5 5bbf
00000190: d8dd b73f 89e9 99bf f80c 893f ac35 c2bf
000001a0: f16a dc3f 84d5 aabf d2e2 b83f b1e6 babf
000001b0: 7682 703f e625 23bf 6776 7c3f 7078 6fbf
000001c0: af4f 463f fe21 babf 4998 873f 00d8 a2bf
000001d0: 9287 423f f945 a1bf 0cb7 a43f 10b7 abbf
000001e0: 27c1 923f eb65 80bf 6b9b 7d3f 177a 89bf
000001f0: cc4f 633f 6c9c 7ebf 7200 5f3f 084c b0bf
00000200: 7a1f bf3f c1d3 75bf 00a8 a13f 1cec 2abf
00000210: 0dd6 be3f f833 17bf 7400 833f ed65 91bf
00000220: 3abf 8d3f 2660 98bf f631 7c3f f2ca 72bf
00000230: 006f 8a3f 4813 b6bf 90f2 833f 8c21 88bf
00000240: d2f2 e13f 1368 4bbf f3ba 813f 8666 d9bf
00000250: d7c9 d13f 634c 5cbf ed60 403f 3e50 b5bf
00000260: e208 3f3f e66b b9bf 4282 fc3e 47d0 88bf
00000270: 7003 db3e 7e3f 94bf 6e3e 8e3f bdb3 a8bf
00000280: 9feb 9d3d 92fd 41bf 6e67 9c3e 80b4 fabe
00000290: d75a 783f 9317 61bf 0a73 3c3f d9fa d3bf
000002a0: e727 9b3f d2f0 cebf d73f 0e3f 0960 2cbf
000002b0: 3f58 a13f 422d 86bf b57f 7b3f 2053 8fbf
000002c0: 7f83 953f 8cac 88bd d604 0d3e 8a06 c0be
000002d0: 5215 553e da38 9ebf 81ea ed3e 599f bbbe
000002e0: efc3 8d3f 3b28 fbbe 0f1a 293f 88e1 22bf
000002f0: 8cb4 863f 50d5 07bf 64c1 113f 542f 2cbf
00000300: 106f 1d3f 684c 51bf c3cf 9c3d ee3a 70bf
00000310: f356 9b3f c2c5 b8bc 45f1 7d3f 2fac 50be
00000320: 5738 913f 3fd2 75be 2ebe fe3e 69f8 38bf
00000330: e8ff a93f 982c 27bf 1e99 673f 6c53 75bf
00000340: c12f 753f 0f2c 8cbf a6fb 203e f20a 3ebf
00000350: df87 7a3f 08af 91bf 6ef0 963e c794 9cbf
00000360: 2e98 9d3f 50ee 60bf 2f60 a83f 82aa 00bf
00000370: 3fd6 143f 60e4 3bbf 74f3 653f 6927 20bf
00000380: 206e 8a3e 3336 70bf 681f 223f bb63 b83d
00000390: acd1 853f b2bb 76bf 7fcc eb3d 05a3 a2bf
000003a0: efc2 a13c 6687 3bbe 8d93 053f 9cbc 8bbf
000003b0: ca19 f03e 5982 4fbe f25a 2d3f cb3d 09bf
000003c0: 32fb 923d 5930 9fbf a272 b63f a6b7 1ebf
000003d0: 1141 713f 80f4 18bf 4e13 1ebe 5b24 6bbf
000003e0: 0d08 5c3f 0ef8 fbbe d7cd 583f 4332 74bf
000003f0: 09ed 4a3f 4f83 1fbf 9ae1 893f de07 3dbf
-3.1303582 2.015491 -3.1609385 2.2345028 -3.061554 2.474023 0.3810473 -0.40057456
2.1898448 -2.7202125 2.3856556 -2.4309802 2.33542 -1.8692608 2.6819413 -2.3461835
2.5123153 -2.1478133 1.9286168 -2.0035975 2.4772315 -1.6514401 2.8284903 -1.4181252
2.2453048 -1.5995576 2.4079416 -1.5193131 1.6720967 -2.524518 1.7186449 -2.2023568
2.3017375 -1.541513 2.2483168 -2.2702477 1.347111 -2.132353 2.4558508 -1.6158398
1.3737406 -2.343003 1.5544854 -1.6346984 1.4651221 -1.6289133 1.6539063 -2.1887906
1.8882266 -1.850239 1.5208546 -2.0156446 1.8763006 -1.4949709 1.215222 -1.9802368
1.5367017 -1.4898102 1.6376742 -1.410856 2.349947 -1.0618088 1.8885846 -1.8506466
1.4084702 -1.8330861 2.135254 -1.2483491 0.9359627 -1.6158838 1.648638 -0.93275404
1.7046794 -1.6317555 1.4323459 -1.1358428 1.5482767 -1.2893145 0.94100875 -1.4508705
0.42103556 -1.5075101 1.1885047 -1.5680648 1.7184895 -0.7064489 1.3205698 -1.3700796
1.7595853 -1.2433803 1.6888058 -1.1022818 1.587098 -1.3478284 1.0784067 -0.9199484
1.6173264 -1.4285821 1.5248319 -0.8584894 1.4364576 -1.2024394 1.0707083 -1.5172629
1.7220136 -1.334641 1.444422 -1.4601651 0.9394907 -0.63729703 0.9861817 -0.9354315
0.7746534 -1.4541624 1.0593349 -1.2722168 0.75988114 -1.2599479 1.2868361 -1.3415241
1.1465195 -1.0031103 0.99065274 -1.0740384 0.88793635 -0.9945743 0.87110054 -1.3773203
1.4931481 -0.96026236 1.2629395 -0.66766524 1.4909073 -0.59063673 1.0234513 -1.135923
1.1073983 -1.1904342 0.98513734 -0.9484092 1.0815125 -1.4224634 1.0308399 -1.0635238
1.7652228 -0.7945568 1.0135177 -1.6984413 1.6389722 -0.86054057 0.75147897 -1.4165113
0.7462293 -1.4486053 0.4931813 -1.0688561 0.4277606 -1.1581876 1.1112802 -1.3179852
0.07710957 -0.7577754 0.3054766 -0.48965836 0.9701361 -0.87926596 0.73613036 -1.6560928
1.2121552 -1.6167243 0.5556616 -0.6733404 1.2605056 -1.0482562 0.9824174 -1.1197243
1.1680754 -0.06673536 0.13771376 -0.3750499 0.20808914 -1.23611 0.46467975 -0.3664501
1.1075419 -0.4905413 0.6605539 -0.63625383 1.0523849 -0.53059864 0.56935716 -0.67259717
0.6149759 -0.8175721 0.07656815 -0.9383992 1.213591 -0.022555236 0.99196273 -0.20378183
1.1345319 -0.24005984 0.4975447 -0.72254044 1.3281221 -0.6530242 0.90468013 -0.95830417
0.9577599 -1.0950946 0.15720996 -0.7423545 0.9786357 -1.138154 0.29480308 -1.2232903
1.2312067 -0.87863636 1.3154353 -0.50260174 0.58139414 -0.7339535 0.89824605 -0.62560135
0.27037144 -0.938327 0.6332917 0.09003397 1.0454612 -0.9638015 0.11513614 -1.2706
0.019746272 -0.18313369 0.5217827 -1.0916934 0.46894675 -0.20264567 0.67716897 -0.53609914
0.07176818 -1.243663 1.4253733 -0.61998975 0.9423991 -0.5974808 -0.15437052 -0.9185235
0.85949785 -0.49212688 0.84689087 -0.95389193 0.79267937 -0.62309736 1.0771973 -0.7384013

fc_out.bias f4 [15345]
00000000: 8408 23c0 f5f2 e0bf c31b 31c0 136b 9c3f
00000010: 6d93 0a40 c922 d53f c128 0140 b615 8d3f
00000020: 3a72 a73f bd33 fa3f ef41 d63f bc06 c53f
00000030: f450 d13f 554a c43f a467 a23f 5e91 a33f
00000040: 0d4d ad3f 7ef4 273f 195a d03f 5714 853f
00000050: b870 ad3f 6af4 e33f a459 da3f de47 7d3f
00000060: ac50 883f c487 9f3f df33 ad3f a4f0 b23f
00000070: 6ffe bd3f 52f4 a33f bf5c 6b3f 25ea 283f
00000080: 770a 813f 77e3 4c3f e207 b93f 2313 c13f
00000090: fa9b 353f 64be b63f 9495 8c3f 5aaf ac3f
000000a0: 8d42 d23f f86d 843f 7a11 b03f beea 843f
000000b0: 90f9 313f 68a8 6a3f 57f2 4c3f 98cc c63f
000000c0: 6bcc 1e3f 5443 863f 16a9 683f 254e 5e3f
000000d0: d0a0 fb3e f9fb 023f 49b6 cf3f 6182 a43f
000000e0: d38e 8c3f eabe 403f d12f a93f d31a 2d3f
000000f0: f0e5 923f 0db5 8d3f d722 823f 619b 783f
00000100: 9ba1 4e3f cb39 a03f 214e 8e3f f877 7f3f
00000110: 61cd 5d3f b95d 863f 1a05 2a3f 7f73 6c3f
00000120: 7dfd 073f 7ead a23e adbc 023f 17e0 3f3f
00000130: 1a7a 443f 74ed 9b3f 2b87 9d3f fe53 013f
00000140: 4066 c33f 97af c83f c85d 683f 6703 023f
00000150: 045f d93d d359 a13f 2667 cd3e bdc7 043f
00000160: 3e6f 993f ad16 c83f dcc9 933f 88c7 ad3f
00000170: e243 703f 820c 863f 9966 543f d77a 963f
00000180: 1590 453f ebb4 ad3f 0f44 813f d320 7e3f
00000190: bc57 823f 368f 813f 7ef1 cf3e 1fdb 1b3f
000001a0: bee4 a83e d1c8 7b3f f4f0 113e 5df0 163f
000001b0: f4c4 a13e 6e48 003f 971f 503f 2d88 293f
000001c0: a2ae 793f e9b1 9c3f d52e a23e 7398 1e3f
000001d0: 46ec bb3f e11b 0d3f 8c40 a33f b613 643f
000001e0: 94f7 233f a113 903e 2553 043f a9c5 8e3f
000001f0: 7faf 413f 45e9 a63e 66d6 313f 0654 d53e
00000200: 6a20 7f3f ba02 913f 4064 13be 2c4a 5e3f
00000210: 881a 9c3d d663 4f3f dd38 8b3f e1f4 443f
00000220: 439f 0d3f 1db2 a73e 83eb 773f bc0c 953f
00000230: 7865 513f ac3e 2e3f 9946 5f3e a6f9 0e3f
00000240: 262d 683e 594b 343f e904 c13e 9c94 033e
00000250: d0b5 113f 3ab6 303f 05c9 8b3f 03f0 873f
00000260: 989f d53e 0154 733f eacb 493e a9df de3e
00000270: cded 6c3f 3d79 0a3f a849 243e 6fbe 563f
00000280: 3fe3 f43e f74b 343f 126f 3f3f 6132 133f
00000290: 412a 673d e682 1d3f c6aa 923f 30e9 a53e
000002a0: 6588 593f 66f8 e43e 5412 673f a47d ca3e
000002b0: a0c6 f23e b374 8d3f 3bfe 6e3e 03a1 4c3f
000002c0: d7c9 aa3e fc09 313f a21d 213f 9ef9 0c3f
000002d0: a72f 403f 5775 e23e 8941 8e3f aa91 153f
000002e0: 9f2a 5a3f 5867 f13d 9e5a 813f 8c8d 833e
000002f0: 2d62 133f a580 073f e2a4 883e b9db 7c3f
00000300: bb76 ad3e a8e3 523b 215e 2d3e 50ac 493f
00000310: ad48 b63e 60aa 1d3f e9aa 563f 64ad b03f
00000320: 1784 0f3f c7c1 d83e c8f5 323f 42a5 3d3f
00000330: 3694 573f 210e 6c3f 51d0 9e3e 9da4 9c3e
00000340: 41bb a43e 50ac 123f 145e 303f 0ff8 483f
00000350: aa01 4f3f 9cac 3e3f 27e8 ae3e 6bac cc3e
00000360: b81a b43e c4eb 273f 7673 073f 72a0 843e
00000370: 64bd c73e 7a17 6d3f dd2a 523f ee61 c93e
00000380: f9a1 9b3e 0503 483f 28c8 f03e f83a 3e3f
00000390: 3de4 5b3f 292d 983e 5477 7d3f 6515 513d
000003a0: 5949 453e 6a9d fd3e 6839 da3e 5a03 6f3f
000003b0: 9616 93be 08f0 9c3e 3d9d 4f3f e624 4f3f
000003c0: 8835 a73e 1f01 ba3e f844 5cbd b5bc 033f
000003d0: 44ed 5d3f a407 563d 428f 1e3f ed49 b73e
000003e0: 0150 b83e a8c9 2b3f ae4d f53e 7772 233f
000003f0: 0065 213e 08d4 283f 6e18 d33e 2365 933f
-2.5473948 -1.7574145 -2.7673194 1.2220176 2.1652482 1.665124 2.0181124 1.1022251
1.3081734 1.9547039 1.6738871 1.539268 1.635283 1.5335184 1.2687879 1.2778738
1.3539139 0.6560744 1.6277496 1.0396832 1.3550024 1.7808964 1.7058606 0.98937786
1.0649619 1.2463307 1.3531455 1.3979688 1.4843272 1.2808936 0.91938394 0.65982276
1.0081319 0.80034584 1.4455531 1.5083965 0.70941126 1.4276853 1.0983148 1.3491013
1.642656 1.034606 1.3755333 1.0384138 0.6952143 0.9166322 0.8005728 1.5531187
0.6203067 1.0489297 0.90883005 0.8683799 0.49146128 0.5116573 1.6227504 1.2852288
1.0981086 0.7529131 1.3217717 0.67619056 1.1476421 1.1070877 1.0166882 0.9711209
0.8071534 1.2517637 1.1117593 0.9979243 0.8664151 1.0497352 0.66414034 0.92363733
0.5312117 0.3177299 0.51069146 0.7495131 0.7674881 1.218184 1.2306875 0.50518787
1.5265579 1.5678586 0.907681 0.5078644 0.10613826 1.2605537 0.4011776 0.51867276
1.1987073 1.563192 1.1545978 1.3576517 0.9385358 1.0472567 0.8296905 1.1756238
0.77172977 1.3570837 1.0098895 0.99268836 1.0183024 1.012183 0.4061393 0.6088123
0.32987016 0.98353297 0.14252073 0.58960515 0.31595576 0.5011052 0.812982 0.6622341
0.97532094 1.2241794 0.31676355 0.6195137 1.468148 0.55120665 1.2754073 0.89092577
0.6404965 0.28139976 0.5168937 1.1154071 0.7565841 0.32599846 0.6946777 0.41665667
0.99658835 1.1328957 -0.14393711 0.8683193 0.07622248 0.8101171 1.0876728 0.76936156
0.5532114 0.32753077 0.9684374 1.1644511 0.81795454 0.6806438 0.21804275 0.55849683
0.22673473 0.7042747 0.3769906 0.12849659 0.5691805 0.69028056 1.0920721 1.0620121
0.41723323 0.95050055 0.19706693 0.43530014 0.92550355 0.54091245 0.16043723 0.8388433
0.47829625 0.70428413 0.74778855 0.5749875 0.05643678 0.6152786 1.1458366 0.3240447
0.84973747 0.44720763 0.9026234 0.3954898 0.47417164 1.1051239 0.23339169 0.79933184
0.33357117 0.6915586 0.6293584 0.55068386 0.7507271 0.44230148 1.111375 0.5842539
0.85221285 0.117872894 1.0105779 0.2569393 0.5757168 0.5293067 0.26688296 0.9877277
0.33879647 0.003217915 0.16930439 0.78778553 0.35602322 0.61588097 0.8385454 1.3802915
0.5606093 0.4233534 0.6990628 0.7408029 0.84210527 0.9220906 0.31018308 0.3059434
0.32174113 0.5729418 0.6889355 0.7850351 0.80861914 0.7448213 0.34161493 0.39975294
0.35176635 0.65594125 0.52910554 0.2590366 0.3901168 0.9261395 0.82096654 0.39332527
0.30397013 0.7812961 0.47027707 0.7430873 0.8589514 0.29721954 0.99010205 0.051045794
0.19266261 0.4953416 0.42621922 0.9336449 -0.2872817 0.3065188 0.810993 0.8091568
0.3265803 0.3632898 -0.05377671 0.5145982 0.86690164 0.05225338 0.61937344 0.35798588
0.35998538 0.6710458 0.47910827 0.63846534 0.15761185 0.65948534 0.41229576 1.151524
