experiments/lstm_h2_l1_20241123_225437/final_model.pth (torch, 310839 bytes, 7 tensors)

embedding.weight f4 [15345, 2]
00000000: 0b47 803f d35a b53f b2ad bf3f 1fc8 c83e
00000010: d878 fdbf e286 9d3f 1249 b6bf 8bb4 64bf
00000020: 6329 9c3e 2b43 fabf 05a0 0440 e33e 16c0
00000030: 6970 ec3f b2c6 16c0 94a6 5dbf 1121 06c0
00000040: d899 ccbf b3e9 33c0 2f67 0340 ac3b 33c0
00000050: 1c00 2340 1aab 2bc0 da7a 883e 123e 49c0
00000060: 0705 ba3f aaa0 5ac0 8e29 503f c1e7 dbbf
00000070: f30b 0840 3fd3 05c0 b1c8 2b40 71bd bebf
00000080: 875e 6dc0 3276 673e d417 28c0 dbc3 d9bf
00000090: d8e8 a3bf c70d f1bf a194 34bf 351b 3ec0
000000a0: 7267 e33f db05 1dc0 7374 c1be 20da 13c0
000000b0: 8dd3 0c40 7d22 9cbf ba05 45c0 a046 0d3f
000000c0: eda3 e4bf 7803 19bf 8b68 a3bf 4c2d ecbf
000000d0: 2891 d53f 3f9f c0bc 2203 81bf 9563 fabf
000000e0: d6a2 833f fc31 74bf eb5f d63e 09f4 c6bf
000000f0: 1c25 d93f f66c 2fc0 6261 1c40 48e1 d6bf
00000100: 2ee5 6f3f b9a7 adbf 04e6 d3bf 009a 04bf
00000110: 7028 0a40 4142 ffbf 6696 95bf e343 61bf
00000120: 668f 243f b89c a43d ad8e a33f c99f 54bf
00000130: 2614 ae3f 6e68 47c0 f24f c03e 29c5 04c0
00000140: f1e8 fe3f e924 33bf dcbe 3140 4364 e1bf
00000150: f455 c73f 01a0 66c0 c75f 96bf 8814 47bf
00000160: c7a5 93bd eabf 88bf 3b8b 7b3f 1b5d adbf
00000170: 836a eebf 2337 54bf c7ad 10c0 9947 b4bf
00000180: a090 dfbe 80a5 803e fdf5 9bbf f2a7 86bf
00000190: e367 dcbf 9946 cdbd d43a 4cbf 3288 5ec0
000001a0: 87be 793f 0a9d c8bf 0a56 1740 e0fb 96bf
000001b0: 529d 37be e1b2 bcbf 2955 2f3f 1b79 35c0
000001c0: 07d3 89bf ebfd aabf 36aa 23bf e7ff 31bf
000001d0: 59c5 2640 22cc 77bf b737 47bf b07a 75bf
000001e0: 3940 37c0 1d19 85bf 2156 963f af5c d73e
000001f0: d2a1 e6bf 3766 8ebf 4cb9 973f 4600 4abf
00000200: da92 acbf 14bb b93f 7f64 ffbe 4f03 ddbf
00000210: 4d60 c83f 4568 8fbf c928 0f3f 2268 34c0
00000220: e5a3 03c0 2e0d 243f 7d2a bcbf 7024 ac3f
00000230: 6d15 98bf a157 b3bd c8a7 2fbe 96a1 2dbf
00000240: 462a a1bf 4e10 19be 82a4 cb3e 2378 5fbf
00000250: 1f2c edbe e3e5 dabf 13c8 66bd 34af a6bf
00000260: 4fc4 c4bf 4f9a acbf 216b c4be bff9 48bf
00000270: 7fef 1b40 482b 83bf d018 c2bf d12a e53f
00000280: cbf9 83be 9666 82be 0eba 27c0 1161 bbbd
00000290: 6ac5 c6bf 94eb 61bf 4832 bebf 0f33 f93b
000002a0: 3710 1440 4453 bcbf d7a1 2fc0 1a52 2e3f
000002b0: b084 debe cbe3 b43f dcb3 953f 9f36 ccbf
000002c0: 43f4 00bf 2d67 febc a326 0640 62b9 60bf
000002d0: 6561 0ec0 bba0 4ebd 7064 9dbe 49ca d23e
000002e0: f761 39bf 6fe8 afbd 811c c9be 28bb 61bf
000002f0: 3844 4ebf d0a6 21bf 2349 6f3f c11c 9ebf
00000300: 5cba 2f3f c149 2fc0 6d69 0cc0 4690 883f
00000310: 9d1e e6bf 91e8 3fbf 29c3 9ebf 86bc 8bbf
00000320: 77fb 913f a7c9 27bf 7c41 afbf fad1 2abe
00000330: da71 99bf 229f dabf f891 a13d 55c8 a1bd
00000340: f267 21bf 43fe 893e 3c34 c1bf 2559 07bf
00000350: 580b 2ebf e960 88bf 2adc a5bf 1208 a0bf
00000360: 33ea 94bf 3616 76bf e21a c5bf 3f1b 12bf
00000370: bf9d 2fbf e303 efbf 4b1f 3abd 1547 d63e
00000380: 80b0 94be 7b8f 94be a0d8 9cbf 5cd1 83bf
00000390: 799a 853f 8ef9 73be a746 693f 7600 14be
000003a0: 6d86 65bf d94c 94bf 61f3 61bf 4d08 edbf
000003b0: ce45 6c3f a63a 69bf 0e14 52bf b731 d6bd
000003c0: de55 6fbf 0a60 e4be 89d4 62bf 6a90 9bbf
000003d0: af56 973e dc41 09c0 144d 6dbf dd43 ba3f
000003e0: 378e 793f 0a4e 3cbf d476 9d3f 20e3 fbbf
000003f0: edc9 8fbf c928 cdbf 27ea 3c3f d44a 023e
1.002168 1.4168342 1.4974883 0.3921518 -1.9802504 1.2306788 -1.4241049 -0.89337987
0.30500326 -1.9551748 2.0722668 -2.3475883 1.8471805 -2.3558774 -0.86582303 -2.0957682
-1.5984449 -2.8111389 2.0531728 -2.800517 2.5468817 -2.6823182 0.26656228 -3.1444135
1.4532784 -3.4160562 0.8131341 -1.7180101 2.1257293 -2.0910184 2.6841242 -1.4901563
-3.7088945 0.22603682 -2.6264544 -1.7012895 -1.2805433 -1.883233 -0.7053929 -2.9704106
1.7765944 -2.4534824 -0.37784156 -2.3101883 2.200412 -1.2198025 -3.0784745 0.5518589
-1.7862526 -0.5977092 -1.2766279 -1.8451324 1.6684923 -0.023513434 -1.0079081 -1.956164
1.0284069 -0.9538877 0.41870055 -1.5543224 1.696445 -2.7410254 2.4434438 -1.67875
0.93709075 -1.356681 -1.655457 -0.51797485 2.158718 -1.9942094 -1.1686523 -0.8799421
0.6428131 0.08037704 1.2777916 -0.8305631 1.3599899 -3.115749 0.37560993 -2.0745337
1.9914838 -0.69978195 2.7772741 -1.7608722 1.5573106 -3.6035159 -1.1747979 -0.77765703
-0.07209354 -1.0683568 0.98259324 -1.3544039 -1.8626255 -0.8289663 -2.2606065 -1.408435
-0.43665028 0.25126266 -1.2184445 -1.0520003 -1.7219204 -0.10023231 -0.79777265 -3.4770627
0.97556347 -1.5672925 2.3646264 -1.1795616 -0.17931107 -1.474209 0.6848932 -2.8355167
-1.0767525 -1.335874 -0.63931596 -0.695311 2.6057951 -0.96795857 -0.7781939 -0.9589033
-2.8632948 -1.0398289 1.1745034 0.420629 -1.8018134 -1.1124943 1.1853423 -0.7890667
-1.3482316 1.4510217 -0.4988136 -1.7266635 1.5654389 -1.1203696 0.5592161 -2.8188558
-2.0568783 0.6408261 -1.4700466 1.344862 -1.1881539 -0.08756948 -0.17153847 -0.67824686
-1.2591026 -0.14947626 0.39773947 -0.8729269 -0.46322724 -1.7101406 -0.05634315 -1.3022218
-1.5372409 -1.3484591 -0.38362983 -0.7850608 2.4364927 -1.0247583 -1.5163822 1.7903692
-0.25776514 -0.25468892 -2.6207309 -0.09149373 -1.5528996 -0.8825009 -1.4859095 0.0076049636
2.3134897 -1.4712911 -2.744253 0.6809403 -0.43460608 1.4132017 1.1695514 -1.5954169
-0.50372714 -0.031055057 2.0961082 -0.8778287 -2.2246945 -0.050446253 -0.3074069 0.41169956
-0.7241511 -0.08589255 -0.3927956 -0.881762 -0.80572844 -0.6314516 0.9347097 -1.2352525
0.68643737 -2.7388766 -2.1939347 1.0669029 -1.7978092 -0.74964243 -1.2403308 -1.0916908
1.1404866 -0.6554207 -1.3691859 -0.16681662 -1.198787 -1.7079813 0.078891695 -0.078995384
-0.6304923 0.269518 -1.5094066 -0.528704 -0.6798606 -1.0654575 -1.2957814 -1.2502463
-1.1633972 -0.9612764 -1.5398829 -0.57072824 -0.68600076 -1.8673061 -0.04544 0.41851106
-0.2904091 -0.29015717 -1.2253609 -1.0298266 1.0437766 -0.23825666 0.9112343 -0.14453301
-0.8965824 -1.1585952 -0.8826199 -1.8518158 0.92294014 -0.91105115 -0.8206185 -0.10458701
-0.934904 -0.44604522 -0.8860555 -1.2153447 0.29558322 -2.1446447 -0.92695737 1.455196
0.9748263 -0.7355658 1.2301888 -1.9678688 -1.1233498 -1.6028072 0.7379479 0.12723857

lstm.weight_ih_l0 f4 [8, 2]
00000000: 2f0c b3bf 7697 173f 7522 4abf ab34 6ebe
00000010: 1021 d3bf 18ba bf3f f711 b4bf 95a3 b23f
00000020: 7370 873f bd93 01bf 03ae c6be 0277 1dbe
00000030: 7c15 f6bf 43ea 9f3f 3f3d 3dbf c759 8ebe
-1.3988093 0.59215486 -0.7895883 -0.23262279 -1.6494465 1.4978666 -1.4067982 1.3956171
1.0581192 -0.50616056 -0.38804635 -0.15377429 -1.9225307 1.2493366 -0.7392158 -0.2780287

lstm.weight_hh_l0 f4 [8, 2]
00000000: a5ce 98bf 1677 3e3f 037a bcbe 16f8 bdbe
00000010: d5f9 893e cd7e 7ebe 4bdb 6f3f c568 1a3c
00000020: 6e28 70bf 5abe 78bc 62c4 42bf 056e 5c3f
00000030: 30c9 5a3e c04a 3abc f9ac 95be 2840 a33f
-1.1938063 0.7440046 -0.36811838 -0.37103337 0.2694842 -0.24853058 0.9369399 0.009424393
-0.9381169 -0.015182102 -0.76080906 0.86105376 0.2136581 -0.011370361 -0.2923353 1.2753954

lstm.bias_ih_l0 f4 [8]
00000000: ad54 0b40 ee35 3240 8150 80bd 4dde 9abf
00000010: 1de3 c2bf 91cb 983f adcb 1140 589c 4f40
2.1770432 2.7845416 -0.06265355 -1.2099091 -1.522556 1.1937124 2.2780564 3.2439175

lstm.bias_hh_l0 f4 [8]
00000000: b425 1e40 3533 1e40 1f31 debe 4317 9ebf
00000010: 8b11 01c0 2867 0b40 403a ce3f f254 1940
2.4710512 2.4718754 -0.4339685 -1.2350849 -2.0166957 2.1781712 1.6111526 2.3958097

fc_out.weight f4 [15345, 2]
00000000: 6698 2440 e3b5 5ec0 37b4 1940 a111 85c0
00000010: aaa8 3540 d4b7 41c0 bad2 aabf d260 f03d
00000020: 4775 48c0 a831 2e40 b48a 2bc0 ecfb 3840
00000030: b842 35c0 470f 3640 9151 14c0 6af1 2040
00000040: e1fe 23c0 76b8 1940 75be 3dc0 477a 1240
00000050: cded 29c0 8f9c 2140 5be9 42c0 f77c f03f
00000060: 7fae 09c0 ef2d f13f 81a9 22c0 5d1e 0340
00000070: 4dcd 1fc0 a6ba 1540 232f 19c0 6eb4 0840
00000080: 6686 1ac0 b849 ea3f 2475 21c0 2f18 0040
00000090: 31de 07c0 9769 f63f 6ca5 dbbf fd3d 0e40
000000a0: 520f 26c0 1114 0740 a274 0dc0 0b8d 1640
000000b0: 7ccc ffbf 9841 d03f 62d2 04c0 8539 d23f
000000c0: ef2e 1ec0 2686 de3f f93a f5bf fce8 d73f
000000d0: 4573 f1bf ffd3 f33f 64d3 e3bf 7403 1e40
000000e0: 82ad d6bf bd34 d43f dda2 84bf 3e85 cd3f
000000f0: f255 d5bf e7d8 c83f ae0a 2bc0 af44 ae3f
00000100: 8196 f3bf 0c1e c23f d456 eebf 738c d53f
00000110: 5c5b 0cc0 2383 a33f b026 aebf 563e b93f
00000120: bf99 c4bf e489 a43f 6938 1bc0 cc9d 9f3f
00000130: 81c0 bfbf 11f2 9b3f 8c3b a0bf 2a8e ee3f
00000140: 7cce 4dbf 38c5 fd3f 0800 a4bf e8da e43f
00000150: 25b7 02c0 c4c2 cc3f fdbf a0bf 0a79 ad3f
00000160: 4850 f1bf 33a2 9c3f 9f4a c4bf c530 a73f
00000170: ab83 a2bf 7814 953f d9be d9bf 2b01 c33f
00000180: e388 f5bf 52f9 9d3f f9b5 77bf b32f be3f
00000190: a6c0 08c0 1f32 583f 4624 f7bf c587 163f
000001a0: 8cd9 01c0 dcd5 983f ab12 dabf 687d ad3f
000001b0: bbaa 70bf 284e 773f 5c4e e0be 953c e33f
000001c0: 1438 b5bf 74ad 7b3f a680 a3bd f160 d23f
000001d0: 5b2c 9cbf b0d6 973f 5cd1 00c0 2b3f 943f
000001e0: 942e bcbf 54ff a73f bd4d 4cbf 6b50 df3f
000001f0: b807 2e3f e25c 813f 312f 98bf c727 c23f
00000200: 1ed6 b8bf bc08 533f 89b1 b4bf 3c30 c53f
00000210: 2645 fdbf 133c 933f 388b aebf 861b e23f
00000220: 5437 d8bf 3f31 973f 78b0 46bf e198 aa3f
00000230: 6ca3 86bf ae49 a13f e3eb 8bbf fc5a a43f
00000240: d580 03c0 4ece 663f 6b73 b4bf 1409 4c3f
00000250: 62ac d1bf 5416 473f b488 afbf 36eb dc3f
00000260: a855 86bf 424c 843f b4f8 b2bf 7567 2a3f
00000270: e009 9dbf c443 a33f 418e fcbf 2235 863f
00000280: 96f5 af3f cad3 a93f abb6 7e3b 73a0 8e3f
00000290: bb36 67bf f3dc 433f 69e8 6dbf 02c9 b13f
000002a0: 06ea a4bf 3e01 2c3f c2c6 11bf 635c 6c3f
000002b0: 4f82 b4bf 2543 8d3f 1cce 98bf 1671 ca3f
000002c0: 9c6d 69bf 5e33 563f 0569 bb3e 1945 da3f
000002d0: 6537 37bf 46e4 5e3f 98ca 32be 6715 bc3f
000002e0: a8d0 48bf bfb6 d73f bd97 eebe efad 9e3f
000002f0: 870f 3fbe f04d d33f e73a 49bf f213 953f
00000300: 5195 373f f10a 2b3f 0460 b2be dccc ec3f
00000310: 13d4 0e3d a07a 453f 0e0a b33e 5f7a e03f
00000320: 47c9 9ebf 640c 433f 970e aabe 7832 9a3f
00000330: 87a0 92bf b80b 0d3f c9de d3bf d56c 993f
00000340: d07b cbbe ed58 693f b9d0 bf3e bc8a 093f
00000350: ea15 23bf 183a 023f 793d 18bf b181 6d3f
00000360: a8ff a9bf e7c0 333f 1ccd a7bf a727 2a3f
00000370: 8fcd e6be 2571 953f 52c0 a6bf ce60 833f
00000380: 6f65 bdbf d82d 8d3d ba09 e63e fad6 ab3f
00000390: 6ee6 32bf d95a 7c3f bd70 f5be 7372 943f
000003a0: 4a85 e4bd 1123 8e3f 8dea 3cbf 3efe a03f
000003b0: afee 4cbf b2a9 5f3f 9fb6 99bf c5b2 033f
000003c0: d02b 11bc 81a0 b53f 33cd 28bf 272d 413f
000003d0: 2ff1 a4bf 6692 843f bef1 f2be 256f 553f
000003e0: 5c15 26bf ebfd 823f 2ada b7bf 6f9f 953e
000003f0: 12c1 2cbf f206 443f 182f 45bf cdee fe3e
2.5718017 -3.4798515 2.4016244 -4.158402 2.8384194 -3.026845 -1.3345559 0.11737217
-3.132158 2.7217808 -2.6803408 2.890376 -2.8321972 2.8446825 -2.3174784 2.5147347
-2.5624316 2.4018836 -2.9647496 2.2887132 -2.6551392 2.5251806 -3.045493 1.8788136
-2.1512754 1.8842143 -2.5415957 2.0487282 -2.4969056 2.339517 -2.393502 2.1360126
-2.414453 1.8303747 -2.5227747 2.001476 -2.1229365 1.9250973 -1.7159858 2.2225335
-2.594685 2.1105998 -2.2102437 2.3523586 -1.9984279 1.6270018 -2.0753407 1.6423804
-2.4716146 1.7384689 -1.9158622 1.6867976 -1.8863302 1.9049071 -1.7798886 2.4689608
-1.67717 1.6578594 -1.0362202 1.6056287 -1.6666853 1.5691193 -2.6725268 1.361471
-1.9030305 1.516542 -1.8620248 1.6683487 -2.1930761 1.2774395 -1.3605556 1.4472148
-1.535942 1.2854581 -2.425318 1.2470031 -1.4980623 1.2183248 -1.2518172 1.8637135
-0.80393195 1.9825811 -1.281251 1.7879305 -2.0424283 1.5996938 -1.255859 1.3552563
-1.8852625 1.2236999 -1.5335273 1.3061758 -1.2696432 1.1646872 -1.7011367 1.5234731
-1.91824 1.2341712 -0.96762043 1.4858307 -2.1367583 0.8445148 -1.9307945 0.5880092
-2.028903 1.1940265 -1.7036947 1.3553896 -0.94010514 0.9660363 -0.43809783 1.7752863
-1.4157739 0.98311543 -0.07983522 1.6435834 -1.2201036 1.1862392 -2.0127783 1.1581777
-1.4701715 1.3124795 -0.7980612 1.7446417 0.6798053 1.010647 -1.1889402 1.5168389
-1.4440343 0.824352 -1.411668 1.5405345 -1.9786727 1.1502708 -1.3636236 1.766465
-1.6891885 1.1811904 -0.7761302 1.3327905 -1.0518622 1.260061 -1.0931362 1.2840266
-2.0547383 0.90158546 -1.4097723 0.7970135 -1.6380732 0.77768445 -1.3713593 1.7259281
-1.049489 1.0335772 -1.3982148 0.6656411 -1.2268639 1.2755055 -1.9730912 1.0484965
1.3746822 1.3267758 0.0038866203 1.1142715 -0.9031789 0.76509017 -0.92932755 1.3889468
-1.2883918 0.67189395 -0.56943905 0.9232847 -1.4102267 1.1036116 -1.19379 1.5815761
-0.91182876 0.8367213 0.3660356 1.7052337 -0.715689 0.8706707 -0.17460096 1.4694031
-0.78443384 1.6852645 -0.46600142 1.239683 -0.18658267 1.650816 -0.786055 1.1646712
0.71712214 0.6681357 -0.3483888 1.8500018 0.03487022 0.77140236 0.3496861 1.7537345
-1.2405175 0.7619078 -0.33214256 1.2046652 -1.1455239 0.55096006 -1.6552364 1.1986338
-0.397429 0.91151315 0.3746393 0.53727317 -0.63705313 0.50869894 -0.594688 0.9277602
-1.3281145 0.7021622 -1.310947 0.66466755 -0.45078704 1.1675154 -1.3027442 1.0263917
-1.479658 0.068935096 0.44929296 1.3424981 -0.6988286 0.9857612 -0.47937575 1.1597427
-0.11158235 1.1104451 -0.73795396 1.2577589 -0.800517 0.8736831 -1.2008857 0.51444656
-0.008860543 1.4189607 -0.6593811 0.7545952 -1.2886103 1.0357177 -0.4745006 0.8337272
-0.6487634 1.023374 -1.4363453 0.292232 -0.674821 0.765731 -0.77024984 0.49791566

fc_out.bias f4 [15345]
00000000: 0c6d 2cc0 bde3 23c0 fad0 02c0 8e50 743f
00000010: 9f62 1940 babc 0340 ce0e dd3f d251 0c40
00000020: 95e6 fb3f 9eff ed3f 6a82 db3f 5282 f33f
00000030: e6d8 1440 d8e0 e93f 4356 d23f afe1 cc3f
00000040: c378 ed3f 11f9 c73f 04b6 f03f bc2d f43f
00000050: 8c11 b03f 7fc1 af3f e4d4 f23f f995 e43f
00000060: 2a11 bf3f 50c0 ef3f d6ff cf3f d55c 9d3f
00000070: a2bc ec3f 2f14 0a40 6bc7 e03f 7aa2 963f
00000080: efe1 cc3f 758e a73f 09ec af3f ffd7 e33f
00000090: 0be1 db3f da97 8c3f cd42 e93f 0637 a53f
000000a0: a172 b03f 38ee a93f 164a 6f3f 6c8c d03f
000000b0: 3e1b a43f b9ea b23f 3e7d d13f 6319 8e3f
000000c0: b2a5 8f3f 53a1 b03f a93e 9e3f 6943 ce3f
000000d0: 3af2 7c3f f20b 8a3f f2d5 d83f a434 b53f
000000e0: 7408 bd3f b4ab cb3f 9828 b73f d75f 603f
000000f0: 14bb 923f 1d1b 8d3f 48a1 1340 a89f 8a3f
00000100: 932a c23f 7a39 743f a668 4b3f 84bd 2e3f
00000110: c48f 5c3f 3cd6 9b3f e403 953f f987 9e3f
00000120: e714 533f 2a38 9c3f f714 923f 8911 e93e
00000130: cd64 a53f cdfe 9b3f 8b29 6d3f 8538 113f
00000140: e2a8 e73f 1280 b83f 39ba ba3f 05b6 6e3f
00000150: 39ed 983f 591c aa3f 7587 3b3f 620e d03e
00000160: 83e7 8c3f 4b8f 853f 0f58 a23f ce9e 5b3f
00000170: 0aaf 1f3f 9e8d 743f c9bd 433f 0a88 6e3f
00000180: add7 e53f 501e 193f 4a71 ba3f f93e 503f
00000190: c310 5a3f 9650 703f 60ce 883f a492 8a3e
000001a0: 8393 9b3f 6380 d03f 8543 a83f 4c2d 533f
000001b0: 1649 3f3f 9df9 583f 5860 3c3f df81 e93e
000001c0: 6863 933f 5761 4e3f cda2 653f 0af9 1d3f
000001d0: eafd 4d3f 326a 173f 3f6a 403f 75b2 5e3f
000001e0: f85e 273f a2ab 7d3f dbb1 f23e 756b 5a3f
000001f0: 1fc1 4f3f 5f6c 603f f7a7 7e3f 1b00 8a3f
00000200: 92a1 8b3f 39dd 3d3f 9313 123f 27a7 cc3e
00000210: 2833 2cbc 37ad d53e bf2a 233f 136f 363f
00000220: 1006 d73e 5289 2d3f a35a 3a3f 9d01 8c3f
00000230: 643b f83e a5d7 5e3f 0300 073f 18d0 0b3f
00000240: 30ef 243f d17f 853f bdb2 a13f 185d 573f
00000250: 2143 c43f c915 913f dad0 483f 370a 8a3f
00000260: 9981 cb3e 07d5 a13e d142 a83f 793a 173f
00000270: 0471 413f bcd6 953e 245f 243f 9f8e 6b3f
00000280: ae3e a13e 2e83 0b3f 01c9 9b3e 641e 2d3f
00000290: f116 813f cfba 043f 4b80 ae3e 5b9d 0f3f
000002a0: 85e8 8c3e d853 023f b08c d33e fdd0 7c3f
000002b0: 8139 333f dbf4 8f3f 16c7 c13f 1a48 0b3f
000002c0: 784b 7a3f 8d8b a43e afd8 913f 2c63 623f
000002d0: 7775 cc3e 9ba6 5b3f e04a 963e a1d4 6a3f
000002e0: f66e 723f 9a63 893f fbc3 5a3f ed62 103d
000002f0: e95b 5b3f 8dd8 3e3f 634c 553f 63b5 683f
00000300: 1748 863f 4770 cb3e 4dd1 0b3f 4660 9c3f
00000310: fb7a 243f 0e36 133e 3641 7c3f a563 893f
00000320: 6763 803f 85d5 863f ffd4 653f 46c2 173f
00000330: 57ca 7b3f 3ae7 7c3f 40e9 b53e 0007 0d3f
00000340: 5b33 8a3e 7a57 a63e 7f23 ae3e e1a9 7d3f
00000350: dcb0 013f 5539 273f 7a33 a73f da4c 933f
00000360: 8ea5 5b3f def2 d23e 0e5b 953e 9bfc 5b3f
00000370: b1f7 5d3f 9935 7e3e 591f 933e 7716 1b3f
00000380: cdc7 c43e 4533 fabc acda db3e b5e9 f63e
00000390: bcc9 0b3f 20a1 743f 9ef7 703f 90ca 513f
000003a0: c3f8 7b3e 47af f53e d209 3b3f 60f8 133f
000003b0: 2ed9 e83e bae9 3e3f 8533 373e 01fd 4b3f
000003c0: e57d 873c b494 333f 01d0 4f3e 3830 693e
000003d0: 8f3a 903f ec3a e83e 8d54 be3e 3db9 d13e
000003e0: df1e 423f 1304 833f ec4a 673f 08cc 183f
000003f0: e131 093f 06b4 ab3e 8067 b03d cd12 0a3f
-2.6941557 -2.560775 -2.044005 0.95435417 2.3966444 2.058394 1.7270143 2.192494
1.9679743 1.8593633 1.7149174 1.9024146 2.3257384 1.8271742 1.6432575 1.6006373
1.8552479 1.5622884 1.8805547 1.9076457 1.3755355 1.3730925 1.8971219 1.7858268
1.4927113 1.8730564 1.624995 1.2293955 1.8495066 2.157482 1.7560858 1.1768334
1.600645 1.309035 1.3743907 1.7800292 1.7178053 1.0983841 1.8223511 1.2907417
1.3784982 1.3275824 0.9347242 1.6292853 1.2820814 1.3977882 1.6366346 1.1101497
1.1222441 1.3799232 1.2362872 1.6114322 0.9880711 1.0784895 1.6940291 1.415669
1.4768205 1.5911775 1.4309263 0.8764624 1.1463342 1.1023899 2.3067188 1.0829973
1.5169243 0.954002 0.79456556 0.6825793 0.8615687 1.2174754 1.1641812 1.2385246
0.8245377 1.220464 1.1412648 0.4552119 1.2921387 1.2187134 0.92641515 0.56726867
1.8098414 1.4414084 1.4588081 0.9324649 1.1947395 1.3289901 0.73253566 0.40635973
1.1008152 1.0434355 1.2683123 0.8578919 0.62376463 0.9552859 0.76461464 0.9317633
1.7956444 0.5981188 1.4565823 0.8134609 0.85181826 0.93872964 1.0687981 0.27065003
1.2154392 1.628918 1.3145605 0.8249099 0.74720895 0.8475588 0.7358451 0.45606896
1.1514711 0.8061728 0.8970154 0.6170813 0.8046557 0.59146416 0.7516212 0.86991054
0.65379286 0.99090016 0.47401318 0.85320216 0.81154054 0.8766536 0.99475044 1.0781282
1.0908682 0.74165684 0.5706112 0.39971277 -0.0105102435 0.41733715 0.637371 0.71263236
0.41996813 0.6778766 0.7279455 1.0937992 0.4848281 0.870478 0.5273439 0.546144
0.6442747 1.0429631 1.2632672 0.84126425 1.5332986 1.1334773 0.7844368 1.0784367
0.39747313 0.3160784 1.3145391 0.590736 0.75563073 0.29265392 0.64207673 0.920145
0.31493133 0.5449704 0.3042679 0.676245 1.0085126 0.5184755 0.34082255 0.5609948
0.27521148 0.50909185 0.41318274 0.9875639 0.7000962 1.1246599 1.5138881 0.54406893
0.97771406 0.3213772 1.1394252 0.88432574 0.3993337 0.85801095 0.29354 0.91730696
0.9470056 1.0733521 0.8545529 0.035250593 0.8568712 0.7454918 0.8331968 0.90901774
1.049075 0.39734098 0.5461624 1.221688 0.64250153 0.14376089 0.98537004 1.0733534
1.0030335 1.0533911 0.8977813 0.5928081 0.9835562 0.98790324 0.35529518 0.55088806
0.26992306 0.32488614 0.34011456 0.9908734 0.5066049 0.65321857 1.3062584 1.1507828
0.8579949 0.41200918 0.29171032 0.8593232 0.8670607 0.24825133 0.28734854 0.60581154
0.38433686 -0.030542025 0.4294027 0.4822518 0.546047 0.9555836 0.94127834 0.8194971
0.24606614 0.47985289 0.7306186 0.57800865 0.45478195 0.7457539 0.17890747 0.7968293
0.016539523 0.7014878 0.20294191 0.227723 1.1267871 0.45357454 0.37173882 0.40961638
0.75828356 1.0235618 0.90348697 0.59686327 0.53591734 0.33535784 0.08613491 0.5393494
