experiments/lstm_h2_l1_20241125_150336_small/final_model.pth (torch, 90800 bytes, 7 tensors)

embedding.weight f4 [4309, 2]
00000000: 044a 26be 258c bbbf c8e0 01bf 854c 853f
00000010: 4a53 0dbf 9091 e33e 9800 8cbf a468 98bf
00000020: e3e5 93bf ae07 013f b89e 923f 5796 b43f
00000030: 3baa 003f 23f3 473f 2b00 51be 84dc 02bf
00000040: 43e7 2ebe 3e03 e3bf 33ba 1bbe 2f2a 0640
00000050: 7fad b2bf 20e5 02bf 853b 9fbf 27b2 febf
00000060: ff86 e8be 1b34 13be 1312 81bf 9c80 d6be
00000070: c5ab 2abf 98b5 943d 24e3 d2bd 26e5 a73e
00000080: a475 88bf c95d 003f d921 a0bf 3804 a3bf
00000090: 7fe1 f53c 4011 613c b650 1e3e dda0 30bf
000000a0: fbfb a0bf ff9e 7e3f 13ea b2bf e33d f3be
000000b0: 93c2 8abf 1541 8a3e ee40 b9bd a66f 01c0
000000c0: 3590 e7be 6b42 08be c307 1e3e 55ed c33e
000000d0: 7b0b cabe c60d a0bf 87eb 593e 2f16 5a3f
000000e0: 0cd9 eebf f103 d53f 0566 d23f 75f1 78bf
000000f0: 64fa fa3c bf00 b9bf c1e1 94be a9fb f9bf
00000100: 2f56 a23e e3de 24c0 1938 14bf b03f a7bf
00000110: ca11 0f40 1f9b 2ebe f58e 0b40 ea01 043c
00000120: d174 0e3f cbe0 85bf b8fd 7a3f c85b 30bf
00000130: b9be 81be f090 10be 1020 9f3e da0a 7ebe
00000140: 1d0e 763f fc82 533f 4a97 b93e 765d 60bf
00000150: 7e1c 543f eff9 23bf 0651 523f 254a 76be
00000160: a493 313f 9fcf 07bf 8eb4 dd3f 683e ae3e
00000170: 677c e73e b65d c4bf 2059 ab3e eee9 12bd
00000180: a18f d03f 7a24 5d3f 635f 1c3f 66d7 97be
00000190: ea8a 60be ac8a 6fbf cb6f b6bd cb3f 473f
000001a0: 3ad0 1b40 bc1a 5f3f 2d15 18bf 228f 323f
000001b0: 8f32 12bf e783 8cbe c83b 2c40 8324 d03d
000001c0: ab44 68bf ea73 db3f b71b 9c3f 0124 10be
000001d0: 833b a43f b602 3bbf 3c3c 0d3f 54a6 3b3f
000001e0: 8fd2 95bf 2fe7 4fbe d0ec 49bf f30b 3bbe
000001f0: 127d 933c 01d2 60bf 2c04 5e3f a177 c53e
00000200: e2ac 013f ee85 f5bf 1647 b4be 82a8 5a3f
00000210: 729d 8a3f 6f23 03bf 5453 053f 2fef 24bf
00000220: 1889 a23f 2196 5fbf d116 f6bd c679 39bd
00000230: b673 fc3e 46cc 25bf 5609 f53f a1af e03f
00000240: a661 c2bd 29c9 4ebf 6ee6 2ec0 2e69 15bf
00000250: d565 bfbf 32b8 10c0 53ca 273f 12ae d33f
00000260: 1440 efbe a8f1 913e bb1f 27bf 2e26 323e
00000270: 1440 9c3e 28f2 443f be96 a5be 415c 84bc
00000280: a534 b1bf 2e21 f83e 9d90 f7bf 3de9 4c3e
00000290: 33b4 05bd 084d f8bf 5579 f2bd 5bd2 b2bf
000002a0: 7f74 e8bb e676 42be 3b05 0fbf 3e7e b03e
000002b0: 35b6 04be 5f99 2b3e f7eb 3fbf c020 d23d
000002c0: 4a87 073f 5e35 9dbf cbb1 4ebf f505 903e
000002d0: 4c5d 9bbf cace 84be 4881 023f 9e4d f3bf
000002e0: 9f79 b7be 1be6 f1bf a7d6 d8be 8064 113f
000002f0: 4eed be3f 5721 5a3f f554 8a3e 671f f9bf
00000300: 3872 813e c6bd 553e 670b 84bf 44af 863f
00000310: ab68 0f3f e636 8e3f bfe7 13bf dd73 803f
00000320: d311 1ebc a0c5 8bbe 1648 3e3f 9cbd f8bf
00000330: 4ecb 003f 205d 85bf 03f5 af3e f05e 52bd
00000340: bfde 0e3c ea83 13bf d273 a6bf 8af9 67bf
00000350: c63f 77be 442c f83d 4140 e5bf b76e a1be
00000360: 79b3 e1bf 0b67 e5be 84ad 02c0 949b fa3f
00000370: 6e5e a9bf 7e66 d13e a0f6 ee3e 8eb6 f8be
00000380: b6e3 99bf 6d16 bdbe 2d92 b7bf 8c71 21bf
00000390: 4574 d2bf 65b4 8c3f b54b 0a3b 9736 30be
000003a0: 39f9 35bf 49ea 7bbd 5181 963f 5f6f eb3f
000003b0: 79a7 c2be f644 e03e 3b23 cc3f b2ad e1bf
000003c0: 07ec 40bf d2ea e9be 1843 26bd 22fe 07be
000003d0: 2366 0a3f 70af 0640 f74e c3bd 8273 ce3f
000003e0: ddca 01bf b237 80be e752 e2bf 2469 0dc0
000003f0: f341 f0bf 60b7 3a3f 3c8e 8e3f 2717 1e3f
-0.16239172 -1.4652144 -0.50733614 1.0413977 -0.55205214 0.44446993 -1.0937681 -1.1906934
-1.1554531 0.50402343 1.1454687 1.410838 0.5025975 0.7810537 -0.2041022 -0.5111773
-0.17080407 -1.7735364 -0.15207748 2.0963247 -1.3959197 -0.51130867 -1.2440039 -1.9898118
-0.45415494 -0.14375345 -1.0083641 -0.41894996 -0.6666835 0.07261199 -0.1029723 0.32792014
-1.0660901 0.50143105 -1.251033 -1.2735662 0.030014751 0.013737023 0.15460476 -0.6899546
-1.2576898 0.9946136 -1.3977684 -0.47508153 -1.0840629 0.2700278 -0.090455875 -2.0224395
-0.4522721 -0.13306586 0.15432648 0.38267007 -0.39461884 -1.2504203 0.21281253 0.851901
-1.8659987 1.6641828 1.6437384 -0.97243434 0.030636974 -1.4453353 -0.29078487 -1.9529926
0.31706378 -2.576104 -0.578981 -1.3066311 2.2354608 -0.17051362 2.1806004 0.008057097
0.55647 -1.0459226 0.98043394 -0.6889005 -0.25340822 -0.1411779 0.3107915 -0.24808827
0.96115285 0.8262174 0.36248237 -0.8764261 0.82855976 -0.64053243 0.8215488 -0.24051721
0.69365907 -0.5305118 1.7320726 0.34031987 0.452121 -1.5341098 0.33466434 -0.035867624
1.6293832 0.86383784 0.6108305 -0.29656523 -0.21927992 -0.9357097 -0.089080416 0.77831715
2.4345841 0.8715017 -0.5940731 0.69749653 -0.57108396 -0.27444384 2.6911488 0.10163214
-0.9072978 1.7144749 1.2195958 -0.14076234 1.2830662 -0.7305101 0.55170035 0.7330067
-1.1704882 -0.20303033 -0.7887697 -0.18266277 0.018003974 -0.8782044 0.86725116 0.38567832
0.50654423 -1.9181497 -0.35210484 0.8541337 1.0829298 -0.5122594 0.52080274 -0.64427465
1.2698088 -0.87338454 -0.12016071 -0.045282148 0.4930703 -0.6476482 1.9143474 1.7553598
-0.09491281 -0.80775696 -2.7328143 -0.58363616 -1.4952952 -2.2612424 0.655431 1.6537497
-0.46728575 0.28504682 -0.6528279 0.17397377 0.30517638 0.76932 -0.3234157 -0.016157271
-1.3844191 0.48462814 -1.9341007 0.20010848 -0.032642554 -1.9398508 -0.118395485 -1.3970445
-0.0070939655 -0.18990669 -0.55867356 0.34471315 -0.12960131 0.16757725 -0.7496943 0.10260153
0.5294081 -1.2281911 -0.8074004 0.28129545 -1.2137847 -0.25939018 0.5097852 -1.9008062
-0.35834977 -1.8898348 -0.42351267 0.56793976 1.491617 0.8520712 0.27017942 -1.9462708
0.25282454 0.20873174 -1.031598 1.0522237 0.56019086 1.1110504 -0.5777549 1.0035359
-0.009647804 -0.27299213 0.74328744 -1.9432864 0.5031022 -1.0419044 0.34366617 -0.05136007
0.008720099 -0.5762316 -1.3004096 -0.9061514 -0.24145421 0.12117818 -1.7910234 -0.3152978
-1.7632896 -0.44805178 -2.0418406 1.9578729 -1.3231943 0.40898508 0.46672535 -0.48576778
-1.2022617 -0.36931172 -1.4341484 -0.63063884 -1.6441733 1.0992552 0.0021102254 -0.17208324
-0.7108341 -0.06150273 1.1758214 1.8393363 -0.38018396 0.43802613 1.5948251 -1.7631133
-0.7536015 -0.45686966 -0.04059133 -0.13280538 0.540621 2.1044579 -0.09536546 1.6129
-0.5070017 -0.25042492 -1.768155 -2.2095423 -1.8770126 0.7293606 1.1137156 0.6175408

lstm.weight_ih_l0 f4 [8, 2]
00000000: 8843 73bf c1b4 b8be 1ab5 2fbe 9cc4 05bd
00000010: 771c d83e 7678 133e 5295 a93d 76ed f93d
00000020: c38f cdbe 34b7 6cbe 18a0 973d 8da7 023e
00000030: 96f8 c4be d489 10bf 3f78 edbb 03b1 04bf
-0.9502492 -0.36075404 -0.17158929 -0.032658204 0.42209217 0.14401421 0.08280434 0.12203495
-0.40148744 -0.23116761 0.07403582 0.12759228 -0.38470906 -0.5646031 -0.0072470005 -0.518326

lstm.weight_hh_l0 f4 [8, 2]
00000000: f480 463f da69 46bf eb32 5e3f 763a 71bf
00000010: d306 c53e 1607 4dbf 22c9 e93e d6e5 49bf
00000020: 7f3c a93e 181e 5cbf 4073 10bf 95d6 3e3f
00000030: 6193 6b3f c008 31bf a04c a03f 401a 18be
0.77540517 -0.77505267 0.86796445 -0.9422983 0.3848177 -0.8008894 0.45661265 -0.78866327
0.33053967 -0.8598342 -0.5642586 0.74546176 0.9202176 -0.69153976 1.2523384 -0.14853764

lstm.bias_ih_l0 f4 [8]
00000000: 1346 613f ae93 9e3f 3650 903f 32a4 563f
00000010: 0db3 7f3f cd07 1dbf 0721 803f b2d5 dabc
0.8799755 1.2388818 1.1274478 0.8384429 0.99882585 -0.6134003 1.0010079 -0.026713226

lstm.bias_hh_l0 f4 [8]
00000000: 8608 cbbd 7bca 023f 1e92 4d3f 34af bf3e
00000010: f848 2f3e 7fde 42bf 79be 153f 418c 223f
-0.09913735 0.5109021 0.8030108 0.37438357 0.17117679 -0.7612075 0.58493763 0.6349526

fc_out.weight f4 [4309, 2]
00000000: 6012 9dbf 641c 173f 53ee 5dbf 3b9e ce3e
00000010: 8043 55be 25fc be3e 828d a53f ddb1 e0be
00000020: 75cb a93f 3749 9ebf 64cc b83e 7a90 a3be
00000030: 8c2d 9a3e 22f8 34be ffed 2e3f 12b3 46bf
00000040: 9505 8c3e 9c51 17bf 3362 ce3e 8a70 c8bb
00000050: d9b1 463f 5df9 28bd 3ba1 313f 6958 44bf
00000060: a6f4 5a3f 6f7e febe 2357 513f ae86 7abe
00000070: 6bb8 613f 9acd a7bf 105f 333e 4b07 94bf
00000080: 8ae1 e93e 2d6b 1fbf e981 253f 0832 60be
00000090: b8a4 803f a291 5cbf b923 6e3f 5dd4 debd
000000a0: 2379 d23e 9bde 62bf 8c66 473f d8cc b2be
000000b0: 972b b23e bd94 44bf 176c 913e 9375 3ebf
000000c0: f418 793f 976e f1bd e2a8 963d 3c7f 5abf
000000d0: ac4b 853f 3ba6 82bd ef0d 9e3e 59ea 2a3e
000000e0: 3e20 803f 5817 78be 6bf0 7b3e a146 b03d
000000f0: 774d 6cbe afa5 31bf 4862 9b3d dd0b 7abf
00000100: f6ee c63e 2148 1a3e 537e 8b3e 9cfc 07bf
00000110: 0d1e a4be fbec 89bd b95e 5f3f d840 0abf
00000120: 7a58 9dbe cd20 c1be d896 573e 3d14 bbbe
00000130: 2341 6f3c 99ab 88bf 788d 2b3f 4b3b 86bf
00000140: 804d cfbe 3c7f 4cbf 3f83 783d 8e9d acbe
00000150: 49e6 a43d 05a9 7abe fccf 863d 7243 43bf
00000160: 7160 5f3f 43c2 1f3e dfd7 31bd 2a77 493e
00000170: 115a 693f 0b42 cabe 0d33 1cbe 6f18 793e
00000180: 6ffd 2ebe 9b94 54be 0c7d ee3e 97bd 88be
00000190: a162 803e 6d36 80bf 1600 8c3e 32fe 0ebf
000001a0: f020 963e d8bc e2be 1723 a4be 6e58 33be
000001b0: d265 70bd d713 88be c511 f83e 9265 093e
000001c0: 7eaa 023f dbe7 31bf a228 123f 0d6e 243e
000001d0: 72fe 143e a0e3 17bf 5bd2 233f f1a3 42bf
000001e0: 28df b7be bd7e 803d 7423 163f 7dbe da3e
000001f0: 1b54 e53e 5500 4fbf db42 273f f5ac f2be
00000200: b299 463f 2d49 42bc 7181 7fbe 9d33 aebe
00000210: 8fe9 bdbe 6c54 4bbb 5227 6c3f 1fd4 20bf
00000220: af6d f13c dd50 d63e 1cd5 0b3f da48 dbbe
00000230: 06cf f43e 6ef2 73bf 1943 4dbe 2f37 b2be
00000240: 072d 34bd 7554 fdbe b810 fe3e 3fe6 fa3d
00000250: f2ad 0e3f 72cc 2b3e 7e21 dc3d d9e2 293e
00000260: 0190 33be 6ddb 2abf 2945 8d3e f17a d93e
00000270: 21e8 4f3c b67e 523d 30fe aa3e 217b 6a3e
00000280: b444 063f 271d 39bf 903d 2c3f 1c88 7ebd
00000290: 257e e63e 7929 063d 6c54 ca3e 66a7 f23e
000002a0: aaf4 353f 605b 05bb 6d63 1abf 8553 88be
000002b0: bc62 bcbe 01df 9f3e 5f94 ff3e 4db6 d63e
000002c0: 8c73 4abe 9d96 69bf 7d34 4b3f 9fc9 debd
000002d0: 3cce b53e 92a5 ef3e 9f6b 40be fc10 5abc
000002e0: ed2b ef3e e7a1 263e 2ec2 ea3e b5d7 e6be
000002f0: da62 1e3f 1e94 e13e f67a 353e 849f f9be
00000300: 0bea b1bd 841e 213e d241 c43e 375d 603c
00000310: ca1e 3a3c d61f e73e 9f40 b93d 8b6f 99be
00000320: 8acd aabe 0266 3abd 4ca0 32be 442e 98bd
00000330: d5fa f73e 44da 40bf bbc6 fdbe e631 4abf
00000340: 7c9e 65bc e00b 0e3e 274e 63be 0414 46bf
00000350: 8046 9cbe 9cf5 b3be b2af d8be bb6e bbbe
00000360: dd8c 4d3e 868a b83d 9c17 adbe 6195 083e
00000370: aff1 bf3c 5a00 6abe 148e f03e 416d cabe
00000380: 6c66 e03c 1cf2 c53d df55 4cbd b1b3 cfbe
00000390: edbe 0abe 1c09 0e3f 8292 84be d2e5 94be
000003a0: 400c a53e 56dd c63e 44b8 3abb f0a6 95be
000003b0: f764 d93e e255 14be 3443 e93e df4c 58be
000003c0: 5d76 d8be fae3 d6bd c3d3 103f 37e8 143e
000003d0: dbae 7d3d 04ce 593e 71b8 3d3e 8d13 c83d
000003e0: 2743 a43d 8cad f63e 26d7 5e3e 98d5 233f
000003f0: 25c1 85bc 09bc a53e 865a a1bd 2623 32bf
-1.2271233 0.59027696 -0.8669178 0.40355095 -0.2082653 0.37301746 1.293381 -0.438857
1.3265215 -1.2366093 0.36093438 -0.31946164 0.30112875 -0.1767278 0.68331903 -0.7761699
0.2734801 -0.591089 0.40309295 -0.0061169313 0.77615124 -0.041253436 0.69386643 -0.76697403
0.85529554 -0.49705836 0.81773585 -0.24465439 0.88172024 -1.310962 0.17516732 -1.1564726
0.45679885 -0.6227291 0.6465135 -0.21894085 1.0050268 -0.8615972 0.9302326 -0.10880349
0.41108045 -0.8862092 0.7789085 -0.34921908 0.3479888 -0.76789457 0.28402779 -0.74398154
0.973037 -0.117886715 0.073564306 -0.85350394 1.0413718 -0.06379362 0.30870005 0.16690959
1.000984 -0.24227655 0.24603431 0.086072214 -0.23076425 -0.6939344 0.07587105 -0.9767435
0.38854188 0.15066577 0.27244815 -0.53119826 -0.32054177 -0.067346536 0.8725391 -0.54005194
-0.30731565 -0.37720338 0.21053636 -0.36538878 0.014602932 -1.0677367 0.6701274 -1.0486845
-0.40488815 -0.79881644 0.06067204 -0.33713955 0.08051736 -0.24478538 0.065826386 -0.7627479
0.8725653 0.15601449 -0.04341876 0.19674364 0.91153055 -0.39503512 -0.1525385 0.24325727
-0.17088865 -0.20759813 0.46579778 -0.26707146 0.25075248 -1.001661 0.27343816 -0.5585662
0.29322004 -0.442847 -0.3205802 -0.17514202 -0.058690853 -0.26577637 0.48451057 0.13417652
0.510414 -0.6949441 0.5709325 0.16057606 0.14550188 -0.59331703 0.6399285 -0.76031405
-0.35912442 0.062741734 0.5864785 0.42723456 0.4479073 -0.8085988 0.6533639 -0.4739758
0.7757827 -0.011858267 -0.24951722 -0.34023753 -0.37092254 -0.003102566 0.922475 -0.6282367
0.029471247 0.4185857 0.54622054 -0.4282902 0.47814196 -0.95291793 -0.20045127 -0.34807727
-0.043988254 -0.49478498 0.4962213 0.12250947 0.5573417 0.16777208 0.10748576 0.16590442
-0.17535402 -0.6674107 0.27591828 0.4247661 0.012689621 0.051390372 0.33397055 0.22898532
0.5244858 -0.7231011 0.67281437 -0.062141523 0.45018116 0.032754395 0.39517534 0.4739334
0.7107645 -0.0020348653 -0.6030796 -0.2662622 -0.36794078 0.31224826 0.49917886 0.4193596
-0.1977064 -0.9124544 0.79376966 -0.108783 0.35508907 0.46806008 -0.18791054 -0.013309713
0.467132 0.16272698 0.45851272 -0.45086446 0.61869586 0.44058317 0.17722687 -0.48754513
-0.08687218 0.15734297 0.38331467 0.013694099 0.01135988 0.45141476 0.090455286 -0.29967913
-0.3335994 -0.04550744 -0.17443961 -0.074306995 0.48433557 -0.75333047 -0.49565682 -0.7898239
-0.014014836 0.13871717 -0.22197782 -0.7737429 -0.30522537 -0.35148323 -0.42321545 -0.36607918
0.20073266 0.09010796 -0.33807075 0.13338234 0.023430673 -0.22851697 0.46983397 -0.3953648
0.027392589 0.09665319 -0.04988658 -0.4056678 -0.13549395 0.5548265 -0.25893027 -0.2908159
0.32235909 0.3884074 -0.0028491179 -0.29228926 0.42459843 -0.14485887 0.45559084 -0.21123074
-0.42277804 -0.10492702 0.5657312 0.14541708 0.061934333 0.21269995 0.1852739 0.09769354
0.08020621 0.4817928 0.2176176 0.63997793 -0.01632745 0.32370022 -0.07878594 -0.6958488

fc_out.bias f4 [4309]
00000000: a825 50bc c7a6 47bf 064c 52bf 472b 8b3f
00000010: 2a32 103f 622e 633f 2ce9 633e b4ef 353f
00000020: a67d 493e 73bd 063f 374e e23e d2c3 623f
00000030: 9305 323e c66e c13e 3b0e b33e c793 7f3e
00000040: 8d78 573f 630a 0e3f 6163 893e 0139 833f
00000050: e9d8 5e3f e832 593f 2936 f23d f2cb 463e
00000060: 738c 4f3f 42c0 8bbe 03a2 42bd a065 04bd
00000070: ad94 fe3e c5a8 873e 7f16 d13c 46c0 0e3e
00000080: 219a a6be 5ece 0d3f c90e 363f 2827 a43e
00000090: f2a9 203f 3d19 583f 60e2 fc3e d38a 8a3e
000000a0: fe8b 50be 20e2 0a3d 07d0 69be 5293 443f
000000b0: 9868 96be cc15 19be 2b6e 273f 6a1e a53e
000000c0: a49b 553f 6fc7 103e 63f1 823e 3117 553e
000000d0: 327c d83e 417f d03e 34ad 1c3f 4cf7 82bd
000000e0: c65e 373f e642 9abe e292 143f 3fcc 333f
000000f0: c3e8 b2be 0471 e93d e7c8 243f 60cc 5f3e
00000100: 4c22 293f e84b ce3e 58f4 5339 c16d 073e
00000110: ea06 273f 7c89 80bd eb0e a4be 9f21 d23e
00000120: 656b c3be b12b 463f 2d45 9c3e adbf 853e
00000130: c038 4d3f 7d1c 643f a05e 3cbe 7bc9 553f
00000140: b8e7 a93d 952f 7c3e 078c 2d3f c4ae 3bbe
00000150: 0c53 403f f6f6 d2bd 738e 063e fd52 4bbe
00000160: 2e42 7abe 8828 70bc a5dc eb3e 072f df3e
00000170: 25e1 68be 886e 8bbd db2d b3be 31b9 153f
00000180: ca6a cbbd 6025 353f 7082 833e 8b91 52be
00000190: 9642 f53e 9ac9 803e 3ada a6be a76f 273e
000001a0: 46bd eb3e cb7b da3c ad3a d4be 77df a8be
000001b0: eba0 5dbe 4a54 213f 403d a83e bd14 0b3f
000001c0: 13fc fa3e e537 08bf fe0c 903e 4587 88bb
000001d0: 2f20 06be 4699 9ebd cbbc efbe cf76 a3be
000001e0: 2060 fa3e 40c3 883e df56 f13e 0e5a 91be
000001f0: 3b8b cf3e 4091 6d3e 2d6f 2e3f ea6f a0be
00000200: 0a42 953e 5509 b13e e00c bbbe d8f6 4e3e
00000210: 1d64 f93e 61a6 33be 7050 893e bd19 7bbe
00000220: 2759 953d f224 353f 9bbe ca3e ca12 733d
00000230: ad6d 033f 75e8 cb3e 8d6b 633e 15fd 4a3d
00000240: 5873 9b3e 314b b13d 4bc3 a9be b043 c2be
00000250: 046b 333f 957e 763e f65d 06bf 2a28 9c3e
00000260: 5853 123f 7d32 28bd 6a87 0a3f 10bd fd3d
00000270: 89bd 183e 5aba bbbe 4f73 85be 3a81 0cbf
00000280: 4abc cabe 12ca 36bd 2d62 7dbd 7dcd 273f
00000290: b4d3 0ebf 0b21 263f 2ce3 eabe 1c56 5b3e
000002a0: 6e50 cebe 3730 1bbd 72e3 94be 8c18 adbe
000002b0: ee39 08bf eceb b9be 90f6 c0bb c4c0 59be
000002c0: 8cd6 0ebf 03bc 643e 48f8 adbe b50e 16be
000002d0: 8000 0bbf 35e4 bd3e a1d4 55be e318 3bbe
000002e0: 6cb6 9ebb 9f05 50be 589a 0dbe 29a3 ffbb
000002f0: 6888 353f ae5c 0dbd f1cc 12bf b2b9 72bd
00000300: da89 22be 4a91 053f a310 393d 66f9 02bf
00000310: 37b8 85bd 4e5d 083f af7e bbbe 7f92 d93e
00000320: 3593 85be 8146 bf3e 1c29 c9be 66ac f53c
00000330: c1af b6be c6a3 e2bd f044 5f3d 90b5 a2be
00000340: 18af cd3e 7054 23be 150d 1a3f 7790 4cbe
00000350: d68e 533e 179e 10bf cbc6 debd 6d9f 3b3f
00000360: d9f8 32bd 02e2 9ebe 3616 103f 122d 093f
00000370: facb dabe 98d5 c5be bdc9 063f 69f6 953d
00000380: 0cb0 853e c502 08be 26ba e43e 07c6 3f3e
00000390: 243c f53d d9ac c9be 934e 86be 14c0 d93e
000003a0: be85 df3e 22d0 c73d df18 113f f892 dfbe
000003b0: 797e 083f 46f1 ad3e e5c8 bbbe 5b46 d6be
000003c0: 67fe bebe 8fe6 d2bd c160 dbbe 0631 3fbe
000003d0: a3fd 2d3e cd9c fd3e 950e e0be 0930 0c3f
000003e0: a866 eebe cb50 26bd ae34 533e 3d7e 14bf
000003f0: 8f12 a8be c365 05be 43ed 803e 907f a23d
-0.01270429 -0.7798886 -0.8214725 1.0872582 0.56326544 0.8874265 0.22256917 0.7106888
0.19676837 0.52632827 0.44200298 0.8858005 0.17384939 0.37779826 0.34971794 0.24958716
0.8416832 0.554846 0.26833633 1.0251771 0.8704973 0.848433 0.118267365 0.19413736
0.81073684 -0.2729512 -0.047517788 -0.03232348 0.49722806 0.26495948 0.025523422 0.13940534
-0.32539466 0.55393016 0.7111631 0.32061124 0.62759316 0.8441351 0.4939146 0.2705904
-0.20365903 0.033907056 -0.22833262 0.7678729 -0.29376674 -0.14949721 0.6540248 0.32249767
0.83440614 0.14138578 0.25574788 0.20809628 0.42282254 0.40722087 0.61201787 -0.063948244
0.7162899 -0.30129164 0.58036625 0.7023353 -0.34943208 0.11398509 0.6436905 0.21855307
0.6606796 0.40292287 0.00020213553 0.13225462 0.65244925 -0.06276223 -0.32042632 0.41041276
-0.38167873 0.7741042 0.30521527 0.261228 0.8016472 0.8910597 -0.18395472 0.8351056
0.0829615 0.24627526 0.6779179 -0.18328387 0.7512672 -0.1030101 0.13140278 -0.19855876
-0.24439308 -0.014658101 0.46066776 0.43590567 -0.22742136 -0.068081915 -0.34995922 0.58485705
-0.09932478 0.70760155 0.25685453 -0.20563333 0.47902364 0.2515381 -0.3258837 0.16351186
0.46042842 0.026670357 -0.41451016 -0.3298299 -0.21643417 0.6301924 0.3285923 0.5432852
0.49020442 -0.5321029 0.28134912 -0.004166516 -0.13098215 -0.07744078 -0.46823725 -0.3192658
0.48901463 0.26711464 0.4713659 -0.2838902 0.40535912 0.2319994 0.6813839 -0.31335384
0.29151946 0.34577432 -0.3653326 0.20211351 0.48709193 -0.17543937 0.2681918 -0.24521537
0.07292395 0.707595 0.39598545 0.05934409 0.51339227 0.39825788 0.22208996 0.049557764
0.30361438 0.0865692 -0.3315681 -0.37942266 0.7008517 0.24071725 -0.52487123 0.30499393
0.5715842 -0.041063774 0.54112875 0.123895764 0.14916052 -0.36665612 -0.26064536 -0.54884684
-0.39596778 -0.044626303 -0.061861206 0.65547925 -0.55791783 0.6489417 -0.45876443 0.21419567
-0.40295738 -0.037887778 -0.29079777 -0.3380779 -0.53213394 -0.36312807 -0.0058887675 -0.2126494
-0.5579612 0.22337346 -0.33978486 -0.14654048 -0.5429764 0.3708817 -0.20881893 -0.18271212
-0.0048435237 -0.20314644 -0.13828409 -0.0078014326 0.70911264 -0.034512214 -0.57343966 -0.059259124
-0.15872899 0.5217482 0.04518188 -0.511618 -0.06529277 0.5326737 -0.3662009 0.4249458
-0.26088873 0.37358478 -0.39289176 0.029989433 -0.35680965 -0.110663936 0.054509103 -0.31779146
0.40172648 -0.15950179 0.6017621 -0.19976984 0.20659956 -0.56491226 -0.108777605 0.7329014
-0.04369435 -0.31031805 0.5628389 0.53584397 -0.42733747 -0.38639522 0.5265158 0.0732239
0.26110876 -0.13282306 0.4467327 0.18727885 0.119743615 -0.39389685 -0.26231822 0.42529356
0.43656725 0.09756495 0.56678575 -0.43666816 0.5331798 0.3397314 -0.36676708 -0.41850552
-0.3730347 -0.10297882 -0.42847255 -0.18671045 0.16991286 0.49533692 -0.43761125 0.54760796
-0.46562696 -0.040604394 0.20625564 -0.58005124 -0.3282666 -0.130271 0.25181016 0.07934487
