experiments/lstm_h2_l1_20241123_205854/final_model.pth (torch, 311280 bytes, 7 tensors)

embedding.weight f4 [15345, 2]
000000 ee 30 07 3f 3d 74 78 bf 03 83 ce 3f 37 a0 d0 3f
       0.52809036 -0.97052366 1.6133732 1.6298894
000010 e2 4b 3d 3e e6 b2 01 3e d4 db 0f bf 77 1e 4b 3e
       0.18485978 0.126659 -0.56194806 0.1983584
000020 aa be 50 c0 15 dc 08 bf d5 45 e0 bf 1d 52 0d c0
       -3.2616372 -0.5346082 -1.7521311 -2.2081368
000030 2f 57 eb bc da 45 29 c0 44 f9 39 c0 80 63 a2 3e
       -0.028728096 -2.6448884 -2.905839 0.31716537
000040 71 94 0e c0 42 1f fc 3e 9e 62 e8 bf e0 e7 19 c0
       -2.2278101 0.49242598 -1.8155096 -2.4047775
000050 28 21 72 bf 6c 1e 39 c0 97 91 0c c0 e9 f5 ac bf
       -0.9458184 -2.8924818 -2.196386 -1.3512546
000060 11 9d 9d bf 16 c1 10 c0 8f f1 d2 bf 0e 11 bb bf
       -1.2313558 -2.261785 -1.6479968 -1.461458
000070 56 49 14 c0 37 27 ef bf c4 e0 45 be e8 e7 32 c0
       -2.316976 -1.8683842 -0.19324023 -2.7954044
000080 51 4a 81 3c ed df 40 40 7b 7c b6 bf 80 a1 a9 3f
       0.015782507 3.0136673 -1.4256738 1.3252411
000090 de da db be 19 11 d3 be 59 76 1f c0 1d 79 02 bf
       -0.4294042 -0.41223982 -2.4915984 -0.50966054
0000a0 e6 eb f9 bf ec ba 04 c0 ec b2 eb bf b7 e9 27 bf
       -1.9525115 -2.0739088 -1.8413978 -0.65590996
0000b0 3f 8a 53 bf 6a 23 15 c0 bd 6c 8e be 08 d6 3f 40
       -0.8263282 -2.3302865 -0.27817336 2.9974384
0000c0 b7 17 47 bf 3b eb 3e 3f ff 12 b1 ba 81 3b 2c bf
       -0.7777056 0.74577683 -0.001350969 -0.67278296
0000d0 a1 7c 0c c0 9c 3c 97 bf 3d e6 0e c0 d9 d9 a2 3e
       -2.1951067 -1.1815372 -2.2328026 0.3180683
0000e0 fc 83 0b c0 24 60 78 bf 90 16 f6 bf cd 75 85 bf
       -2.1799307 -0.970217 -1.9225636 -1.0426575
0000f0 80 2d c0 bf fe a2 0a c0 ce a9 07 c0 4b 50 0c c0
       -1.5013885 -2.1661983 -2.119739 -2.1924007
000100 c2 eb 72 c0 dc 41 12 bf fd 64 62 bf 47 ef 82 3f
       -3.7956395 -0.57131743 -0.88435346 1.0229272
000110 f5 5a 7a bf c4 f8 1a c0 1a cf f7 bf 74 e1 a7 3f
       -0.9779504 -2.4214334 -1.9360077 1.3115678
000120 5f 9e 34 bf 61 3c a1 be c6 e7 47 c0 2f 37 78 bf
       -0.70554155 -0.31491378 -3.1235213 -0.96959203
000130 d8 a6 ff bf 35 c9 0e c0 18 b0 6c bf b4 12 cb bf
       -1.9972792 -2.2310307 -0.924562 -1.5865083
000140 d5 bc d7 bf fc d3 05 c0 7d 34 44 bf 83 ea 42 c0
       -1.6854502 -2.0910635 -0.7664259 -3.0455635
000150 19 2d 84 be 13 9e 33 c0 56 f2 3e bf 65 1e d5 3e
       -0.25815657 -2.806523 -0.74588525 0.41624752
000160 9f ec 39 bf 06 97 c2 be fd 8a 75 bf ba b5 d3 bf
       -0.7262668 -0.38005847 -0.95915204 -1.6539834
000170 a9 17 b9 bf 22 a5 0c 3f 3f 83 c8 bf 80 7e 13 40
       -1.4460346 0.5493947 -1.5665053 2.304596
000180 4c f2 48 bf b2 28 28 3e 8f e8 91 bf 69 6f 88 3f
       -0.78494716 0.16421774 -1.1399096 1.0659
000190 96 50 c7 bf 33 7b d5 3f 62 9c a7 bf bd cf 77 bf
       -1.5571468 1.6678222 -1.3094599 -0.9680136
0001a0 eb 27 ab bf c3 4a eb be df 81 b2 bf e2 3f 15 c0
       -1.3371557 -0.45955476 -1.3945884 -2.332024
0001b0 e9 aa ba bf 96 c0 ce bd 8c 57 ee bf 40 3b ed bf
       -1.4583408 -0.100953266 -1.8620467 -1.8533707
0001c0 99 eb 3a bf d0 04 84 3e 24 4a 47 3e 71 f4 20 3e
       -0.73015743 0.25784922 0.19461876 0.15718247
0001d0 38 ec 30 be 95 32 3c c0 d9 a5 58 c0 82 b7 e3 3f
       -0.1727761 -2.9405873 -3.3851225 1.7790377
0001e0 28 28 97 3e 8e 45 c0 3f d3 a3 1d c0 4e 98 50 bd
       0.29522824 1.5021226 -2.463124 -0.0509265
0001f0 96 55 e5 be 33 35 4e 3f f4 ac e9 bf e8 3d a2 bf
       -0.4479186 0.80549926 -1.8255906 -1.2675142
000200 6a 51 94 3e d2 7b 33 be b3 3a 08 bf fd e8 56 bd
       0.28968364 -0.17527702 -0.5321457 -0.05246829
000210 d6 3e 2e bf 99 a5 f1 bf b3 63 d0 bd f2 94 f6 bf
       -0.6806463 -1.8878661 -0.10175266 -1.9264205
000220 7e 92 08 3f 14 06 a4 3f a2 bd f3 bf 2f e5 80 3f
       0.5334853 1.2814355 -1.9042246 1.0069941
000230 b9 e3 bc bf c0 53 b1 3f 77 18 d6 be f5 11 d9 bf
       -1.4756995 1.3853683 -0.4181554 -1.6958605
000240 41 55 a8 be 67 52 07 3f 69 39 28 c0 54 cd 22 bf
       -0.32877544 0.5286011 -2.628504 -0.63594556
000250 15 3a b1 bf 6e 8e fb be ef 72 f8 bf e3 ac a6 3e
       -1.384585 -0.49132103 -1.9410075 0.32553777
000260 0e 2d ae bf 6e b5 23 3f ff ef bc bf 4a ab 2a be
       -1.36075 0.63948715 -1.4760741 -0.16666904
000270 f7 75 8e bf 67 70 1e c0 1b 22 6d 3f 40 bc 96 3f
       -1.112975 -2.4756105 0.92630166 1.1776199
000280 ae 03 13 bf fc 62 db 3f c7 ef a8 bf 30 66 a4 3f
       -0.5742749 1.7139583 -1.3198174 1.2843685
000290 b7 a7 83 3c 12 b0 0a 40 fb 8f 15 3f c2 00 e5 3e
       0.016071184 2.1669965 0.5842282 0.4472714
0002a0 d8 82 0d 3e e9 d8 41 c0 9a 26 d0 3e 52 81 96 3f
       0.13819444 -3.0288641 0.4065445 1.1758215
0002b0 a8 57 b9 bf 30 6e 04 3f 46 15 0b 3f 3e 58 88 bf
       -1.4479876 0.5173063 0.54329336 -1.0651929
0002c0 56 68 0b c0 e8 a4 43 be aa a9 a4 bf 3b 06 7d bf
       -2.1782432 -0.19105875 -1.2864277 -0.9883763
0002d0 16 d2 88 bf 2b 7f cf 3f 3c 89 d2 be 39 6c 04 3f
       -1.0689113 1.6210684 -0.41120327 0.51727635
0002e0 bd 0d 76 be 3f 1e 52 3f 24 e0 ff 3e 62 dc aa be
       -0.24028678 0.820774 0.49975693 -0.33371264
0002f0 2f 17 a6 3e 6f 22 e7 3f 5a 14 03 bf 62 d9 d1 bf
       0.32439563 1.8057383 -0.5120293 -1.6394465
000300 88 b8 d8 bf b0 9b e4 bf 19 99 6f 3f 8f 69 36 3f
       -1.6931314 -1.7860012 0.93592983 0.7125482
000310 d6 9f 3f c0 7d d1 5c 3f c7 ef a6 3f b4 c0 11 3f
       -2.9941306 0.86257154 1.3041924 0.56934667
000320 15 3e 7f bf d7 32 69 bf 4f bb fc 3e fb 91 4f 3f
       -0.99704105 -0.910932 0.49361655 0.81082124
000330 b4 84 39 bf 8a a2 5a bf 49 9d 13 3f 93 42 10 be
       -0.72468114 -0.85404265 0.57661873 -0.14087896
000340 5c ca 41 3d d2 a6 c9 bc 02 54 00 c0 b6 60 a7 3e
       0.047312126 -0.024615679 -2.0051274 0.32690972
000350 bf 0a ea bf ae fd 66 3e f2 20 20 bf fa 89 01 bf
       -1.828453 0.22557709 -0.6255027 -0.5060116
000360 59 b1 4a bf bc 50 07 3f 98 5c 2e bf 07 f6 ba 3f
       -0.7917686 0.52857566 -0.68110037 1.4606332
000370 c8 34 a4 bf 30 b1 63 bf fb a5 3b bf 35 66 77 3f
       -1.2828608 -0.8894224 -0.7330014 0.9664033
000380 03 5c a0 3e df 55 d2 be 45 d9 26 c0 ca 47 7a 3f
       0.313202 -0.4108114 -2.607011 0.9776579
000390 05 32 7f bf 5e 2b 0a bf cf 04 5b be ea 09 8c bf
       -0.996857 -0.53972423 -0.21388553 -1.0940526
0003a0 f4 45 13 bf 16 90 96 3f a8 6a 32 bf b6 f9 12 3f
       -0.57528615 1.1762722 -0.69693995 0.5741228
0003b0 47 4b 88 bf 1d 9f 64 3e e7 db 80 be f2 ee b4 3e
       -1.0647973 0.22326322 -0.25167772 0.3533855
0003c0 2c 0d ed be 84 76 6c 3f 77 c6 70 3f 51 90 f2 3e
       -0.46299112 0.9236834 0.94052833 0.4737573
0003d0 45 21 06 c0 a3 d2 a9 3d 61 9b ab 3d 20 38 ef bf
       -2.0957806 0.08292129 0.083792455 -1.8689003
0003e0 2e c9 07 c0 4b a6 a8 bf d9 0b b1 3d a7 52 3a c0
       -2.121654 -1.3175749 0.08644838 -2.9112947
0003f0 23 ef 1b c0 d3 d4 53 bf 06 c6 85 bf f8 ad 8a bf
       -2.4364707 -0.8274662 -1.0451057 -1.0834341

lstm.weight_ih_l0 f4 [8, 2]
000000 b9 b9 1e bc 59 25 62 3f 6a b5 03 3f 69 81 c0 3f
       -0.009687834 0.8833824 0.5144869 1.5039493
000010 90 35 51 3f d7 a6 cf 3f ee ae a6 3f bf 2d 10 40
       0.81722355 1.622279 1.3022134 2.2527921
000020 2d 0c f2 bc 4f 7a c6 be 49 ef a9 be 1d 8a 4c bf
       -0.029546821 -0.3876519 -0.33190373 -0.79898244
000030 db a6 e9 3d 75 ec 87 3f e1 14 19 3f 97 6e c5 3f
       0.11408778 1.0619036 0.59797484 1.5424374

lstm.weight_hh_l0 f4 [8, 2]
000000 d4 49 8e 3e 02 e9 c2 be 62 4e 0b 3f ed 5d c9 be
       0.277907 -0.38068396 0.5441648 -0.39329472
000010 d1 05 92 3f b6 78 6a 3f 6f 02 90 bd 69 c9 f4 3e
       1.1408025 0.9159044 -0.07031714 0.47809914
000020 32 26 41 3f 00 63 07 3d 47 3e cf be ef 19 0e 3d
       0.75448906 0.033053398 -0.404772 0.0346927
000030 41 30 d9 be 7c 92 96 bf 6a 64 7a bf 0f f2 13 bf
       -0.42419627 -1.1763453 -0.9780947 -0.5779123

lstm.bias_ih_l0 f4 [8]
000000 4c de 4a 40 b3 ad 00 40 d2 e3 8e bf 60 16 54 be
       3.169818 2.0106018 -1.1163275 -0.2071166
000010 e3 22 fb bf 4d 21 a6 bf c9 8e 0c 40 d2 b6 0c 40
       -1.9620022 -1.2978913 2.196215 2.1986585

lstm.bias_hh_l0 f4 [8]
000000 e8 99 21 40 87 8b 10 40 5b 5c 97 be b1 ac 98 be
       2.5250187 2.258516 -0.2956265 -0.29819253
000010 bd 70 c5 bf 58 99 a6 bf e3 f6 43 40 54 ee 13 40
       -1.542503 -1.3015547 3.0619438 2.3114214

fc_out.weight f4 [15345, 2]
000000 5d 8f 66 40 4c 0e 35 40 f3 9b 4f 40 0e ef 69 40
       3.6025002 2.8289976 3.2438934 3.6552157
000010 2a 17 78 40 4c 6c 24 40 8c df 49 bf 84 ac df be
       3.8764138 2.56911 -0.7885673 -0.43686306
000020 bb c2 4a c0 06 17 40 c0 29 4f 3d c0 e6 cb 2a c0
       -3.1681354 -3.0014052 -2.9579566 -2.668695
000030 78 79 ed bf 01 7b 57 c0 81 d2 fd bf 98 e5 54 c0
       -1.8552694 -3.3668826 -1.9829866 -3.3265133
000040 ef 8d 31 c0 e5 51 20 c0 7e d9 0a c0 09 e6 3e c0
       -2.774288 -2.5049984 -2.1695247 -2.9827902
000050 7c 88 1b c0 c1 b5 30 c0 ce f6 21 c0 1c ac 23 c0
       -2.4302053 -2.7610934 -2.5306888 -2.5573797
000060 80 76 e5 bf 6e 8c 3a c0 54 bc 17 c0 68 0b 22 c0
       -1.7926788 -2.9148211 -2.3708696 -2.5319462
000070 72 84 02 c0 2f 08 17 c0 5c 10 f0 bf af c2 12 c0
       -2.0393338 -2.3598745 -1.8754992 -2.2931325
000080 13 db 13 c0 a3 06 23 c0 e5 23 f6 bf a7 b7 12 c0
       -2.3102462 -2.54728 -1.9229704 -2.2924592
000090 92 61 21 c0 88 35 ee bf 23 70 0e c0 46 7e 20 c0
       -2.5215802 -1.8610086 -2.2255943 -2.507707
0000a0 86 dc 0d c0 a7 9c d0 bf 2a 0d ce bf df 50 00 c0
       -2.2165847 -1.6297807 -1.6097767 -2.004936
0000b0 a8 bd f9 bf 00 6e e9 bf 0a c6 ec bf 57 46 20 c0
       -1.9511003 -1.8236694 -1.8497937 -2.5042932
0000c0 81 99 06 c0 ab 02 0c c0 87 e1 b5 bf b2 97 08 c0
       -2.1031191 -2.1876628 -1.420945 -2.1342587
0000d0 8a b1 1c c0 e3 9c d2 bf 59 7e dd bf 7f 7e f3 bf
       -2.4483361 -1.6454128 -1.7304183 -1.9022979
0000e0 85 8f 18 c0 2f 42 d5 bf 9a bb fa bf f1 f2 b9 bf
       -2.3837597 -1.6660823 -1.9588501 -1.4527265
0000f0 0a 00 0d c0 3e 83 e1 bf 7f 7d 9b bf a9 a4 00 c0
       -2.2031274 -1.7618177 -1.2147673 -2.01005
000100 f4 47 de bf c9 4f 12 c0 f7 28 94 bf 71 e6 09 c0
       -1.7365708 -2.2861197 -1.1575001 -2.15469
000110 d6 09 e9 bf 06 5f c5 bf 1d 28 e3 bf 70 4e e6 bf
       -1.8206127 -1.5419624 -1.7746617 -1.7992687
000120 5e 03 f4 bf 40 12 b9 bf 39 0e ce bf dd ef e9 bf
       -1.9063528 -1.4458694 -1.609809 -1.8276325
000130 b7 33 a8 bf ce 3f cc bf 81 c9 af bf 5c 13 bb bf
       -1.3140782 -1.5956972 -1.3733369 -1.4615283
000140 8d 24 ae bf a8 ad a6 bf dd 85 21 bf 66 08 0b c0
       -1.3604904 -1.3021746 -0.63094884 -2.1723876
000150 8a 96 8d bf cd ba 1c c0 d5 7c c1 bf 78 16 6a bf
       -1.1061566 -2.4489014 -1.5116221 -0.91440535
000160 a2 83 92 bf 15 ac 06 c0 e3 ac c0 bf ba 07 be bf
       -1.1446421 -2.104253 -1.5052761 -1.4846108
000170 76 bd f2 bf aa d6 90 bf 23 65 79 bf c0 1b e8 bf
       -1.8964069 -1.131551 -0.9741995 -1.8133469
000180 a7 fa c0 bf c5 82 ee bf d2 4e d9 bf 4c 80 7b bf
       -1.5076493 -1.8633658 -1.6977179 -0.9824264
000190 b9 c9 3e bf 87 0c d7 bf 0b 43 91 bf 1e 76 02 c0
       -0.74526554 -1.6800698 -1.1348585 -2.0384593
0001a0 9a 3e 7d bf 27 b5 dd bf 43 56 99 bf c4 74 9e bf
       -0.9892365 -1.7320908 -1.197945 -1.2379384
0001b0 db a6 b5 bf 4d 3d 74 bf be 03 9a bf 12 92 85 bf
       -1.4191545 -0.9540604 -1.2032392 -1.0435202
0001c0 5c dd 8b bf 1b f8 e6 bf 79 3a ba bf da 4e 55 bf
       -1.0926929 -1.8044466 -1.4549094 -0.8332344
0001d0 7d 6c a1 bf 24 51 d7 bf 9c 95 8e bf fd 1b 95 bf
       -1.2611233 -1.6821637 -1.1139407 -1.1649166
0001e0 00 3d 80 bf a2 a1 d4 bf 65 43 bc bf 28 23 88 bf
       -1.0018616 -1.6611826 -1.4708067 -1.0635729
0001f0 11 2a a3 bf 57 e7 42 be 3f 3e b1 bf 67 35 c3 bf
       -1.2747213 -0.19033562 -1.3847121 -1.5250672
000200 29 b3 57 bf 7d 56 87 bf 63 84 74 bf 78 c3 05 c0
       -0.8425775 -1.0573269 -0.95514506 -2.0900555
000210 49 8f 86 bf 44 c5 a2 bf 88 12 c2 bf 6e ac b1 bf
       -1.0512477 -1.2716451 -1.5161905 -1.3880746
000220 45 db 9a bf 17 a9 a3 bf a1 74 af bf 17 49 03 bf
       -1.2098166 -1.2785977 -1.3707467 -0.512834
000230 d6 fb d2 bf 03 34 90 bf a8 e5 5d bf 67 3c cc bf
       -1.6483104 -1.1265873 -0.8667855 -1.5955933
000240 8e 34 8d bf fb 3c 72 bf d0 17 81 bf 91 f2 99 bf
       -1.1031663 -0.946243 -1.0085392 -1.202715
000250 08 b9 ed bf 5f fa 71 bf c4 50 82 bf b2 e7 91 bf
       -1.8572092 -0.9452266 -1.0180898 -1.1398833
000260 c7 4f b7 be 8b 17 d5 bf 05 27 eb be 20 f2 78 bf
       -0.35803053 -1.664781 -0.45928207 -0.97244453
000270 23 b8 0f bf 25 82 54 bf 2c fc 93 bf a3 ec bf bf
       -0.56140345 -0.83011085 -1.1561332 -1.4994091
000280 b0 47 9f bf b4 ce 94 3e 98 6a 19 bf 16 46 60 bf
       -1.2443752 0.29063952 -0.59928274 -0.8760694
000290 0e 80 49 bf de 8f ca bf 2f e7 30 bf 2f 46 a9 bf
       -0.7871102 -1.5825155 -0.6910276 -1.3224543
0002a0 84 87 85 bf 38 3b f5 bf 4a 65 b0 be 5f ae 7a bf
       -1.0431981 -1.9158697 -0.34452277 -0.9792232
0002b0 74 90 48 bf 0d dc 80 bf 69 c2 89 bf 3c c8 9a bf
       -0.7834542 -1.0067154 -1.0762454 -1.2092357
0002c0 6a f2 c5 bf 5d 9a 31 bf f1 b4 b6 bf 06 04 8c 3e
       -1.5464604 -0.69376165 -1.4273969 0.2734682
0002d0 3d 95 80 bf a9 f7 7b bf 45 ae 6e bf aa ea b0 bd
       -1.0045544 -0.98424774 -0.93234664 -0.086385086
0002e0 56 48 91 bf f6 8c 80 bf 56 c7 a4 bf d3 7c 75 bf
       -1.13502 -1.0043018 -1.2873333 -0.9589359
0002f0 cf 9d b4 bf 78 27 27 bf cb c7 72 bf ee f8 6c bf
       -1.4110659 -0.652946 -0.9483611 -0.92567337
000300 08 4e 8b bf 02 7c f9 bd 5b ee fe be 46 ee 3a bf
       -1.0883188 -0.12181856 -0.49791226 -0.73019826
000310 34 dd 0f be 00 a9 74 bf 89 a4 92 bf 9a 06 82 bf
       -0.14049226 -0.95570374 -1.1456462 -1.0158265
000320 c2 d3 8e bf 30 80 a1 bf 33 2b 9d bf de 54 9e bc
       -1.1158373 -1.2617245 -1.2278808 -0.019327577
000330 01 d1 80 bf b6 38 3d bf 1c 0e 3f bf cc 7c 80 bf
       -1.0063783 -0.7391466 -0.74630904 -1.0038085
000340 ba 1a f6 be 82 63 79 bf 18 ca 5f bf 28 e1 a7 be
       -0.48067266 -0.9741746 -0.87417746 -0.32788968
000350 d0 61 ad be 89 2f a5 bf 27 ae 84 bf 53 ae 43 3e
       -0.33863688 -1.2905132 -1.0365647 0.19109468
000360 22 d4 91 bf d8 b3 9a bf ca be c2 bf 68 ce 5f bf
       -1.1392863 -1.2086134 -1.5214474 -0.87424326
000370 d3 1b 42 bf a2 0b 2b bf 18 92 5f bf 47 6f 74 bf
       -0.75823706 -0.66814625 -0.87332296 -0.95482296
000380 6d 4e 7a bf 14 48 a5 bf a3 d1 c2 be 42 4c ae 3e
       -0.9777592 -1.2912621 -0.38050565 0.34042555
000390 ae 36 2f bf f6 27 1d bf da b0 53 bf 5c 7d 82 be
       -0.6844281 -0.613891 -0.8269173 -0.25486267
0003a0 b8 21 7a bf be 6c f6 3e 3b 87 8e bf 49 4b 9d bf
       -0.977077 0.4812984 -1.1135019 -1.22886
0003b0 a9 8d 1a bf 53 90 19 bf 2b e5 b8 be fc 83 ca bf
       -0.60372406 -0.59985846 -0.3611234 -1.5821528
0003c0 e1 99 d6 be d9 d3 05 bf 9b 3b 3d bf 65 87 54 bf
       -0.41914275 -0.5227638 -0.73919076 -0.83019096
0003d0 60 18 66 bf 2d 19 ae bf ce b3 64 bf 27 37 7d bf
       -0.89880943 -1.3601433 -0.8933686 -0.9891228
0003e0 8d 40 82 bf 73 cd 49 bf 80 e0 da be b2 00 d0 bf
       -1.0175949 -0.78829116 -0.42749405 -1.6250212
0003f0 8b d8 b7 bf 4f 79 34 bf 0e 1e 2e bf 87 9e 85 bf
       -1.4362959 -0.704976 -0.6801461 -1.0439004

fc_out.bias f4 [15345]
000000 6a a0 26 c0 09 68 0c c0 54 f7 09 c0 da ca 77 3f
       -2.603541 -2.1938498 -2.1557207 0.967939
000010 14 a1 03 40 24 90 ed 3f 81 08 00 40 0a cf e0 3f
       2.0567064 1.8559613 2.000519 1.7563183
000020 12 e9 d3 3f b0 7d ea 3f c5 1a d0 3f 05 dd c6 3f
       1.6555502 1.8319607 1.625817 1.55362
000030 18 c9 d5 3f 97 ba b9 3f b9 42 ea 3f 91 ef e0 3f
       1.6701994 1.4510068 1.8301612 1.757311
000040 66 95 9a 3f 42 eb d1 3f cc d6 c1 3f d5 0d 9d 3f
       1.2076843 1.639992 1.5143676 1.2269846
000050 28 ad e0 3f 99 87 fa 3f 16 bc d3 3f f0 ac 9c 3f
       1.7552843 1.9572631 1.6541774 1.2240276
000060 7a f5 a9 3f 94 a2 e6 3f 57 85 9f 3f 78 69 c8 3f
       1.3278039 1.8018365 1.2462567 1.5657187
000070 34 6b 90 3f b6 ad c2 3f be 09 8c 3f b3 3d d2 3f
       1.1282716 1.5209262 1.0940473 1.6425079
000080 2a a2 83 3f 53 4d b7 3f f4 8d 9d 3f aa 26 8c 3f
       1.0283864 1.4320472 1.2308946 1.0949299
000090 04 23 9a 3f b8 7b 91 3f 91 9d bc 3f a4 d9 b3 3f
       1.2041936 1.1365881 1.4735585 1.4050794
0000a0 3a eb be 3f e2 5c bf 3f 2f 85 6e 3f 0e d2 cb 3f
       1.4915535 1.495022 0.9317197 1.5923479
0000b0 29 3e 81 3f 42 63 95 3f e9 c4 87 3f 7e 0e a4 3f
       1.0097095 1.1670916 1.0606967 1.2816923
0000c0 27 bd 50 3f 75 28 96 3f 36 f7 b7 3f a4 dd 5a 3f
       0.81538624 1.1731097 1.4372318 0.85494447
0000d0 67 3b 9b 3f f4 d9 a5 3f 3a 47 9a 3f f6 65 a0 3f
       1.2127503 1.2957139 1.2052987 1.2531116
0000e0 ed f5 74 3f 5f bb 95 3f a5 49 72 3f 9b 77 a7 3f
       0.9568775 1.1697806 0.9464362 1.3083376
0000f0 e0 2d 8b 3f b2 c2 85 3f 51 a6 bf 3f 53 50 5c 3f
       1.0873375 1.0450041 1.4972631 0.86060065
000100 2b 76 be 3f 87 90 34 3f 39 87 9c 3f 13 f1 4c 3f
       1.4879812 0.7053303 1.2228767 0.8005535
000110 39 77 8e 3f 19 aa aa 3f f1 f4 46 3f 30 1a 77 3f
       1.1130134 1.333316 0.777175 0.96524334
000120 17 ab a1 3f 8b 02 95 3f b2 42 23 3f 8f ab 88 3f
       1.2630337 1.1641401 0.63773644 1.0677356
000130 ef 69 9f 3f 8b 8b c3 3f 91 ab c3 3f 27 18 23 3f
       1.2454203 1.527696 1.5286733 0.6370873
000140 87 c0 b2 3f fd 77 9e 3f d1 33 66 3f b8 94 88 3f
       1.3965005 1.2380368 0.89922816 1.0670385
000150 18 59 de 3e 0f a3 ad 3f b9 d8 97 3f 35 0a 35 3f
       0.43427348 1.3565387 1.1863014 0.707187
000160 ef 47 21 3f 55 c9 91 3f 8f 1f 61 3f 2d 78 a6 3f
       0.63000387 1.1389567 0.8793878 1.3005425
000170 05 68 45 3f 5d 5e 06 3f 41 40 18 3f 16 18 65 3f
       0.77111846 0.52487737 0.59473044 0.8948988
000180 b5 08 7a 3f 03 b5 9d 3f 8e 16 a9 3f f6 1f db 3e
       0.97669536 1.2320865 1.3210008 0.42797822
000190 5f fc e6 3e 2c 43 81 3f ed 5b 7b 3f bf f4 74 3f
       0.4511442 1.0098624 0.9818714 0.9568595
0001a0 cf 3a 8a 3f 4c e1 6d 3f bb cd 52 3f 39 8b 9a 3f
       1.0799197 0.929219 0.8234517 1.2073737
0001b0 cd 6a bd 3e 29 12 bb 3e 4a 43 62 3f b7 5c 23 3f
       0.36995545 0.36537293 0.88383925 0.63813347
0001c0 6a a7 bf 3e 6d a0 c8 3f cf 45 8e 3f cd dd 5d 3f
       0.37432414 1.5673958 1.1115054 0.86666566
0001d0 f2 98 a5 3f 10 81 4b 3e d7 a6 79 3f e5 02 1f 3f
       1.29373 0.19873452 0.975202 0.6211379
0001e0 6a 53 8a 3f 09 aa 41 3f 34 44 c6 3e e3 01 d0 3e
       1.0806706 0.7565008 0.3872391 0.4062644
0001f0 1f 9b 19 3f aa cc 0a 3f a1 aa 86 3e f5 1a 35 3f
       0.6000232 0.5421854 0.26302055 0.7074426
000200 bf 9b 8f 3e af a1 f2 3e 29 15 49 3f e7 d7 ac 3e
       0.28048512 0.4738898 0.7854791 0.3375847
000210 e6 1b 8e 3e 67 11 9a 3e 97 1f 30 3f 91 b7 39 3f
       0.2775566 0.30091402 0.687982 0.72545725
000220 18 52 2b 3f da b9 10 3f ee fe 88 3d 13 b0 2f 3f
       0.6692214 0.56533587 0.06689249 0.6862804
000230 e4 b9 53 3f 34 67 18 3e 11 c1 37 3f 7d 0e 67 3f
       0.8270552 0.14883119 0.7177897 0.9025648
000240 a5 02 07 3f 36 48 87 3f 39 0b 7c 3f 05 80 e1 3e
       0.5273841 1.0568912 0.98454624 0.44042984
000250 a4 47 88 3f df 87 14 3f f8 d5 6d 3e 7f f2 b2 3f
       1.0646863 0.5801982 0.23226154 1.3980254
000260 f3 32 6b 3f 77 4d de 3e dc 85 27 3f f7 9f b1 3e
       0.9187462 0.43418476 0.6543863 0.34692356
000270 e1 37 86 3f c6 71 02 3f 0e 3c 54 3f 71 50 b8 3e
       1.0485803 0.50954854 0.82904136 0.35998872
000280 d7 e8 69 3f 64 28 01 3f fe 62 9b 3f 22 43 10 3f
       0.9137091 0.50452256 1.2139585 0.56352437
000290 95 b8 26 3f c5 79 e2 3e 64 7a 17 3e f5 28 6e 3f
       0.651254 0.44233528 0.14792782 0.93031245
0002a0 84 4b 86 3f 71 f0 18 3f f9 e9 b6 3e b3 e5 0d 3f
       1.0491796 0.59741884 0.35725382 0.5542862
0002b0 fe d8 93 3f 70 41 9a 3f 9e 28 ad 3e e5 fe de 3d
       1.1550596 1.205122 0.3382005 0.10888461
0002c0 9c 58 92 3f 51 9c 4e 3f 96 57 21 3f b5 b9 62 3e
       1.1433291 0.8070727 0.6302427 0.22141154
0002d0 eb 8f 46 3f 5f 62 89 3f e3 1e 37 3f 80 4c b5 3e
       0.7756335 1.0733145 0.71531504 0.35409927
0002e0 2e 3a 1a 3f 25 b6 67 3e 12 24 42 3f 26 19 cd 3e
       0.60245025 0.22628076 0.7583629 0.4005825
0002f0 be 29 e9 3d e3 1d 92 3f 02 f0 07 3f be 68 5d 3f
       0.11384915 1.1415371 0.531006 0.8648795
000300 8f 12 7c 3f f8 bb 49 3f 77 1e 13 3e b2 0f 97 3f
       0.9846582 0.7880244 0.1436709 1.1801665
000310 b1 06 b3 3e e5 c2 b8 3e ef be 4f 3f 3c 59 73 3f
       0.34966043 0.36086193 0.81150717 0.95058036
000320 3f e3 25 3f bf 09 74 3d 84 06 c6 3e e4 e0 7a 3e
       0.64799875 0.059579607 0.38676846 0.24499851
000330 58 3a 53 3f f9 f0 46 3f 4c c6 52 3f 49 6a a2 3e
       0.825109 0.77711445 0.82333827 0.31721714
000340 e0 f8 32 3f 42 cc 2d 3f ef 82 67 3e 6a 3d ed 3e
       0.69911003 0.678898 0.22608541 0.46335918
000350 fe e2 77 3f 3d 1a 43 3f 66 c4 51 3f 9c 93 39 3f
       0.9683074 0.7621191 0.81940305 0.7249086
000360 6b 7e 79 3f 18 47 ef 3e 5f 55 a7 3e 03 0d 7a 3f
       0.97458524 0.46733928 0.3268232 0.97676104
000370 59 95 69 3f a2 9b 3a 3f 46 25 02 3f ea d2 df 3e
       0.9124351 0.72893727 0.50838125 0.43715602
000380 77 53 74 3f 4b 13 2b 3e f1 2b 39 3f ef 11 84 3f
       0.9543986 0.16706578 0.72332674 1.0317973
000390 75 9a 99 3f 01 d8 a6 3e fc 6a 12 3f 62 06 9b 3e
       1.2000262 0.32586673 0.57194495 0.30278307
0003a0 f4 22 0b 3f ba c9 4c 3f 81 f3 15 3f 83 d8 3f 3f
       0.5435021 0.7999531 0.5857468 0.74939746
0003b0 c7 91 6c 3f 2f 67 5a 3f 74 49 a9 3e b8 5b 0f 3f
       0.9240994 0.85313696 0.33063853 0.55999327
0003c0 0a 6c 3d 3f 89 30 13 3f 8e 90 2d 3f 34 3e 84 3e
       0.7399298 0.57495934 0.677987 0.25828707
0003d0 66 35 0c 3f 30 f9 53 3f b3 7a 14 3f 01 d7 c1 3e
       0.5476898 0.82802105 0.57999724 0.37859347
0003e0 48 68 85 3d dc fa 5d 3e d8 38 c7 3e d4 8c 31 3f
       0.06514031 0.21677727 0.38910556 0.6935551
0003f0 5c 05 00 3f ef 00 34 3f b7 df 4f 3f 24 fb 7a 3e
       0.5000818 0.70313925 0.81200737 0.24509865
