experiments/gru_h2_l1_20241124_115730/final_model.pth (torch, 310647 bytes, 7 tensors)

embedding.weight f4 [15345, 2]
0	0x3f8e3363	1.1109432
1	0x3f1101f5	0.5664361
2	0xbf4296c7	-0.7601132
3	0xbf22695a	-0.63442004
4	0x3f106ea5	0.5641883
5	0xc03cac8d	-2.9480317
6	0xbdf51665	-0.11967162
7	0xbde20763	-0.11036565
8	0x3ffb4099	1.9629089
9	0xbea2c062	-0.317874
10	0x3e177681	0.147913
11	0xbe05ed02	-0.13078693
12	0x3fae3e28	1.3612719
13	0x4025ac2a	2.588633
14	0x3fbcd7d1	1.4753362
15	0xbe36d166	-0.17853317
16	0x3f45ad01	0.7721711
17	0x3e56cfb8	0.20977676
18	0x4016f514	2.3587084
19	0x3e77a80e	0.24185202
20	0x3cca2522	0.02467591
21	0xbf9d4af2	-1.2288496
22	0xbf1334dc	-0.5750253
23	0xbe1fd696	-0.15609202
24	0x3e85fb42	0.26168257
25	0xbf7aa39d	-0.97905904
26	0xbe875450	-0.26431513
27	0xbf3fc46e	-0.749091
28	0x3fd0e6aa	1.6320393
29	0x3f3f515f	0.7473354
30	0x3f31918a	0.693627
31	0xbfe91d24	-1.8212018
32	0x3fb7cb32	1.4358885
33	0xbf6de0f4	-0.92921376
34	0x3f702af9	0.9381557
35	0x3fab6272	1.3389418
36	0xbf0a88c0	-0.54114914
37	0xbffe4950	-1.9866123
38	0xbf64ae8f	-0.89328855
39	0xbfb02c6c	-1.3763556
40	0xbe5a3eea	-0.21313062
41	0xbf028344	-0.50981545
42	0x3f789b27	0.97111744
43	0xbe2b0536	-0.16701207
44	0xbf2d341c	-0.6765764
45	0x3f3d172b	0.73863477
46	0xbe2b2c21	-0.16716053
47	0xbdf25ac4	-0.118337184
48	0x3fb7b175	1.435103
49	0xbf47a811	-0.77990824
50	0xbf1630e8	-0.58668375
51	0xbe53b8b6	-0.2067593
52	0x3fca0108	1.5781565
53	0xbe46555c	-0.193685
54	0xbfb08058	-1.3789167
55	0xbfa84a1f	-1.314762
56	0x3f584b58	0.84489965
57	0x3f2dc99e	0.6788577
58	0xbf91922c	-1.1372733
59	0xbf049ef5	-0.5180505
60	0x4027df49	2.6230032
61	0xbfd978ac	-1.6989951
62	0xbf1f7591	-0.6228877
63	0xbf2b1a79	-0.6683727
64	0xbe97e871	-0.29669526
65	0xbfa8bcd6	-1.3182628
66	0x3f5c4fb6	0.8605913
67	0xbdb31f42	-0.08746196
68	0x3e4d321f	0.20038651
69	0xc004c7ff	-2.0747068
70	0xbef4d9c6	-0.47822398
71	0xbde1dcc3	-0.11028435
72	0xbeb0bb23	-0.34517774
73	0xbfa2441a	-1.2677033
74	0xbd102ab3	-0.03519697
75	0xbf3c27ee	-0.7349843
76	0x3fd9be81	1.7011262
77	0x3f004c74	0.5011666
78	0x3f817695	1.0114313
79	0x3f816ea6	1.0111892
80	0xbe0455ca	-0.12923351
81	0xc04a26ab	-3.15861
82	0xbf98d8d1	-1.1941167
83	0xbfcd0ca9	-1.6019489
84	0x3fac64d3	1.3468269
85	0x3f3d3d0b	0.7392127
86	0xbea77ee8	-0.3271401
87	0xbe801295	-0.25014177
88	0x3f486359	0.7827659
89	0xbe0d0abc	-0.13773626
90	0xbfb89b05	-1.4422308
91	0x3f864ada	1.0491593
92	0x3f92e63d	1.1476513
93	0x3e9dc279	0.30812433
94	0x3f444783	0.7667162
95	0x3f8f1f07	1.1181344
96	0x3fd65661	1.6745111
97	0xbfdfb5cd	-1.7477356
98	0x3f758ea4	0.9592078
99	0x3fa26b5e	1.2689016
100	0x3f8f9112	1.1216147
101	0xbf4e3cdf	-0.8056163
102	0x3fa30e2c	1.27387
103	0xbf26ab30	-0.6510496
104	0xbe0ee2ec	-0.13953751
105	0x3eb8196c	0.35956895
106	0x3e3f30b0	0.18670917
107	0xbd1970f8	-0.03746125
108	0x3f784ec6	0.969952
109	0xbe11f120	-0.14252138
110	0x3f8001cc	1.0000548
111	0x3f29e858	0.66370153
112	0x3e2c7e54	0.16845065
113	0xbf8a414c	-1.0801177
114	0x3fbb9e55	1.4657694
115	0x3f16d278	0.589149
116	0x3faf904c	1.3715911
117	0xbabe78c6	-0.0014531843
118	0x3f9a72f9	1.2066337
119	0xbf569be5	-0.83831626
120	0x3f5c3e6a	0.86032736
121	0xbe5a8312	-0.21339062
122	0x3e1dbfe0	0.15405226
123	0xbde24369	-0.11048014
124	0xbee848a3	-0.45367917
125	0x3f29c671	0.6631842
126	0x3f9790d8	1.1841078
127	0xbfa2e8df	-1.2727317
128	0xbf7f412a	-0.9970881
129	0x3ee55a9f	0.447957
130	0x3e11f400	0.14253235
131	0x3ea1e8b5	0.31622854
132	0xbf8becc0	-1.0931625
133	0xbf2b8bc0	-0.67010117
134	0x400aa005	2.1660168
135	0xbfad7d3e	-1.3553846
136	0xbe87165a	-0.2638424
137	0xbf928beb	-1.144895
138	0xbe8d5c2e	-0.2760939
139	0xbf7e561d	-0.9935015
140	0x3efeb436	0.49746865
141	0xbd91f186	-0.07126145
142	0x3f9c2a2e	1.2200372
143	0x3fce2da0	1.6107674
144	0x3e3fd9b1	0.18735386
145	0xbfd05e7b	-1.6278833
146	0x3fb62855	1.4231058
147	0xbebed602	-0.3727265
148	0x3f5a6e83	0.8532488
149	0x3ed7932a	0.42104465
150	0xbebc0137	-0.36719677
151	0xc01efec3	-2.4842994
152	0x401038f0	2.2534752
153	0x3fad6be4	1.3548551
154	0x3f386993	0.72036093
155	0x4011b5bf	2.276718
156	0xbea1f111	-0.31629232
157	0xbed535b4	-0.41642535
158	0x3f721a16	0.94571054
159	0x3f4e0ff7	0.8049311
160	0x3f9d6103	1.2295231
161	0xbe73c095	-0.23803933
162	0xbf2982d4	-0.6621525
163	0xbf0f70fd	-0.5603178
164	0x4016ecc4	2.358201
165	0xbf25c562	-0.6475431
166	0xbf67ec3b	-0.90594834
167	0x3f315e7a	0.69284785
168	0x3d4b6fc9	0.049667154
169	0x3ef6ebd6	0.48226804
170	0xbea92e42	-0.33043104
171	0x3d782e48	0.060591012
172	0x3f0a732e	0.54082
173	0xbf4d3b37	-0.8016848
174	0x3ef32f07	0.47496817
175	0x3f39e5a6	0.7261604
176	0x3e20caeb	0.15702407
177	0xbfabe0a2	-1.3427927
178	0x3ef570f6	0.47937745
179	0x3faa940c	1.332643
180	0xbfca9e93	-1.5829643
181	0xbfb788db	-1.433864
182	0xbf23739f	-0.638483
183	0xbfdf3100	-1.7436829
184	0xbf6efb11	-0.93351847
185	0xbf80f5a7	-1.0074967
186	0xbea4d849	-0.32196262
187	0x3fd119d6	1.633601
188	0xbf54abc8	-0.8307462
189	0x3f8aa7f7	1.0832509
190	0xbefa3533	-0.48868713
191	0xbf6777cb	-0.90417165
192	0x3f887570	1.0660839
193	0x3eb3abf8	0.3509214
194	0x3eda0240	0.42579842
195	0xc01ccd4f	-2.450031
196	0x3efdf26f	0.49599025
197	0xbf7d43d4	-0.9893162
198	0xbd8b8216	-0.06811921
199	0x3f934035	1.150397
200	0xbea2fc5d	-0.31833163
201	0xbfa81a7c	-1.3133082
202	0x3fb0e493	1.3819755
203	0xbf87bfa1	-1.0605356
204	0xbf6d3ef5	-0.9267419
205	0x3f14f014	0.5817883
206	0x3f08914a	0.53346694
207	0xbf47d40a	-0.7805792
208	0xbeb7f6b8	-0.3593042
209	0x3ef37ed9	0.47557715
210	0x3e25fcdc	0.1620974
211	0x3dd5c0d4	0.1043717
212	0x3eb7f46e	0.35928673
213	0x3f23440d	0.6377571
214	0x3fd2b975	1.6462847
215	0xbef5a043	-0.47973832
216	0xbe9b289a	-0.30304414
217	0xbfef5feb	-1.8701147
218	0x3fac79af	1.3474635
219	0xbec5003b	-0.38476738
220	0xbf8a290f	-1.079378
221	0x3fb2ab65	1.3958555
222	0xbf79e0e4	-0.9760878
223	0xbf5d610b	-0.864762
224	0xbfec75e8	-1.8473482
225	0xbf03742d	-0.51349145
226	0x3c76ef2c	0.015071671
227	0xbfaf6f68	-1.3705873
228	0x3ffec11b	1.9902681
229	0xbf74869d	-0.95517904
230	0x3f9c5205	1.221253
231	0xbfb7f5d2	-1.4371893
232	0xbf333af8	-0.70011854
233	0xbf903154	-1.1265054
234	0xbfa99048	-1.3247156
235	0x3f643dd0	0.8915682
236	0xbf9b2919	-1.2121917
237	0x4004be32	2.0741086
238	0xbe285c81	-0.16441537
239	0xbf321807	-0.6956791
240	0xbe1371b4	-0.14398843
241	0x3f5b9474	0.85773396
242	0x3f193ded	0.59860116
243	0x3e747bfe	0.23875424
244	0x3ca36962	0.019947711
245	0x3ea8a742	0.32940108
246	0xbe7748c3	-0.2414885
247	0x3f28fca0	0.66010475
248	0x3f8718f0	1.0554485
249	0x3ddc236a	0.10748942
250	0x3fa053b0	1.2525539
251	0xbefaeb3e	-0.490076
252	0x3f4a1905	0.78944427
253	0xbe9e9363	-0.30971822
254	0x3fd30e9b	1.6488832
255	0xbfa1b4ed	-1.2633339

gru.weight_ih_l0 f4 [6, 2]
0	0x3b535437	0.003224624
1	0x3ae81773	0.0017707184
2	0x3b98443a	0.004646805
3	0xb9424977	-0.0001852865
4	0x3bdc2688	0.0067184605
5	0xbc8a7e19	-0.016905831
6	0x3851af70	4.9992872e-05
7	0xba1231fc	-0.0005576906
8	0xbc32b599	-0.010907554
9	0x3d122e14	0.035688475
10	0xbe38e543	-0.18056206
11	0x3ddb4c77	0.10707944

gru.weight_hh_l0 f4 [6, 2]
0	0x3f8e09c0	1.1096725
1	0xbfd10608	-1.6329966
2	0x3d423b79	0.04742
3	0x3d0507d1	0.032478157
4	0x40f52bcb	7.661596
5	0xc11f5a37	-9.959525
6	0xbff1b8c8	-1.8884516
7	0x40802046	4.0039396
8	0x3f5162a6	0.8179115
9	0xbe897545	-0.26847282
10	0xbf6b25ae	-0.9185437
11	0x3fae7d0e	1.3631914

gru.bias_ih_l0 f4 [6]
0	0x3ee03fe7	0.43798754
1	0x3eb974f2	0.36222035
2	0x3e339850	0.17538571
3	0xbe0a7aed	-0.13523455
4	0x3e1babe1	0.15202285
5	0xc0975507	-4.7291293

gru.bias_hh_l0 f4 [6]
0	0x3f190eb7	0.5978808
1	0xbebe1d09	-0.37131527
2	0x3f6f36b5	0.9344285
3	0x3e06ae0f	0.13152336
4	0xc05b4064	-3.425805
5	0x3e518318	0.20460165

fc.weight f4 [15345, 2]
0	0xbf82ef42	-1.0229266
1	0x40974b7f	4.727966
2	0xbfec55ad	-1.8463646
3	0x4095646e	4.6685095
4	0xbfffa76e	-1.997297
5	0x4080af70	4.0214157
6	0xbe2cfda2	-0.16893628
7	0xbeec5009	-0.46154812
8	0xbe6cf69e	-0.23140952
9	0xc03b8edd	-2.9305947
10	0xbe795dce	-0.2435219
11	0xc02f012c	-2.7344465
12	0xbe74dfe2	-0.2391353
13	0xc033c0d2	-2.8086438
14	0xbe6a6c4d	-0.22892876
15	0xc021e155	-2.5293782
16	0xbe7adeaf	-0.2449901
17	0xc0175707	-2.3646867
18	0xbe6fea17	-0.23429142
19	0xc0204021	-2.503914
20	0xbe6db137	-0.23212133
21	0xc00fa3f7	-2.2443826
22	0xbe6ef5ec	-0.23335999
23	0xc01e0b3f	-2.4694364
24	0xbe72a5ac	-0.23696011
25	0xc019a035	-2.4004033
26	0xbe5f9e22	-0.21837667
27	0xbfef2994	-1.8684564
28	0xbe73e146	-0.23816404
29	0xc01aa295	-2.4161732
30	0xbe77ea15	-0.24210389
31	0xc023abc9	-2.55736
32	0xbe6f0921	-0.23343326
33	0xbfdc1fbb	-1.7197183
34	0xbe6562fd	-0.22401042
35	0xbff79d14	-1.9344811
36	0xbe5ed4bd	-0.2176084
37	0xc0157a82	-2.3356023
38	0xbe6dbf3a	-0.23217478
39	0xc012a712	-2.2914472
40	0xbe65ccbb	-0.2244138
41	0xbff7b23b	-1.9351267
42	0xbe71e07f	-0.23620795
43	0xc0198bb2	-2.3991513
44	0xbe637e17	-0.22216068
45	0xc00613cf	-2.094959
46	0xbe681d9f	-0.2266755
47	0xc010f991	-2.2652323
48	0xbe57d087	-0.2107564
49	0xbfd48073	-1.66017
50	0xbe6e4aef	-0.23270772
51	0xc01a0486	-2.406526
52	0xbe5cfeb5	-0.21581538
53	0xbfe37dc5	-1.7772757
54	0xbe5fa6e7	-0.21841012
55	0xbfcb7c45	-1.5897299
56	0xbe661482	-0.2246876
57	0xc0032fc6	-2.0497909
58	0xbe614a23	-0.22000937
59	0xc00ef5c5	-2.2337506
60	0xbe6cd03b	-0.23126309
61	0xc003f54e	-2.0618472
62	0xbe6bb0af	-0.23016618
63	0xbfde877f	-1.73851
64	0xbe70d71d	-0.23519559
65	0xbfbc560e	-1.4713762
66	0xbe6e6cca	-0.23283687
67	0xbffd776f	-1.9802073
68	0xbe5c1c7f	-0.21495245
69	0xbfc7b9c3	-1.5603565
70	0xbe66961d	-0.22518201
71	0xbfd3a342	-1.6534197
72	0xbe6e5651	-0.23275115
73	0xbfdc663d	-1.7218701
74	0xbe66a8c4	-0.22525316
75	0xc001a2fe	-2.0255733
76	0xbe656f6e	-0.22405788
77	0xbfb064ae	-1.3780725
78	0xbe5c2e67	-0.21502076
79	0xbff4eddb	-1.9135088
80	0xbe6c974d	-0.23104592
81	0xbfec7b7c	-1.8475184
82	0xbe77d71d	-0.24203153
83	0xbfc03971	-1.501753
84	0xbe756395	-0.23963769
85	0xbfe84785	-1.8146826
86	0xbe5ea8b9	-0.2174405
87	0xbfb9b636	-1.4508731
88	0xbe5aec70	-0.21379256
89	0xc007ca72	-2.1217313
90	0xbe7068a0	-0.23477411
91	0xbfa5d05e	-1.2954214
92	0xbe63bc8f	-0.22239898
93	0xc0057f33	-2.0858886
94	0xbe5ef352	-0.21772507
95	0xbfe1e8b2	-1.7649138
96	0xbe5ff53d	-0.21870895
97	0xbf8a5abc	-1.080894
98	0xbe640272	-0.22266558
99	0xbfbfe2e5	-1.4991118
100	0xbe6a82c2	-0.22901443
101	0xbf85116e	-1.0395944
102	0xbe482f32	-0.19549254
103	0xbf5f5093	-0.8723232
104	0xbe4ad0e5	-0.1980625
105	0xbf87e977	-1.0618123
106	0xbe55be91	-0.20873477
107	0xbfc2fd13	-1.5233482
108	0xbe698238	-0.22803581
109	0xbfb52043	-1.415047
110	0xbe5ba33c	-0.21448988
111	0xbfa7a9bf	-1.3098677
112	0xbe492adf	-0.1964526
113	0xbf8a0442	-1.0782549
114	0xbe4b2f74	-0.1984232
115	0xbfc2604b	-1.5185636
116	0xbe4cd05e	-0.20001361
117	0xbfe170a9	-1.7612506
118	0xbe5324ba	-0.20619479
119	0xbfbf4c99	-1.4945251
120	0xbe5eece1	-0.2177005
121	0xbfe598ac	-1.7937217
122	0xbe614e20	-0.22002459
123	0xbfa9d419	-1.3267852
124	0xbe664987	-0.22488986
125	0xbfa1f388	-1.2652445
126	0xbe5dc7e0	-0.21658278
127	0xbfa4eb9e	-1.2884405
128	0xbe520843	-0.20510964
129	0xbfaa9199	-1.3325683
130	0xbe4e7bdf	-0.2016444
131	0xbfc8c175	-1.5684038
132	0xbe423cd8	-0.18968523
133	0xbf68b7ec	-0.9090564
134	0xbe436035	-0.19079669
135	0xbfaa3203	-1.3296512
136	0xbe55a9b4	-0.20865518
137	0xbfeb1292	-1.8365042
138	0xbe49c6e0	-0.19704771
139	0xbfe954bd	-1.8228985
140	0xbe537ef9	-0.20653905
141	0xbfa26036	-1.2685611
142	0xbe466559	-0.19374599
143	0xbfba5408	-1.4556894
144	0xbe643a62	-0.22287896
145	0xbfc64785	-1.5490576
146	0xbe3e1cb0	-0.18565631
147	0xbf39ca13	-0.72573966
148	0xbe597715	-0.21236832
149	0xbfac31ed	-1.3452736
150	0xbe52d970	-0.20590758
151	0xbfc0b304	-1.5054631
152	0xbe55e559	-0.2088827
153	0xbf8e6c10	-1.1126728
154	0xbe3e14b7	-0.1856259
155	0xbf9f1efb	-1.243133
156	0xbe5a6b91	-0.21330096
157	0xbf8dfb0c	-1.1092238
158	0xbe510e56	-0.20415625
159	0xbf9b8a12	-1.2151511
160	0xbe41fde8	-0.18944514
161	0xbf897415	-1.073855
162	0xbe4a3351	-0.19746138
163	0xbf9aed43	-1.2103657
164	0xbe644051	-0.2229016
165	0xbfc372ac	-1.526937
166	0xbe588dff	-0.21147917
167	0xbf6a02f2	-0.91410744
168	0xbe3eba69	-0.18625797
169	0xbf18d776	-0.5970377
170	0xbe2759cc	-0.16342849
171	0xbefe6c0b	-0.49691805
172	0xbe3a0061	-0.18164207
173	0xbf883590	-1.0641346
174	0xbe3bfc2f	-0.18357919
175	0xbe7f7556	-0.24947104
176	0xbe44f221	-0.1923299
177	0xbf8b85ac	-1.0900168
178	0xbe588b4e	-0.2114689
179	0xbfa15835	-1.2605044
180	0xbe3f8b7f	-0.18705557
181	0xbf75ac28	-0.95965815
182	0xbe34107e	-0.17584416
183	0xbec31c6a	-0.38107616
184	0xbe54f3b7	-0.20796095
185	0xbeb2539e	-0.3482942
186	0xbe5aaadd	-0.21354242
187	0xbfb2c57b	-1.3966516
188	0xbe3af4d7	-0.18257461
189	0xbf34155e	-0.70345104
190	0xbe5a3184	-0.21307951
191	0xbf8ef6c5	-1.1169058
192	0xbe444f3b	-0.19170849
193	0xbf39fe30	-0.72653484
194	0xbe40857f	-0.18800925
195	0xbef68f2c	-0.48156106
196	0xbe2bc264	-0.16773373
197	0xbf875964	-1.0574155
198	0xbe4b8411	-0.19874598
199	0xbf1e5087	-0.61841625
200	0xbe647458	-0.22310007
201	0xbf860871	-1.0471326
202	0xbe3f2061	-0.18664695
203	0xbea4f71e	-0.32219785
204	0xbe36063f	-0.1777582
205	0xbf038f81	-0.51390845
206	0xbe39c524	-0.1814161
207	0xbf114eb6	-0.5676073
208	0xbe496f4e	-0.19671366
209	0xbf888563	-1.0665706
210	0xbe21fa92	-0.15818241
211	0xbf1f563c	-0.6224096
212	0xbe3e90fb	-0.18609993
213	0xbeb8fa18	-0.36128306
214	0xbe33e62e	-0.17568275
215	0xbedd68a7	-0.43243906
216	0xbe3925c6	-0.18080816
217	0xbf32f304	-0.6990206
218	0xbe3b12f3	-0.18268947
219	0xbf35687d	-0.7086256
220	0xbe444b1f	-0.19169281
221	0xbf4cd727	-0.80015796
222	0xbe3ea928	-0.18619215
223	0xbf9e93cd	-1.2388855
224	0xbe401cec	-0.18761033
225	0xbf800f5c	-1.0004687
226	0xbe50f3c4	-0.20405489
227	0xbf4ec0f4	-0.80763173
228	0xbe41835d	-0.18897767
229	0xbf752629	-0.9576135
230	0xbe3e06b7	-0.18557249
231	0xbf248d65	-0.6427825
232	0xbe3a2c37	-0.18180929
233	0xbf457297	-0.77127975
234	0xbe35c6cf	-0.1775162
235	0xbf48112d	-0.7815121
236	0xbe375c61	-0.17906334
237	0xbf54ba79	-0.83097035
238	0xbe570f4f	-0.21001934
239	0xbf1c2a91	-0.6100245
240	0xbe3469f4	-0.17618543
241	0xbf3e4c94	-0.743356
242	0xbe4ac049	-0.19799913
243	0xbf9f2e22	-1.2435954
244	0xbe366113	-0.17810468
245	0xbf97569f	-1.182331
246	0xbe311f94	-0.17297202
247	0xbf82ca7d	-1.0218045
248	0xbe3b31c4	-0.18280703
249	0xbf401517	-0.7503218
250	0xbe44781d	-0.19186445
251	0xbf5871cb	-0.84548634
252	0xbe544f52	-0.20733383
253	0xbf7c26bf	-0.9849662
254	0xbe52f965	-0.20602949
255	0xbf3a1560	-0.72688866

fc.bias f4 [15345]
0	0xc01db45a	-2.4641328
1	0xc0294034	-2.6445436
2	0xc03e8e01	-2.9774172
3	0x3f993f3b	1.1972421
4	0x4079e9a0	3.9048843
5	0x4061874e	3.5238833
6	0x404ceafd	3.2018425
7	0x4054e2ad	3.3263352
8	0x4054cc44	3.3249674
9	0x404ced92	3.2020001
10	0x40541c12	3.3142133
11	0x40438644	3.05507
12	0x4037fa73	2.8746612
13	0x4056464c	3.3480406
14	0x4031f2cd	2.7804444
15	0x40205aab	2.505534
16	0x40494786	3.1449904
17	0x403ac235	2.9181035
18	0x4024d36e	2.5754046
19	0x4026c7a8	2.605936
20	0x403758f3	2.864804
21	0x4018631f	2.3810499
22	0x4021a9ab	2.5259807
23	0x4016fc86	2.3591628
24	0x403737e9	2.8627875
25	0x400b3e61	2.1756823
26	0x4029e686	2.654695
27	0x4031c07a	2.7773728
28	0x400f2cea	2.2371163
29	0x400246c4	2.0355692
30	0x400435c9	2.0657828
31	0x401699e7	2.3531435
32	0x4023a3d5	2.5568745
33	0x3ffc07df	1.9689902
34	0x400c96c9	2.1967032
35	0x4009d6c3	2.153733
36	0x400435c1	2.0657809
37	0x3fe15fda	1.7607377
38	0x401384cb	2.30498
39	0x3fe2247c	1.7667384
40	0x3fe21c8d	1.7664963
41	0x4000ec3d	2.0144188
42	0x3fe31ee4	1.7743802
43	0x3ffe3219	1.9859039
44	0x3fb56b30	1.4173336
45	0x40056a95	2.0846303
46	0x3fb0b666	1.3805664
47	0x3fcb6076	1.5888813
48	0x400bc725	2.1840298
49	0x3fdcb545	1.7242819
50	0x40081b45	2.1266644
51	0x400bed7c	2.18637
52	0x40045f71	2.0683253
53	0x3fc55821	1.541752
54	0x3fdb01dd	1.7109944
55	0x3fe16c85	1.7611243
56	0x3ff26367	1.8936585
57	0x3fc6d62f	1.5534114
58	0x3f9fbe9a	1.2480042
59	0x3fc53c63	1.5409054
60	0x3fa65b74	1.2996659
61	0x3fd41a35	1.6570498
62	0x3fcd1b11	1.6023885
63	0x3fd7eaa9	1.6868488
64	0x3fc25eac	1.5185142
65	0x3faba361	1.3409234
66	0x4001bcfc	2.0271597
67	0x3fb96adf	1.448574
68	0x3f72b907	0.9481358
69	0x3f8a3dbf	1.0800093
70	0x3fb1d450	1.3892918
71	0x3faf8aac	1.3714194
72	0x3f9bd35d	1.2173878
73	0x3fde474e	1.736551
74	0x3fb382e2	1.4024317
75	0x3f95618e	1.1670396
76	0x3fc6bcf8	1.5526419
77	0x3fa93787	1.3220071
78	0x3fc507b3	1.5392975
79	0x3f9bd1df	1.2173423
80	0x3fb16602	1.3859255
81	0x3f9c7c43	1.2225422
82	0x3f738cc1	0.9513665
83	0x3fc267b5	1.5187899
84	0x3fd7afe0	1.6850548
85	0x3fe78383	1.8087009
86	0x3f8df1c6	1.1089408
87	0x3feb1f0a	1.8368847
88	0x3f936c31	1.1517392
89	0x3f5a2bb5	0.8522294
90	0x3f89611d	1.0732762
91	0x3fdb8d08	1.7152414
92	0x3fd73be0	1.6815147
93	0x3f38d046	0.721928
94	0x3fb636c8	1.4235468
95	0x3f94f551	1.1637365
96	0x3fb35950	1.4011631
97	0x3fc40013	1.5312523
98	0x3f74d924	0.9564383
99	0x3fb662c6	1.4248893
100	0x3f95c758	1.170146
101	0x3fd8646d	1.6905648
102	0x3fb46fe0	1.4096642
103	0x3fa983ea	1.3243382
104	0x3f865ec4	1.049767
105	0x3fa649b0	1.2991238
106	0x3fbc5759	1.4714156
107	0x3fa90caa	1.320699
108	0x3f9a016d	1.2031685
109	0x3f76652c	0.96248126
110	0x3f63610f	0.88819975
111	0x3f293af5	0.66105586
112	0x3f727b10	0.9471903
113	0x3f93412c	1.1504264
114	0x3f60332f	0.875781
115	0x3f74ff1e	0.9570178
116	0x3f6c9ec9	0.92429787
117	0x3f6e8fbc	0.9318807
118	0x3f656435	0.8960603
119	0x3f9b11ff	1.2114867
120	0x3f74c5cf	0.9561433
121	0x3f208236	0.62698686
122	0x3f0c84d5	0.54890186
123	0x3f29852a	0.6621882
124	0x3f8022d9	1.0010635
125	0x3f8e6ce3	1.112698
126	0x3f4a1c16	0.78949106
127	0x3f735f69	0.9506746
128	0x3f7b84c7	0.9824948
129	0x3fb958b8	1.44802
130	0x3f9eb018	1.239749
131	0x3f34c4a3	0.70612544
132	0x3f2ec2b8	0.6826587
133	0x3f03596c	0.5130832
134	0x3f9b2354	1.2120156
135	0x3f87bdd3	1.0604805
136	0x3f329851	0.69763666
137	0x3f6cd3be	0.9251059
138	0x3f1e39d3	0.6180698
139	0x3f39ec8c	0.72626567
140	0x3f176bd9	0.5914894
141	0x3f4fb41f	0.8113422
142	0x3f502e69	0.81320816
143	0x3f3a7579	0.728355
144	0x3f9c0cd2	1.2191412
145	0x3ea6b161	0.32557204
146	0x3f3aa1e5	0.7290328
147	0x3f636dc0	0.8883934
148	0x3f865aec	1.0496497
149	0x3f9669cc	1.1751037
150	0x3f852029	1.040044
151	0x3f4597dc	0.77184844
152	0x3f90052a	1.1251576
153	0x3f918cb1	1.1371061
154	0x3ebe2f0b	0.37145266
155	0x3fa94f0d	1.3227249
156	0x3efcda95	0.49385515
157	0x3f986b77	1.1907796
158	0x3fa0fa97	1.2576474
159	0x3f40955f	0.7522792
160	0x3f47abc0	0.77996445
161	0x3f590aab	0.84781903
162	0x3e9d6db6	0.30747765
163	0x3edbc096	0.4292037
164	0x3f38e3ef	0.722228
165	0x3f1460c3	0.57960147
166	0x3f2273ec	0.6345813
167	0x3f20f843	0.6287882
168	0x3f9c4bc3	1.2210621
169	0x3f8a3055	1.0796
170	0x3f214bde	0.6300639
171	0x3f4eafcf	0.8073701
172	0x3ed552ec	0.41664827
173	0x3f938e3f	1.1527785
174	0x3f1a90c3	0.6037714
175	0x3f89b846	1.0759361
176	0x3f8deb40	1.1087418
177	0x3f6049d9	0.8761268
178	0x3f19e83f	0.60120004
179	0x3f403e2b	0.7509486
180	0x3f48b2f8	0.78398085
181	0x3f6fb823	0.93640345
182	0x3f060b5d	0.5236109
183	0x3f4b91f4	0.7951958
184	0x3f51b0f0	0.8191061
185	0x3f2fe04b	0.6870162
186	0x3f5479d2	0.82998383
187	0x3f3c6d22	0.73604023
188	0x3ecb9e97	0.39769432
189	0x3f0cb126	0.5495781
190	0x3e8063c5	0.25076118
191	0x3f951468	1.1646852
192	0x3e810c28	0.25204587
193	0x3f378e40	0.7170143
194	0x3f41c0d8	0.7568488
195	0x3f6fb338	0.9363284
196	0x3ec9f63e	0.3944568
197	0x3f1a1401	0.60186774
198	0x3f80cdd7	1.0062817
199	0x3f75b75e	0.9598292
200	0x3f572123	0.8403494
201	0x3f4deac0	0.80436325
202	0x3f252d20	0.6452198
203	0x3e86a9c4	0.26301396
204	0x3ee4a0d3	0.4465395
205	0x3f631270	0.8870001
206	0x3f6b3f5c	0.91893554
207	0x3f58d546	0.8470043
208	0x3f8a485b	1.0803331
209	0x3f922e09	1.1420299
210	0x3efcdaaf	0.49385592
211	0x3f1fac52	0.62372315
212	0x3f9c234a	1.2198269
213	0x3ebb8e07	0.36631796
214	0x3f394a69	0.72379166
215	0x3eb95421	0.36196998
216	0x3f074ab5	0.5284837
217	0x3f3a5604	0.727875
218	0x3f6edb3d	0.9330328
219	0x3f63bfde	0.8896464
220	0x3f7c1d55	0.9848226
221	0x3e282254	0.16419345
222	0x3f8089b6	1.0042026
223	0x3f6a33b9	0.9148517
224	0x3f530470	0.82428646
225	0x3ea688d4	0.32526267
226	0x3e4fac2e	0.20280525
227	0x3f1252c0	0.57157516
228	0x3f11ca57	0.5694937
229	0x3f33ed7e	0.7028426
230	0x3f38fccb	0.7226073
231	0x3ebd6ebf	0.36998555
232	0x3eef9034	0.46789706
233	0x3f38fd9a	0.72261965
234	0x3f507ed3	0.8144352
235	0x3f345eef	0.7045736
236	0x3f2e59d8	0.6810584
237	0x3f8c7eac	1.0976157
238	0x3eac409b	0.3364304
239	0x3e2e3f2b	0.17016284
240	0x3f583d3a	0.84468424
241	0x3e89fc72	0.26950413
242	0x3f5149c8	0.81753206
243	0x3f25ad72	0.6471778
244	0x3f16b2d2	0.5886661
245	0x3f72bee2	0.94822514
246	0x3f465507	0.7747349
247	0x3f2f7617	0.68539566
248	0x3f4f16d0	0.80894184
249	0x3f38ce9b	0.72190255
250	0x3ebd764b	0.37004313
251	0x3f17c74a	0.59288466
252	0xbc238f72	-0.0099829305
253	0x3eca905e	0.39563268
254	0x3eb7f2b6	0.3592736
255	0x3f151732	0.5823852
